models/(Working)ppo_CartPole-v1.pth (torch, 129923 bytes, 33 tensors)

actor.0.weight f4 [64, 4]
000000 08 c8 f1 3c 5e 5c 4f be 25 9f 40 bd 8b a9 cf be
       0.029514328 -0.20250079 -0.047026772 -0.4055904
000010 de fc ae 3d 0b 3d 9d 3d 1e e7 29 3e 01 bb 7e 3d
       0.08544324 0.07677659 0.1659207 0.06219006
000020 a5 2d ae 3c cd f1 88 3d 55 30 30 bf 36 c5 3f be
       0.021262 0.06686745 -0.6882375 -0.18727574
000030 75 08 d8 3c f2 60 fe bb 37 53 d7 be 84 4a 31 bd
       0.02637122 -0.0077630216 -0.42055675 -0.043283954
000040 39 c5 44 3e 2b b4 51 3d 2d a9 c6 3e 3a 69 93 3d
       0.1921586 0.051197212 0.38800946 0.07197805
000050 3c f8 5e 3d 01 44 2a be 0d 5d 71 be d8 8e 11 3c
       0.054435953 -0.16627504 -0.23570652 0.008884154
000060 46 3a 1a 3e 79 b9 a3 3e b9 0a 40 3e 05 3c c5 3e
       0.15061292 0.31977442 0.1875409 0.38522354
000070 52 76 f9 3d 29 13 53 be 0e 9f d8 be bf 28 0d be
       0.12180771 -0.20612778 -0.4230885 -0.13785075
000080 7c 3d 34 be 7a 62 24 3d e9 92 5b be a0 f8 a1 be
       -0.1760158 0.040132977 -0.2144276 -0.31634998
000090 28 b7 8a bc 4e 57 b1 bd a6 96 37 3e 15 c7 e1 3e
       -0.016933039 -0.0865923 0.17928562 0.440972
0000a0 77 28 c0 3e 62 fd 94 3e 0d 87 d4 3d ed a6 f7 3d
       0.37530872 0.29099566 0.103773214 0.120923854
0000b0 92 f2 80 be 5b 66 88 bc 0e 85 99 3e eb 9f d5 3e
       -0.25185066 -0.01665037 0.29984325 0.4172357
0000c0 df 62 99 3b 26 bd a8 3d 92 9a 42 3f d4 2f c9 3e
       0.004680976 0.08239202 0.76017106 0.39294302
0000d0 80 4d e3 3d bd e5 3c 3e d1 1a 21 3e 5e 2b 4c 3e
       0.11098766 0.18447013 0.15732886 0.19938418
0000e0 34 04 74 bd 22 42 77 be 76 b7 04 bf 43 75 df bc
       -0.05957432 -0.24146321 -0.5184244 -0.027277594
0000f0 71 13 07 be a2 22 07 3e 91 15 ae be 44 6e c5 bd
       -0.1319101 0.13196805 -0.3400083 -0.09640172
000100 61 c2 18 3e bc e6 0a bb 5c 22 23 3e 74 34 c0 3d
       0.149179 -0.0021194657 0.15931076 0.09385005
000110 e9 12 55 3e 01 c8 82 be 96 96 e8 be e1 6f d1 bd
       0.20807995 -0.25543216 -0.45427388 -0.10226417
000120 42 f2 40 be 8e d9 b9 be 14 67 04 3d c9 76 c6 3d
       -0.18842414 -0.36298794 0.032324865 0.09690625
000130 06 64 50 3e 5d a3 57 bd 83 e6 61 3c c6 36 76 3e
       0.20350656 -0.05264603 0.013787868 0.24044332
000140 6d bd 1c bd 03 30 6d be d0 35 d8 be d1 6b 4c be
       -0.038266588 -0.23162846 -0.42228556 -0.19963004
000150 63 7b 4d 3e fc 65 cd bc dc af 77 3e 8c 60 83 3d
       0.200666 -0.025073044 0.24188179 0.06414899
000160 2c c9 4a 3e dc aa 7f be 2a 8f d0 3e bc 2a 43 3e
       0.19803303 -0.24967521 0.40734226 0.1905927
000170 fa ad b1 3c 00 0b 9a 3c f5 fc 69 3e ed 96 56 3e
       0.021689404 0.018804073 0.22850402 0.20956011
000180 4a bd a2 3d 07 6d 84 be 8b 99 43 be 1f 99 cd 3d
       0.0794626 -0.2586443 -0.1910154 0.10038971
000190 80 69 01 be b9 2a 1e be 24 05 80 be 6d 5a e3 be
       -0.12637901 -0.15445985 -0.25003922 -0.44404927
0001a0 63 45 00 bd 93 47 87 bd bf 79 90 3e 4a 4e 52 3d
       -0.031316172 -0.066054486 0.28217885 0.051344194
0001b0 b6 ac 19 3e aa 25 18 be cc 6e ca be b2 2e 3f 3d
       0.1500729 -0.14858118 -0.39537656 0.04667539
0001c0 43 b7 36 bd a5 0a 86 3e 83 9e 39 3e 84 5b d5 3e
       -0.044608366 0.26179996 0.18126874 0.41671383
0001d0 19 e2 41 3e f6 d6 6f 3c 62 bd c1 3e 4f 72 93 3e
       0.18933906 0.014638653 0.378398 0.28798148
0001e0 a8 e0 9a 3d 38 48 98 be 2a 2c 8f be b0 77 bb be
       0.07562381 -0.297426 -0.27963382 -0.36614752
0001f0 a1 1c 32 3c af 06 41 3e dc 3c 18 3e 7b d1 1b be
       0.0108710835 0.18850206 0.14866966 -0.15216629
000200 d6 68 81 be 2c 47 e3 3d 0d 8f ce be 19 18 e6 bc
       -0.25275296 0.11097559 -0.40343514 -0.028087663
000210 18 c9 3e bd 1a a0 b0 bd af e0 b6 3d e0 31 2d 3e
       -0.046578497 -0.08624287 0.08929574 0.16913557
000220 3f e1 62 3e b1 9a d9 bd a0 23 eb be 3f 3b 3c bd
       0.22156237 -0.10625208 -0.45925617 -0.04595494
000230 a2 ab 43 bd 95 3c 04 be 8c 77 88 be 5a 06 5c 3e
       -0.047771104 -0.12913735 -0.26653707 0.21486798
000240 17 11 16 3e cf 4c 28 be 2d 03 11 be 19 a8 d0 bc
       0.14654957 -0.1643555 -0.14161368 -0.02547078
000250 2e 17 62 bc 3c 28 20 3e c7 25 17 bf 01 1e 91 be
       -0.013799472 0.15640348 -0.5904202 -0.28343204
000260 06 eb 6e be e3 9b 22 3d 27 ae db bd 26 00 55 be
       -0.23331842 0.039699446 -0.10726576 -0.20800838
000270 b5 72 f8 3e c0 41 64 3e 6d b4 79 3e 5a 9d 56 be
       0.48525015 0.22290707 0.24385233 -0.20958462
000280 35 4c 64 3e fe 48 58 3d a1 8a e7 be 0d f7 14 be
       0.22294696 0.052803986 -0.45222953 -0.14547367
000290 a6 d6 07 be 7e 36 13 be a7 3b 19 bf 86 71 99 be
       -0.13265476 -0.14376256 -0.5985665 -0.29969424
0002a0 31 d5 ee bd 64 14 31 bd 3c 02 bf be 88 88 9e be
       -0.11661757 -0.043232337 -0.37306392 -0.3096354
0002b0 bc c3 c0 bc 65 e3 60 3d 72 fd b0 3e 7d 3b 3c 3d
       -0.023530833 0.05490436 0.34568363 0.04595517
0002c0 95 90 7e 3e c9 7a 6a bd 50 f2 b0 3e 8c 14 a0 3d
       0.24859841 -0.057246003 0.3455987 0.07816419
0002d0 de 5e c0 bd b6 d3 2b bd 17 7f 1c 3d d1 4a e8 3e
       -0.093930945 -0.04194995 0.03820714 0.4536958
0002e0 45 51 46 be 73 50 be be e9 ac 67 3e c1 e7 4f 3d
       -0.1936694 -0.37170753 0.22624554 0.050758127
0002f0 2f 05 1f 3e 33 84 dd 3d 52 ed 1b 3e 35 6a 61 3e
       0.15529321 0.108162306 0.1522725 0.22013171
000300 3d 61 80 be 8e 67 8e 3d ce 39 9a be b7 71 e1 bc
       -0.25074187 0.06953345 -0.30122226 -0.027520044
000310 dc 36 56 3e d5 57 5a bd c4 80 05 bf 1c 19 72 be
       0.20919365 -0.05330642 -0.52149606 -0.23642391
000320 3b 40 42 3d c6 05 13 be 83 ef 81 be 86 e3 34 be
       0.047424536 -0.14357671 -0.25378045 -0.17664918
000330 7a 61 b7 be de 16 b7 3c e8 bd 19 bf 3e 27 50 be
       -0.35816556 0.022349771 -0.600554 -0.2032747
000340 3c a8 89 3e 39 2f 6b be 60 fa be 3e 73 f0 0d 3e
       0.26886165 -0.22967233 0.37300396 0.13861255
000350 c5 64 a1 3c cd 68 08 bf 7a ab 0a bf 19 dd b3 be
       0.019701371 -0.53284913 -0.541679 -0.35129622
000360 72 51 2f 3c 72 7a c8 bd b9 c5 aa 3c 1e d0 2c be
       0.01070057 -0.097889796 0.020846235 -0.16876265
000370 92 d4 2f 3e d4 f4 77 ba 14 f5 88 3e 4a 14 af bd
       0.17170933 -0.00094587845 0.2674948 -0.08548792
000380 f4 9b 7f be 8e a4 a5 3d 34 33 75 3d 9e 18 99 3e
       -0.24961835 0.08088027 0.059863284 0.29901594
000390 32 33 83 bd 6c 7a 82 bd 76 f1 8c 3e 8e 9f bb 3e
       -0.06406249 -0.06371006 0.2752797 0.36645168
0003a0 01 46 ca 3e 23 a6 63 be fe d0 db 3e 2c 43 c0 3e
       0.39506534 -0.22231345 0.42932886 0.37551248
0003b0 fa 45 d3 be 4d 96 84 bd 15 98 b9 be 9d dd f6 bd
       -0.41264325 -0.0647398 -0.36248842 -0.12053988
0003c0 00 9d bd 3e cb 55 f7 3e 03 cd 08 3e 36 12 76 3e
       0.37033844 0.48307642 0.13359456 0.24030384
0003d0 06 2c 7d bc bf 3d f3 bd 1a 48 55 be 47 fd 2c be
       -0.015452391 -0.118770115 -0.20828286 -0.16893493
0003e0 48 00 cb 3d 70 1b 10 3e f4 7e d2 3e 3b 2b bd 3c
       0.09912163 0.14072967 0.41112483 0.023091903
0003f0 c2 c9 09 3e 78 ef 8b bd 71 ab 3c 3e 1e e7 0f 3e
       0.13455871 -0.068327844 0.18424775 0.14053008

actor.0.bias f4 [64]
000000 6e 79 69 ba 89 2e 10 bc de a7 47 bc 13 18 50 bc
       -0.0008906339 -0.008800157 -0.012186019 -0.012701052
000010 31 47 dd bb 45 82 07 bc 43 65 c5 3b 18 c0 9a 3a
       -0.0067528714 -0.008270805 0.006024034 0.0011806516
000020 9f 07 d1 bb 38 14 3d 3c 60 2b 35 bc 88 12 5b 3c
       -0.0063790823 0.011540465 -0.011057705 0.013371117
000030 74 c0 27 3c 2d 96 cc b9 ba c2 c7 ba 0d 55 d6 ba
       0.0102387555 -0.00039021802 -0.0015240528 -0.0016352251
000040 06 05 d8 bb 2c 0a b4 bb 3e 36 68 3c 78 27 5e 3a
       -0.0065923957 -0.0054943766 0.014173089 0.0008474509
000050 8f 77 55 bb 95 77 ae bb 86 91 a1 3b f2 0b e9 b9
       -0.0032572483 -0.005324314 0.004930678 -0.00044450123
000060 5d 33 16 3a 26 4d 8c bb 48 4b fc bb c8 35 8e bc
       0.00057296996 -0.0042816577 -0.007699404 -0.01735963
000070 1a 38 ce 3b 47 2c 04 3c d7 8c 02 bc b8 1f c8 3b
       0.006293309 0.008067197 -0.007968149 0.006107297
000080 2c 24 32 3c bc 61 dd bb ac af 68 bc 0a 9f b6 bc
       0.010872882 -0.0067560356 -0.01420204 -0.022292633
000090 8a ba 49 bc ef a0 5e bc 80 49 79 bb 92 d8 f5 bc
       -0.012312541 -0.013588174 -0.0038038194 -0.030010495
0000a0 54 76 1c bc fe 36 91 bb 3c 30 1a bc 55 ec 9f 3c
       -0.009549696 -0.0044316044 -0.009410914 0.019521872
0000b0 41 e4 44 3b 7c 1f 3b 3c 5f c4 95 3c 57 1b 10 3b
       0.0030043276 0.011421081 0.018282114 0.0021988952
0000c0 5b 17 9f 3c 7b f5 76 bc f7 b4 27 bc e7 a5 04 bc
       0.019420316 -0.015073176 -0.0102360165 -0.008096195
0000d0 c2 b6 b5 3a 40 8e 08 3c e5 77 dd bb b2 7e d9 bc
       0.001386367 0.008334696 -0.0067586773 -0.02654967
0000e0 b2 5f f2 3b 72 2c 23 3c 5d 42 de 3b 03 11 3f ba
       0.0073966617 0.009959327 0.0067828135 -0.0007288607
0000f0 df 22 9e bb 92 3e 63 bb c0 93 5b bb 09 3a 80 3b
       -0.0048259343 -0.0034674746 -0.0033504814 0.0039131683

actor.2.weight f4 [64, 64]
000000 fb 6e 03 3d 49 ab ef 3d c5 58 b7 3e cc c2 18 3d
       0.03208826 0.11702592 0.35809913 0.037295148
000010 c9 56 41 be fc d5 38 3e d1 2a c7 be 06 65 3d 3e
       -0.18880762 0.18050379 -0.38899854 0.18495569
000020 19 54 eb 3e ab 78 29 3e 60 47 2c be 0e f4 63 bd
       0.459626 0.16549937 -0.16824102 -0.05565267
000030 80 88 94 3e 3e c1 97 be 7c 19 9e 3e 05 99 f1 bc
       0.2901039 -0.2963962 0.30878818 -0.02949191
000040 a8 b2 ce bd e2 50 c7 3d c5 ab a9 be 01 02 2d be
       -0.1009267 0.09732224 -0.33138862 -0.16895296
000050 b6 85 16 3e 36 12 03 bf 65 4c c2 bd 50 ff b9 3c
       0.14699444 -0.5119966 -0.09487227 0.02270475
000060 2c 81 e0 bd a6 6e 07 3f b6 34 5a bd 0d 87 77 3d
       -0.109621376 0.5290321 -0.053272925 0.06043153
000070 10 5c 62 be 65 81 c8 3b 7c 37 64 3e f4 7a bc bd
       -0.22105432 0.0061189407 0.2228679 -0.09203139
000080 ea dc c8 bd c3 2e 66 bd d8 aa f0 3d ab 1d e8 3d
       -0.09807761 -0.05619694 0.11751336 0.11333784
000090 89 d3 aa bd 9e 29 6a 3e 07 c3 b2 3e 47 71 4b bd
       -0.083411284 0.22867438 0.3491442 -0.049668577
0000a0 0f 65 83 be 5c 8d b0 3e 51 d3 99 3d d8 e1 ff bd
       -0.2566304 0.3448285 0.075110085 -0.12494248
0000b0 66 4c ea bd 12 f8 0b be b0 39 22 be ae 64 fa bd
       -0.11440353 -0.1366885 -0.15842319 -0.122262344
0000c0 39 86 fa bd e9 75 49 3e 30 01 dc 3d 38 be 80 be
       -0.12232632 0.19673885 0.10742414 -0.25145125
0000d0 86 74 48 3d 1a 6e 85 3d 59 f0 a0 bd 62 72 00 3c
       0.04893925 0.06515141 -0.07858343 0.007839771
0000e0 74 09 0a be c9 7e ae 3d b0 0c 77 be d2 7f 25 3e
       -0.13480169 0.08520276 -0.24125934 0.16162041
0000f0 32 d4 50 3d 44 19 4e 3e 7b e8 b5 bd 76 d5 1b 3e
       0.050983615 0.20126826 -0.08882233 0.15218148
000100 cb fb 01 3d ee 8b 20 3e 4d 48 83 3e 65 97 a8 3e
       0.03173427 0.15678379 0.256411 0.32928005
000110 61 f3 83 be 3a 16 25 be 69 3a 1e be b7 2a 46 be
       -0.2577162 -0.1612176 -0.15451969 -0.19352232
000120 13 fb 29 3e 32 2b a4 be 5a 53 8a 3d 5b 09 4b 3d
       0.16599683 -0.32064205 0.06754179 0.04956947
000130 7a f8 95 3d b6 e1 16 3d b2 83 27 be a2 3e c7 bd
       0.07322784 0.03683635 -0.16358832 -0.09728743
000140 24 9f 96 be 27 7e 7f 3d 3b 14 bc 3c 95 36 3a be
       -0.2941829 0.062376168 0.022958865 -0.18184884
000150 01 b6 02 3e f1 72 1e bd 52 1d 54 bd 9e 7d 3f bc
       0.12764741 -0.038683835 -0.051785775 -0.011687664
000160 20 49 55 3e 48 29 2f 3e 53 e5 35 3d df 58 33 3f
       0.20828676 0.17105591 0.044408154 0.7005748
000170 de 02 1a be d5 73 04 3d 65 d7 8c 3d d0 e0 07 be
       -0.15040156 0.03233703 0.06877021 -0.13269353
000180 2c f3 c4 3e bd cf 69 3d 09 85 a3 3e ba 7b c3 bc
       0.38466775 0.05708288 0.31937435 -0.023862708
000190 2e 84 fb 3d 37 3f dd bd c9 14 16 3e 91 e2 17 3d
       0.12281071 -0.10803073 0.14656366 0.037081305
0001a0 8e d4 39 3c 10 df 8d 3e 64 6e 73 3e b6 26 96 bd
       0.011342181 0.27709246 0.2377258 -0.07331602
0001b0 28 89 13 be 14 b6 4d be 9c a9 17 3e 70 b3 0f be
       -0.1440779 -0.20088989 0.14810795 -0.14033294
0001c0 18 30 77 bd ee d7 3c be 97 62 38 3e bc e6 53 3c
       -0.0603486 -0.18441746 0.18006359 0.012933429
0001d0 ca a4 a0 be 08 11 a4 3d d5 1d f9 3d 6b 9f d5 bd
       -0.31375724 0.08011061 0.12163893 -0.10430797
0001e0 2f 66 9c 3d 93 d0 67 be 5b 63 34 3c 0e 0c 97 be
       0.076366775 -0.22638159 0.011010016 -0.29501384
0001f0 23 4c 67 be 74 67 98 3d e7 5b c5 bd 15 f9 3e be
       -0.22587638 0.07441607 -0.096366696 -0.18649705
000200 a4 ae af bc b7 22 7a be 39 77 98 3e ff 57 6a 3e
       -0.02144558 -0.24427305 0.2977846 0.2288513
000210 40 da 66 be ad e5 7c 3e bb c8 1b bf 32 58 13 be
       -0.22544193 0.2469699 -0.60853165 -0.14389113
000220 53 e7 85 be 93 90 0c 3e 87 f0 3d 3e da 81 69 bd
       -0.2615305 0.13727026 0.18548785 -0.0570086
000230 62 a1 90 be 33 21 61 be f2 62 4a 3e 3a 1c 30 3e
       -0.28248125 -0.21985321 0.19764307 0.17198268
000240 1b 77 79 bd da ca 03 3e ec 8d 24 be c7 95 3f be
       -0.060904603 0.1287035 -0.16069764 -0.1870948
000250 4a da 3a 3e 54 cf 97 bd 17 5d e5 ba eb fd 23 be
       0.18247333 -0.074125916 -0.0017499056 -0.16014831
000260 95 05 c7 bd cf 87 44 3e 7a 0a 19 3e c2 b4 c9 3d
       -0.097178616 0.19192432 0.14945403 0.0984893
000270 38 dc 57 be 07 7f 85 be 9b 67 50 bc 91 ef e5 3d
       -0.210801 -0.26073477 -0.012720014 0.11227334
000280 d0 de 47 3e 07 86 4a be 0a eb 24 3e 44 25 2d be
       0.1951859 -0.1977769 0.16105285 -0.16908747
000290 0e d7 a5 bd a0 dc ba bb 87 3f d0 bd 7c 59 63 3d
       -0.08097659 -0.00570257 -0.10168367 0.05550526
0002a0 4b ca 8b be 97 db 69 3e 62 b3 9f be 6c 17 e3 3d
       -0.27302775 0.22837673 -0.31191546 0.11088452
0002b0 95 39 15 be e6 7d 33 3e f1 5d 37 3e 26 32 25 be
       -0.14572747 0.17528495 0.1790693 -0.16132411
0002c0 10 c8 85 3e 81 a0 b8 3e be 77 d2 bd 3c 6e af 3e
       0.26129198 0.36059955 -0.10276745 0.3426379
0002d0 1e a1 fe bd 3f a4 38 3e eb d2 03 bd 04 ab 23 3e
       -0.124330744 0.18031405 -0.03218357 0.15983206
0002e0 35 16 b8 bd 80 58 d1 bd 95 6c 10 be 0e ce 58 3d
       -0.08988611 -0.10221958 -0.14103921 0.052930884
0002f0 e4 3b 12 bf 1e 0b 52 3d a5 e6 4a bd d8 09 22 3d
       -0.57122636 0.051280133 -0.049536366 0.03956017
000300 84 7d 92 3d ba c1 32 3d 43 3e ac 3e 06 4e da 3d
       0.071528465 0.043641783 0.33641252 0.10659413
000310 21 89 0c be ab e5 a8 3e 8e ff 0e be 79 34 2d 3e
       -0.13724186 0.32987723 -0.13964674 0.16914548
000320 72 2d 8f be b1 9f 8f 3d c7 4f 1f be ab ac 2b bd
       -0.2796436 0.070128806 -0.15557776 -0.041912716
000330 a5 0e 22 be 11 bd 47 be c0 3f 19 bd 4f 07 20 be
       -0.15825899 -0.19505717 -0.037414312 -0.15627788
000340 a5 e9 88 be 0a 54 30 3e c8 23 0a bc da b1 84 bd
       -0.26740757 0.17219558 -0.0084313825 -0.06479235
000350 6a e1 46 3e ba a1 79 3d df c0 1e bd 06 c7 92 3d
       0.19421926 0.06094525 -0.038758155 0.07166867
000360 6a b2 04 3e f1 b1 81 bd da d9 6a 3e 44 f2 f2 bd
       0.12958685 -0.06332768 0.22934666 -0.11862615
000370 e4 39 02 be 44 08 89 be 89 c1 07 3f fb 4d bc 3d
       -0.12717396 -0.2676412 0.53029686 0.09194561
000380 ae 5f bb bd d5 89 29 bd c2 0e 8e 3e a4 53 82 3e
       -0.09149109 -0.041391212 0.27745634 0.25454438
000390 28 7c 36 be 62 d9 e0 3d cd de 44 3e f0 91 b0 3e
       -0.178208 0.109789625 0.19225617 0.3448634
0003a0 ec 4a ac 3e ab c0 18 3e 06 19 bb 3e 9e 1c aa be
       0.3365091 0.14917247 0.3654253 -0.33224958
0003b0 5e b5 b2 be 15 92 d2 3d 39 5d 7c 3e 84 8f a7 be
       -0.34903997 0.10281769 0.24644937 -0.3272668
0003c0 c7 02 46 bd 62 a6 8d 3e 72 57 eb 3d 7d a4 b3 3d
       -0.048342492 0.27666003 0.11491288 0.08771608
0003d0 15 9c e6 b8 4e b2 da 3d 4e 40 03 be 6a 6a 09 be
       -0.00010996327 0.1067854 -0.12817499 -0.134195
0003e0 ee 19 17 be 63 90 19 be 8b a3 db bd 09 6f 75 3d
       -0.14755985 -0.14996485 -0.10724553 0.059920345
0003f0 8a b5 e0 3c 8e 10 08 3e 7f 7a c2 3e 03 64 85 be
       0.027430315 0.13287565 0.37984082 -0.26052865

actor.2.bias f4 [64]
000000 64 ea 0b bc 64 a0 40 bc 57 cd 72 39 e1 9f 82 bc
       -0.00853977 -0.01175699 0.00023155414 -0.015945377
000010 81 d0 e9 3b ad a1 a8 3b f8 63 90 bb 25 db f6 3b
       0.0071354513 0.0051462264 -0.0044064485 0.0075334483
000020 c8 47 6a bc 0b 6d 7b bc 9a af c9 bb 6d 3f 28 bc
       -0.014299341 -0.015345822 -0.0061549665 -0.010269028
000030 f0 f8 f4 3b fb e3 14 3c ad bc 6b 3c 54 b7 4a 3c
       0.0074759647 0.009087558 0.0143882455 0.01237281
000040 4c 2a 28 3c f7 40 75 3c ae 2b 4b bc 3f 1e 70 bc
       0.010263991 0.014969102 -0.012400551 -0.014655649
000050 c8 28 60 3b 35 ae c2 3a 83 9a 13 ba 56 27 e1 3b
       0.0034203995 0.0014852943 -0.0005630629 0.0068711443
000060 d6 31 91 3b fe 87 2d bc d7 16 1f bc 10 6f f2 bb
       0.0044309897 -0.010591505 -0.009710035 -0.0073984936
000070 5f 9f 80 bc 5f 3a a0 3b aa c4 20 3c 3d fd 47 bc
       -0.015700994 0.004889771 0.009812513 -0.012206373
000080 e2 b5 64 bc c1 9a cf bb 53 18 18 bb 6e 97 64 3c
       -0.01395938 -0.006335587 -0.0023207858 0.013952119
000090 c9 8d 43 3c 7a 3d 1a bc a3 9b ed bb b0 ca 18 bc
       0.01193566 -0.009414071 -0.0072512194 -0.009325668
0000a0 db 54 67 bc ea 59 1a 3c 20 94 e4 3b 49 16 a2 3b
       -0.014119352 0.009420851 0.0069756657 0.0049465043
0000b0 78 ed ba bb ad 59 26 bc 96 bf 44 3b 9e 4a 41 bc
       -0.005704578 -0.010153216 0.003002142 -0.011797575
0000c0 d7 8d ef 3a 12 f2 a2 bb 54 a0 b3 3b cd cf c8 bb
       0.0018276524 -0.0049727047 0.005481759 -0.0061282874
0000d0 87 05 73 bb 6a 20 a4 bb 86 fe 97 3b 40 07 7c bc
       -0.0037082152 -0.005008747 0.004638496 -0.015382588
0000e0 bb 92 2b 3c e2 ee f1 3b cd 27 74 3c 39 25 00 3c
       0.010471995 0.0073832134 0.014902067 0.007821375
0000f0 38 a8 db 3b 03 f1 4e 3c 7d 32 77 bc 48 b3 f4 3b
       0.006703403 0.012630704 -0.015087721 0.007467661

actor.4.weight f4 [2, 64]
000000 2f a9 df 3d cd d7 96 3d e7 6a 22 3e d5 42 cb 3d
       0.10920941 0.073653795 0.15861093 0.099248566
000010 a0 2e 29 be d0 3b 10 be 1d 28 11 3e 6a 07 07 be
       -0.16521692 -0.14085317 0.14175458 -0.13186422
000020 92 c5 cb 3d 03 4f 84 3c de 07 28 3e 7e 94 47 3c
       0.09949793 0.016150957 0.16409251 0.012181399
000030 0b 90 4a be f8 77 13 be bd 45 62 bd 8a 37 ae bd
       -0.1978151 -0.14401233 -0.05524229 -0.08506687
000040 49 b0 89 bd 27 4e f6 bc bd 6f 11 3e 90 7d 6d 3d
       -0.06723077 -0.030066563 0.14202781 0.057981074
000050 59 21 40 be 14 ab 49 be f0 80 18 be 63 a6 00 be
       -0.18762721 -0.19694167 -0.14892936 -0.12563471
000060 81 75 5b bb 16 0d e8 3d 84 5b c0 3d d0 16 28 3e
       -0.0033486786 0.11330621 0.09392455 0.16414952
000070 f9 d2 81 3d 12 e3 f0 bd 42 2a 37 be df f9 ac 3d
       0.06339068 -0.1176206 -0.17887214 0.08446097
000080 40 9a 5f 3d 39 b0 06 3e 9b ba 1f 3e 87 b8 1f 3d
       0.054590464 0.13153161 0.15598528 0.03899434
000090 dc 40 47 bd 2c 09 fa 3d 76 9e 23 3e 50 2e 92 3d
       -0.04864584 0.12208781 0.15978417 0.0713774
0000a0 b9 97 e1 3d 2c b0 21 be dc e6 de bd 6a b6 35 be
       0.11015267 -0.1578986 -0.10883877 -0.17745367
0000b0 4b 77 88 bc b2 2c 7c 3d 0b 62 e5 bd d9 20 ba 3d
       -0.016658446 0.061566062 -0.11200341 0.090882964
0000c0 94 3d 29 be 06 b2 18 3e c7 ca 1e be 67 eb dc 3d
       -0.16527396 0.1491166 -0.15507041 0.10787087
0000d0 9e 86 38 3c 7f 86 c6 3d d2 70 0e be bd 09 13 3d
       0.011262564 0.09693622 -0.13910225 0.03589796
0000e0 43 2e 8f bd b2 6a 26 bd 5a ee b9 bd 73 74 de bd
       -0.069912456 -0.040629096 -0.09078665 -0.10862055
0000f0 1f ef 14 be 7f 47 26 bd 12 0d 54 3d 80 db 1d be
       -0.14544342 -0.040595528 0.051770277 -0.15415764
000100 2b f0 dc bd ab 7d 97 bd 5f 3b 24 be b9 68 cc bd
       -0.10787996 -0.07397016 -0.16038273 -0.09980912
000110 41 5e 2b 3e da ff 10 3e 8c 7f 12 be 73 29 0a 3e
       0.16735174 0.141601 -0.14306468 0.13492374
000120 c5 6a cb bd aa 17 88 bc b6 b9 24 be 4f 3d 35 bc
       -0.09932474 -0.016612846 -0.16086468 -0.01106198
000130 03 49 46 3e d9 fa 13 3e a9 ee 56 3d db 9d b4 3d
       0.1936379 0.1445116 0.052473698 0.08819171
000140 c7 be 8e 3d 21 dd ed 3c e8 11 10 be 69 c8 74 bd
       0.06969982 0.029036107 -0.1406933 -0.05976144
000150 c4 00 41 3e 37 ce 46 3e 3b 47 18 3e d2 23 02 3e
       0.18847948 0.19414602 0.14870922 0.12708977
000160 34 d3 19 3b 8a 18 e9 bd c4 38 bc bd 0e 60 29 be
       0.0023471834 -0.113816336 -0.09190515 -0.16540548
000170 8e 26 81 bd c8 54 f3 3d 3c 47 37 3e da 4c b5 bd
       -0.06306182 0.11881405 0.17898268 -0.08852549
000180 2c 56 65 bd 02 fc 06 be 50 b4 1d be fa 25 1e bd
       -0.055990383 -0.13182071 -0.15400815 -0.038610436
000190 c4 f2 3b 3d f2 05 fa bd ed 0e 22 be 49 a5 95 bd
       0.045885816 -0.12208165 -0.15826006 -0.07306916
0001a0 19 fc e0 bd 29 64 20 3e 96 7a dc 3d cf 04 35 3e
       -0.10985584 0.15663208 0.10765569 0.17677616
0001b0 70 91 7d 3c 9d d6 78 bd ee 62 e7 3d 90 53 b6 bd
       0.0154765695 -0.060751546 0.11298166 -0.08902657
0001c0 e9 d6 28 3e 32 d5 15 be 19 07 1f 3e ec 79 da bd
       0.16488232 -0.14632109 0.15530051 -0.10667786
0001d0 ff fe 4d bc da 56 c9 bd 47 61 09 3e 7d b4 0b bd
       -0.012573003 -0.09831019 0.13416015 -0.034107674
0001e0 ba 33 8d 3d 3d 30 26 3d 16 81 b4 3d d6 6a df 3d
       0.06894632 0.040573347 0.08813684 0.10909049
0001f0 d1 1c 14 3e a2 8b 20 3d c1 e2 4d bd ad e1 1e 3e
       0.14464118 0.039195664 -0.050265078 0.15515776

actor.4.bias f4 [2]
000000 b2 cf 32 bc b9 cf 32 3c
       -0.010913776 0.010913783

critic.0.weight f4 [64, 4]
000000 a8 89 6b 3d 53 57 ab bd 24 65 ff bd 7b 01 51 3d
       0.057504326 -0.08366265 -0.12470463 0.051026803
000010 3a 57 32 3d 5f ba af 3d 97 94 25 3c d7 6f f6 3d
       0.043540217 0.08580469 0.010106227 0.120330505
000020 93 c7 01 3e 61 68 10 3e a6 49 05 3f b1 46 bc 3d
       0.12673788 0.14102317 0.52065504 0.09193171
000030 99 81 b0 3d d8 aa 45 bd 83 ad 0a bf 7f 43 25 be
       0.08618469 -0.048258632 -0.5417101 -0.16139029
000040 5d b4 9c 3e 4a 1a 31 bd 41 b2 1a bd 54 1c 83 bd
       0.30606356 -0.04323796 -0.037767652 -0.064018875
000050 c9 32 ff bd 2e 49 1b be 91 b5 b1 be dd 0b 85 be
       -0.124608584 -0.15164635 -0.34708837 -0.25985613
000060 bb 8c 4d be f4 74 f7 bc a7 89 07 be e7 8b b8 bc
       -0.20073216 -0.030207135 -0.13236104 -0.022527648
000070 0a 3c 35 be 37 64 e9 3a 4b 9a e7 bc f5 e8 d0 3d
       -0.17698684 0.0017806356 -0.028271815 0.10200683
000080 be 84 a6 3d e0 c5 21 3d b1 62 42 3e d9 a2 28 bd
       0.08130787 0.03949535 0.1898296 -0.04117093
000090 79 f8 99 3e 89 0a b4 3e ee ce 0b 3f 38 45 91 be
       0.30072382 0.35164288 0.54612625 -0.28373122
0000a0 30 8a 4d 3d c2 bf 8b 37 28 ff ea 3d 5e 9c 26 3e
       0.050180614 1.6659385e-05 0.114744484 0.16270587
0000b0 5d 3b 46 3d 1e 49 03 3e 26 10 09 bd 3e 9b e7 bc
       0.048396457 0.1282086 -0.033462666 -0.028272267
0000c0 5d 53 03 3d 07 11 75 be b8 56 5f 3d 82 74 51 be
       0.032061923 -0.23932277 0.05452606 -0.204546
0000d0 9b 83 87 be 61 f5 ae bd 96 d4 c8 3b d4 3a f1 3c
       -0.26467595 -0.08542896 0.006128858 0.029446997
0000e0 91 20 13 bf bb fd 2c 3e bd f5 4b bd bd 65 a3 be
       -0.5747157 0.16893665 -0.0497949 -0.31913558
0000f0 de 55 a5 bd 00 8a 51 be 92 ea 83 bd 37 a7 b9 bd
       -0.080730185 -0.20462799 -0.06441225 -0.09065097
000100 5d e6 9b bc f4 99 45 3e c4 a2 7b 3e da 52 08 3e
       -0.019030744 0.1929701 0.24573809 0.13312855
000110 cb 94 0d be 08 a8 dc bd 12 39 fb be e2 e1 0a 3c
       -0.13826291 -0.10774237 -0.4906698 0.008476706
000120 3e b4 1d 3e 8b 5b 55 be 4b 6a 37 3e 90 4b ee bd
       0.15400788 -0.20835702 0.17911641 -0.11635506
000130 ec 3b a4 bd 4c 41 c1 bd 85 f9 84 be b7 3a a2 bb
       -0.08019242 -0.094362825 -0.25971618 -0.004950847
000140 89 9c c0 be 6d e1 1e bd d1 b5 c1 be b1 96 96 bc
       -0.37619427 -0.0387892 -0.37834027 -0.018382402
000150 7a a0 80 be 0f 0b 13 be 9f 79 df bc 5b 2a 7b be
       -0.25122434 -0.14359687 -0.027279673 -0.24527876
000160 e3 c1 8e 3e 6f b7 80 3c 2c 14 db 3e 61 46 38 3e
       0.278823 0.015712468 0.42788827 0.17995597
000170 86 b1 0c bf 17 f6 c6 be 1c fe 87 be 88 a0 c7 be
       -0.5495838 -0.38859627 -0.26561058 -0.38989663
000180 f6 30 5c 3e 99 3f ae 3e 54 59 c8 3e 25 bc f7 bd
       0.21503052 0.34032896 0.39130652 -0.120964326
000190 00 1e a2 3e 10 3c bc 3e de f8 0f 3e 15 f3 47 3e
       0.31663513 0.36764574 0.14059779 0.19526322
0001a0 e4 12 6e 3e d7 17 29 bd 6f d0 57 3e 49 e6 75 be
       0.23249394 -0.0412825 0.21075605 -0.24013628
0001b0 f3 33 9c 3e 12 57 8a be 3f 25 ab 3c 33 ca de 3d
       0.30508384 -0.27019554 0.020891784 0.1087841
0001c0 43 9b c0 3e ef fd 03 3f 30 a1 08 3e 1e c4 af 3e
       0.37618455 0.51559347 0.13342738 0.34329313
0001d0 0c 6f c5 3e 94 f8 32 3d 26 d8 ba 3e 9c 7c 9e 3e
       0.38561285 0.043694094 0.36493033 0.30954444
0001e0 f3 58 2e bb bf 5e 56 3e f3 da c1 bd f4 ee 17 be
       -0.002660331 0.2093458 -0.094655894 -0.14837247
0001f0 71 7a 47 be ed 5a 1c 3d 4c 04 b6 be 70 f3 a1 be
       -0.19480301 0.03817265 -0.35550153 -0.3163104
000200 67 f7 94 be 71 a8 8f be 89 b6 b1 be 6f 0d 71 be
       -0.29095003 -0.28058198 -0.34709576 -0.23540281
000210 26 fa ec 3d bf d3 8c bd b7 37 af 3c 3b 63 bb 3d
       0.115711495 -0.06876325 0.021388872 0.09149786
000220 51 2a 8a be a5 82 ca be c1 4f c2 3d 41 d1 73 bd
       -0.2698541 -0.395528 0.09487868 -0.059525732
000230 ca 78 7d be ec 0b 30 be e0 fd b1 bd 8a ec 0a be
       -0.24753109 -0.17192048 -0.08691001 -0.13566795
000240 38 14 b3 3e 31 40 1e be e6 af 86 3e 1e 42 f0 3c
       0.34976363 -0.15454175 0.26306075 0.029328402
000250 a8 c3 bf be 63 42 23 be 28 3a 31 be 89 b7 51 3d
       -0.3745396 -0.15943293 -0.17307341 0.051200423
000260 3d 13 aa be bb cc 83 be 22 86 93 3d aa 92 4e be
       -0.33217803 -0.25742134 0.07203318 -0.20173135
000270 72 9c 75 be 10 3e 43 3e 51 24 9f be 23 30 57 bb
       -0.2398546 0.19066644 -0.31082395 -0.0032835088
000280 49 02 9f be fe 5c 3f be 49 fd b0 be 17 7d c8 3c
       -0.3105643 -0.18687817 -0.3456824 0.02447371
000290 9e e6 c0 3e 8f 5d 75 3e a2 c6 6b 3e e6 48 0b be
       0.37675947 0.23961471 0.23024991 -0.13602027
0002a0 62 cf b6 bc cc 5a e7 bb 77 b2 49 3e 32 03 60 3d
       -0.022315685 -0.0070603844 0.19696985 0.054690547
0002b0 4e d3 b3 3d 2a 16 87 be fe e2 b6 bd 0c 13 c2 bc
       0.087805375 -0.26384097 -0.08930014 -0.023690723
0002c0 55 6a 7d be 93 6e 72 be e7 3f da be 08 b6 b1 bd
       -0.24747594 -0.23674993 -0.4262688 -0.08677298
0002d0 35 58 f9 bd 1f b7 70 be 9c 91 7f be 58 b2 40 be
       -0.12175027 -0.23507355 -0.2495789 -0.18818033
0002e0 9f 01 80 bc e2 6a 89 3d 0a 9d 58 bd 83 38 9d be
       -0.015625773 0.067098394 -0.05288414 -0.30707178
0002f0 6d 98 b1 bd 0c a6 62 be cb 02 b6 bd 96 3f 13 bd
       -0.08671651 -0.22133654 -0.088872515 -0.035949312
000300 c2 12 41 be f5 2c 2e be f0 66 25 bd 98 ad fd 3d
       -0.18854812 -0.17009337 -0.040381372 0.12386626
000310 6f b1 cc bd 9a 24 00 3f d6 13 a8 3e cb 5a 95 3e
       -0.0999478 0.5005585 0.32827634 0.29170832
000320 d9 34 e0 3d 9a 2a 21 3e 08 87 85 3d ba 78 9f 3d
       0.1094758 0.15738907 0.06519896 0.07786699
000330 eb c5 84 be 8c 05 b1 bd 5e 3e 1c be 5a 4e 4e be
       -0.2593225 -0.08643636 -0.15258166 -0.20147076
000340 fe 1e a4 3d b3 7f 58 be d2 8d 63 3e e0 87 39 3e
       0.08013724 -0.21142463 0.22222069 0.18118238
000350 b0 9a 3e be 23 15 58 be a9 31 80 be 90 9d 2b be
       -0.18613696 -0.21101813 -0.25037888 -0.16759324
000360 67 ad bd bd f4 68 25 be 85 79 8e be ae 60 9c 3d
       -0.092615895 -0.16153318 -0.27827087 0.07635628
000370 fe 0a a0 3e f9 cc 16 be f4 ae f1 3c 1e 2f bf bd
       0.31258386 -0.14726628 0.02950237 -0.09335159
000380 30 26 f7 3e c7 e3 7b 3e 58 c8 9b 3d ff d0 35 3e
       0.48271322 0.24598609 0.07606572 0.17755507
000390 77 94 2e bd 7f ba 4e 3d b0 58 bd be ad 4d cc 3e
       -0.042622056 0.050470825 -0.36981726 0.39903012
0003a0 fa 5c 1d be da f5 5d be a5 fa 8c be 6d 2f 2b be
       -0.15367499 -0.21675816 -0.27534977 -0.1671731
0003b0 84 b6 5b 3d 40 89 dc 3d 04 67 a4 3e 5e 03 07 3e
       0.053640857 0.10768366 0.32109845 0.13184878
0003c0 d5 a9 c1 3e 74 54 04 be f3 de d8 3e fd 94 28 be
       0.37824884 -0.12922841 0.42357597 -0.16463085
0003d0 e6 02 72 be 40 52 d4 bd 35 e8 75 be 4c 72 12 3d
       -0.23633918 -0.103672504 -0.24014361 0.035753533
0003e0 0b 39 df be 68 08 09 3d f6 4f 0f bf ed f8 27 be
       -0.43598208 0.033455282 -0.55981386 -0.16403551
0003f0 4d 3b d0 3e 87 bd 92 3e 8b cd 0b 3f da 85 88 bd
       0.40670243 0.28660223 0.5461051 -0.06666155

critic.0.bias f4 [64]
000000 52 b1 8d be 27 6b 5d 3e 43 1c 6c be 6c 7f 93 be
       -0.27674347 0.21622907 -0.23057656 -0.28808153
000010 0f 8c 9f be 7f 7d b0 be 06 9e 7f be ad ce 94 be
       -0.31161544 -0.34470746 -0.24962625 -0.2906393
000020 36 5c 91 3e 66 c0 48 3e 6c 1a 99 be cb a0 60 be
       0.28390664 0.19604644 -0.2990297 -0.21936338
000030 1f e9 8c 3e af ed 9b 3e 73 ef 42 be 7f 50 84 be
       0.27521607 0.30454776 -0.19036655 -0.25842664
000040 da 3f b3 be 8b 5d 5a 3e 15 56 61 be e6 87 8a 3e
       -0.35009652 0.21324746 -0.22005494 0.27056807
000050 58 d6 88 be ad 63 b4 3e 56 9a 8e 3e 13 e0 e0 3e
       -0.2672603 0.35232297 0.27852124 0.43920955
000060 54 d7 b5 be d0 57 9b be 7a ea 31 3e 71 d2 70 3e
       -0.35515845 -0.30340433 0.17374602 0.23517777
000070 20 fe af be b9 1d 94 be 79 b3 23 be bc 9a 51 3e
       -0.3437357 -0.28928927 -0.15986432 0.20469183
000080 93 58 b5 3e 65 b3 91 be 96 22 a8 3e 4b 10 8b 3e
       0.3541914 -0.2845718 0.32838887 0.27160868
000090 85 bb 5d 3e a2 2f 67 be 54 e9 ba 3e ae 7e 7a be
       0.21653564 -0.22576764 0.3650614 -0.24462387
0000a0 67 57 80 be 9d 16 9f 3e 69 3b 86 3e 48 88 68 be
       -0.25066683 0.3107194 0.262172 -0.22708237
0000b0 39 19 77 be 38 5e a7 be 26 45 60 be f4 fd 85 3e
       -0.24130715 -0.3268907 -0.21901378 0.26170313
0000c0 78 82 89 be 8a 9d 64 3e bd e9 8c 3e 65 c4 84 be
       -0.26857352 0.22325721 0.27522078 -0.25931087
0000d0 dd 97 7d 3e c4 19 a1 be f4 3e 92 be 9a 52 91 3e
       0.24764962 -0.3146497 -0.28563654 0.28383332
0000e0 02 b3 b2 be 5f 3d 5f be 77 c5 8e be 3d 4f 7f 3e
       -0.34902197 -0.21800755 -0.2788503 0.24932571
0000f0 1b eb 93 be 0b 55 77 be 5c a0 90 be c2 57 09 3e
       -0.2889031 -0.24153535 -0.28247344 0.13412383

critic.2.weight f4 [64, 64]
000000 17 e9 a0 3e ed e6 c3 be 68 de 1e be 4b 1b 9c 3e
       0.31427833 -0.3826212 -0.15514529 0.30489573
000010 e7 d8 06 bd c8 e2 1b 3f 3d 22 e6 3e 2e bb a8 3e
       -0.032921698 0.60892916 0.44947997 0.32955307
000020 15 03 a2 be e1 21 a2 be 26 c6 2e 3e 06 b8 94 3e
       -0.31642976 -0.31666473 0.17067775 0.2904665
000030 5d 56 aa bd bb 1d 97 be ec ba 86 3e 6e 1d ec 3e
       -0.08317254 -0.2951487 0.26314485 0.46116203
000040 f4 fc c3 3e 32 ab 17 be d5 d6 8d 3e 9e 03 af bd
       0.38278925 -0.148114 0.27702966 -0.08545612
000050 b8 ab 18 3f f4 27 34 3e 8e ba 92 be bb c3 de 3d
       0.5963702 0.17593366 -0.28657955 0.108771764
000060 dc 87 2c 3e 0a 26 68 bc 9b 3f 5f 3d 3c 64 dd be
       0.16848701 -0.0141692255 0.05450402 -0.43240535
000070 ab 53 cc 3e 68 2c 99 3e c5 d0 17 be 10 1d 7d be
       0.39907584 0.29916692 -0.14825733 -0.24718118
000080 ca d6 09 bd a6 1b 40 bd 86 03 ae bd 69 5b 43 bd
       -0.033652104 -0.046901368 -0.08496766 -0.047694597
000090 1a 19 43 bf 90 80 8e 3d b8 3b 41 be fa 87 9e 3e
       -0.76210177 0.06958115 -0.18870437 0.30963117
0000a0 b2 6b 87 3e f0 63 09 bf bb 3e 93 be fc a5 df 3e
       0.26449353 -0.5366812 -0.28758797 0.43681324
0000b0 cc dd e7 3d d1 03 4c 3e 4e 0e ec 3e 3c 05 be be
       0.11321601 0.19923331 0.46104664 -0.3711337
0000c0 38 ee 9e 3d 62 77 e8 be 83 2d 7d be 21 4c ac 3e
       0.0776028 -0.45403582 -0.24724393 0.33651832
0000d0 46 51 03 bf c4 06 d2 3e 8f 08 b1 3e 09 eb 02 bf
       -0.5129589 0.41020787 0.34576842 -0.51139885
0000e0 3d 12 f9 3c 2f e4 1a 3e 39 76 06 3f 59 e4 c7 be
       0.030404205 0.15126108 0.52524143 -0.39041403
0000f0 56 12 57 3e fd 63 e9 3e 45 7b 09 3f aa b8 1a bf
       0.21003088 0.45584098 0.5370372 -0.60438025
000100 e2 0a c6 3e c7 f6 19 bf cb 3b b5 3d 3f 33 f9 3e
       0.38680178 -0.6014218 0.08849295 0.4867191
000110 c8 64 31 3e 0c 7f 05 bd 22 20 f8 3d e2 37 a7 3e
       0.17323601 -0.032591864 0.12115504 0.32659823
000120 9f 7c 85 bd 54 71 33 3d 20 f1 fe bd 89 b1 03 3f
       -0.0651791 0.04380925 -0.12448335 0.5144277
000130 9f a9 33 be f6 f3 be be 59 7a d2 3e 96 18 65 3e
       -0.17545174 -0.37295502 0.4110897 0.2237266
000140 e5 99 08 3e 62 95 bc 3d d3 9a f0 3e 92 3d 59 be
       0.13339956 0.0920818 0.46993122 -0.21214893
000150 2b b8 ba 3e 9f a9 a8 be 39 fe c3 be c6 21 d7 bd
       0.36468634 -0.3294191 -0.38279894 -0.10504489
000160 b3 29 c6 3e 36 77 1d 3e 1f 7a b2 be 4c 38 ad be
       0.3870369 0.15377507 -0.34858796 -0.33832014
000170 54 30 d7 3e c9 99 4d 3e 61 eb 4a 3e 19 0d be be
       0.4202906 0.20078196 0.19816352 -0.37119368
000180 a1 0c e7 be be 94 e3 3e e0 e0 10 be 63 b8 e7 bd
       -0.45126823 0.4444942 -0.14148283 -0.11314466
000190 f8 76 a0 bd 36 a3 b1 3e 1c 87 6b be 98 4b 08 3f
       -0.078351915 0.34694833 -0.23000759 0.53240347
0001a0 83 e8 e9 3e 9a 6f 9a bc 65 40 90 be a0 6f 20 3e
       0.45685205 -0.018852044 -0.2817413 0.15667582
0001b0 a5 5a 70 3e 8d dc b3 3e f7 22 9e 3e 59 32 e6 bd
       0.23472078 0.35129204 0.3088605 -0.11240072
0001c0 67 ee 2b 3e 09 74 9a be 10 d2 80 be 78 42 03 3f
       0.16790162 -0.30166653 -0.25160265 0.512733
0001d0 2e a7 85 be bf 06 df 3e 0a 84 be 3e 98 dc 01 bf
       -0.2610411 0.43559834 0.37210113 -0.50727224
0001e0 86 c2 8d bb 4c fb 9f bd 5e 29 ad 3e 3f 0a 48 bf
       -0.0043261675 -0.07811603 0.33820623 -0.78140634
0001f0 d3 c5 cf 3e 12 b6 54 3e c2 19 00 3f 41 f4 d9 bd
       0.40580615 0.2077258 0.50039303 -0.10642291
000200 36 94 f9 be b5 8f 73 3d 15 db ff be c1 71 ca be
       -0.48745888 0.05946322 -0.49971834 -0.39539912
000210 9e 45 cc be 7c 4f 7f be 57 d5 9d be 9e 44 26 3d
       -0.39896864 -0.24932665 -0.30826828 0.040592782
000220 23 7a 33 3f 7f 9e 20 be 04 b2 a6 bd d8 4b 09 be
       0.7010824 -0.15685461 -0.081394225 -0.13407838
000230 3b a1 52 bd 03 9a fb 3e bd 6f 82 be 37 39 22 be
       -0.051423293 0.4914094 -0.25475875 -0.15842138
000240 98 c8 6c bd 70 a7 29 3f 9b 4b c8 be 3d db a2 3e
       -0.05780849 0.66271114 -0.39120182 0.3180789
000250 b0 63 42 be 91 9a b2 3e 1f 92 ca 3d d8 2c a6 3e
       -0.1898334 0.3488355 0.09891152 0.32456088
000260 9f 85 b3 be d5 e9 00 bf a0 8a 9b 3e 1a 2f 9d 3e
       -0.35062882 -0.503568 0.303792 0.30699998
000270 95 03 e2 be 05 65 ba be b0 d8 9f be 5b a4 76 3e
       -0.44143358 -0.36405197 -0.31220007 0.24086134
000280 ba 9d 14 3f cd bb 60 be ed 18 a5 3e fa 4c 14 3f
       0.5805317 -0.2194664 0.3224558 0.57929957
000290 df 22 16 3e 09 d5 8d be 94 2b ef 3e 76 96 46 be
       0.1466174 -0.27701595 0.46712935 -0.19393334
0002a0 e4 84 0e be f2 29 6f be 62 38 b2 3e d3 12 df 3d
       -0.13917881 -0.23355845 0.34808642 0.10892262
0002b0 54 6c b1 3c a4 b5 dc be 3d 3e 32 be 50 17 06 3f
       0.0216581 -0.4310733 -0.17406555 0.5237932
0002c0 e1 b0 5f 3d 65 e7 48 3e 34 ea 64 be 6f e1 68 3e
       0.054612044 0.1961952 -0.22354966 0.22742246
0002d0 80 07 91 bc 53 38 85 3c 59 8f bc bd dc 9b 13 3d
       -0.017703772 0.016262209 -0.09207029 0.03603731
0002e0 b1 0d fc be 84 5d 86 be fa 6e 95 be 76 a5 2d 3e
       -0.49229196 -0.26243222 -0.2918623 0.1695765
0002f0 8f fa 31 be 64 2d 38 be a2 48 85 be 09 8d 18 3e
       -0.17380737 -0.17986065 -0.26031977 0.1489755
000300 7e 75 e2 3e 54 ff 11 bf b9 fc d2 3e d2 a5 06 bd
       0.44230264 -0.57030225 0.41208437 -0.032872982
000310 59 73 74 3e aa ea 8c 3e 34 aa c2 3e 71 42 da 3e
       0.23872127 0.27522784 0.3802048 0.42628816
000320 a3 d4 5e be de 0a 9d bd 42 d4 90 3e 06 64 1f 3f
       -0.21760802 -0.076680884 0.2828694 0.62262
000330 84 4d e7 be 17 6d 81 be 1f 4b cd 3c c6 7c 91 3e
       -0.45176327 -0.2527854 0.025060235 0.28415507
000340 d3 a7 f6 3e 8c 08 ac be 0b 15 61 3e a1 6a 1a be
       0.48174915 -0.3360027 0.21980684 -0.15079738
000350 fd b5 99 3e 37 7b c1 be 1c ea 20 bf 13 79 f7 3c
       0.3002166 -0.37789318 -0.6285722 0.0302091
000360 ae b7 9c 3d b9 35 4c 3f a6 ee 8a be df e5 fb be
       0.076522216 0.79769474 -0.271352 -0.49198815
000370 17 a2 20 3e e5 83 63 3e e6 c5 84 3e f5 f3 dd be
       0.15686832 0.22218283 0.25932235 -0.43350187
000380 1e 95 e0 bd 59 31 bd 3e 20 8e 9b be 8e 96 11 bf
       -0.10965942 0.36951712 -0.3038187 -0.56870353
000390 32 d4 42 be 51 36 a9 bd 95 27 ac be f6 fd b1 3e
       -0.19026259 -0.08262313 -0.3362395 0.3476407
0003a0 90 d9 c5 bd af 55 f4 3d 85 cc 05 bf be 80 b3 3e
       -0.096606374 0.11930405 -0.522652 0.3505916
0003b0 06 3d 73 3d bc 4c ea 3e 80 85 85 3e ba dd 9b be
       0.05938437 0.4576167 0.26078415 -0.304426
0003c0 59 69 ef 3e 75 f7 05 bd d8 c2 11 bb 20 89 74 3e
       0.4676006 -0.032706697 -0.002224138 0.23880434
0003d0 f4 3f 93 be 6f 4e e7 3e 10 9e 93 3e 0c 14 39 be
       -0.2875973 0.45177028 0.2883153 -0.18074054
0003e0 bd 59 02 3f 85 db c7 3e be 86 0f bd da 3b ac be
       0.5091818 0.39034668 -0.03504061 -0.33639413
0003f0 e3 95 a5 3e ae b3 c0 3d f2 3c a9 3e 5d 67 fc bd
       0.32340917 0.09409271 0.3305431 -0.123244025

critic.2.bias f4 [64]
000000 fb 9b f6 bd 9b 4d 1d be 23 f5 e1 3d 73 48 1e be
       -0.1204147 -0.15361635 0.11033084 -0.15457325
000010 e7 56 e7 3d a1 4a 34 3e 36 64 11 be b6 1c eb bd
       0.11295872 0.17606594 -0.14198384 -0.114800856
000020 35 19 f9 bd 14 7d ce bd 31 10 14 3e 5d 9c 94 bd
       -0.12163011 -0.100824505 0.14459302 -0.072563864
000030 56 bc 12 3e 31 ea 10 be e3 4d 6f bd f9 ed ee 3d
       0.14329657 -0.14151837 -0.058423888 0.116664834
000040 60 5e d1 3d 8f db 0e 3e f9 e8 17 3e bd 0c a1 3d
       0.10223079 0.13950942 0.14834966 0.07863758
000050 34 03 ad bd 6e e3 17 be 87 e5 1a be 82 c4 07 be
       -0.084478766 -0.14832851 -0.1512662 -0.13258556
000060 85 58 a1 3d a2 82 2b 3e 0d f0 8d be 85 1c 62 3e
       0.07878212 0.16749051 -0.27722207 0.22081192
000070 64 13 4c 3e d6 c6 0c be 62 b9 b3 3d a6 2f c9 3d
       0.19929272 -0.13747725 0.08775593 0.09823541
000080 8e b0 00 3e 3c 98 14 3e a9 86 2a 3e 51 e4 04 3e
       0.1256735 0.14511198 0.16652931 0.12977721
000090 91 c9 3c 3e 60 dd 1f be 47 6b 1b 3e ff 67 1d 3e
       0.18436266 -0.15611792 0.15177642 0.15371703
0000a0 47 d1 33 3e fc cb fa bd c0 36 ce 3d af a5 10 3e
       0.17560302 -0.12245938 0.100690365 0.14125703
0000b0 48 4c 00 3e 74 4e 41 be 4c 5a 2a be b2 14 f5 3d
       0.12529099 -0.18877584 -0.16636008 0.11966838
0000c0 24 39 1f 3e 25 42 26 3e bf 91 bd bd 3a 67 88 3d
       0.15549141 0.1623617 -0.092563145 0.06660314
0000d0 b6 48 33 3e cc 45 f7 bd 7c 95 8e bd e2 27 33 3e
       0.17508206 -0.120738596 -0.06962106 0.17495683
0000e0 15 a4 8e bd 25 cd 0f 3e d4 0c 37 be 82 da d4 3d
       -0.0696489 0.140431 -0.17875987 0.103932396
0000f0 f5 92 89 be 5e 15 74 be d7 7c 0f 3e c0 0e 35 be
       -0.26869932 -0.23836276 0.14012466 -0.17681408

critic.4.weight f4 [1, 64]
000000 36 19 c0 bf 4e 37 ca bf 51 de cf 3f 93 ae d4 bf
       -1.5007694 -1.5798128 1.623972 -1.6615776
000010 f1 85 ca 3f 62 fd c1 3f 7e 75 cc bf fe 8b c3 bf
       1.5822126 1.5155451 -1.5973356 -1.5277097
000020 60 53 e3 bf ae 05 ce bf 40 49 c4 3f 74 75 c2 bf
       -1.7759819 -1.6095483 1.5334854 -1.5192094
000030 cb a7 c7 3f 62 19 c3 bf 75 51 c1 bf 84 4a bb 3f
       1.5598081 -1.5242121 -1.5102984 1.4632115
000040 b9 a9 b6 3f 8d 7b c7 3f 3e 79 d0 3f dc fd cc 3f
       1.4270545 1.558458 1.6287 1.6014972
000050 a5 5a b9 bf b7 f5 c4 bf 3b ef bc bf 4d 53 c3 bf
       -1.4480788 -1.5387486 -1.4760507 -1.5259796
000060 d5 7b c2 3f c5 10 c5 3f cb 32 ba bf 8a 9b b9 3f
       1.519404 1.5395743 -1.4546751 1.4500592
000070 21 4d be 3f b6 bb b7 bf 26 60 c0 3f 29 1e be 3f
       1.4867288 -1.435416 1.5029342 1.4852954
000080 69 24 c9 3f 2c 13 be 3f be 10 c6 3f b0 b9 dc 3f
       1.5714236 1.4849601 1.5473859 1.7244167
000090 a8 c2 b5 3f f1 20 c7 bf c3 69 d1 3f 29 ce c5 3f
       1.4200029 -1.5556928 1.6360401 1.545354
0000a0 1e 00 c3 3f 7d 12 c1 bf 59 26 c5 3f 55 46 b5 3f
       1.5234411 -1.5083767 1.5402328 1.4162089
0000b0 31 f5 c2 3f 9d 58 c1 bf 36 d3 c7 bf b6 af cc 3f
       1.5231076 -1.5105168 -1.5611331 1.5991123
0000c0 5b 7b bf 3f b4 46 cb 3f 53 3e d2 bf 54 98 b7 3f
       1.495952 1.5880952 -1.642527 1.4343362
0000d0 7f fb b8 3f 5e af d4 bf 93 fa bf bf a7 a1 bc 3f
       1.445175 -1.6616018 -1.4998344 1.4736832
0000e0 e5 df c3 bf 29 b9 d8 3f 2f 58 c8 bf 3e ab cd 3f
       -1.5302702 1.6931506 -1.5651911 1.6067884
0000f0 59 33 ba bf c3 a9 b8 bf 15 a5 cc 3f 85 e0 bb bf
       -1.454692 -1.4426807 1.5987879 -1.4677893

exp_avg f4 [64, 4]
000000 5c 4f 8d 3a 70 f5 ef 39 31 c3 9a b8 9f ed 72 39
       0.0010781097 0.00045768498 -7.3796495e-05 0.00023167439
000010 81 36 cf b9 24 a5 2d b9 87 d8 e2 37 0a 69 b7 b8
       -0.00039522725 -0.00016560085 2.7042128e-05 -8.745685e-05
000020 32 39 b9 3a 01 fc 1a 3a 11 87 cc b8 01 bd a9 39
       0.0014131425 0.00059121853 -9.752636e-05 0.0003237501
000030 b9 20 3c 3a 54 40 9b 39 b3 d2 51 b8 07 e6 32 39
       0.0007176507 0.00029611832 -5.0025712e-05 0.00017061095
000040 c1 57 a9 ba c6 bd 0d ba a4 35 ba 38 c4 43 98 b9
       -0.001291983 -0.00054070016 8.8791625e-05 -0.00029042189
000050 e0 09 94 39 a8 11 f7 38 e7 f0 a2 b7 88 7d 86 38
       0.00028236117 0.000117811665 -1.9424084e-05 6.413e-05
000060 1f d0 e8 ba 7c 87 42 ba c3 d0 fe 38 58 09 d2 b9
       -0.001776222 -0.00074207014 0.00012150549 -0.00040061283
000070 03 32 89 3a 22 b8 e4 39 04 30 97 b8 ee fc 79 39
       0.0010467175 0.00043624738 -7.209185e-05 0.00023840714
000080 69 86 76 3a c0 dc d3 39 5d 51 87 b8 6f 68 4f 39
       0.0009404184 0.00040409528 -6.452457e-05 0.00019779963
000090 29 0b 2e ba da 7c 96 b9 c3 ca 3d 38 0f c8 12 b9
       -0.0006639236 -0.0002870325 4.5249948e-05 -0.00013998173
0000a0 42 30 40 ba 24 2d a0 b9 20 dd 4e 38 24 d7 2d b9
       -0.000733141 -0.0003055121 4.9320166e-05 -0.00016578712
0000b0 f9 c1 2a ba 86 0a 90 b9 8d 85 3b 38 a9 37 1a b9
       -0.00065138895 -0.0002747366 4.4708653e-05 -0.0001470732
0000c0 1e b0 1c bb 3c d6 83 ba f9 1a 2d 39 03 89 0c ba
       -0.0023908685 -0.0010058354 0.00016508614 -0.00053609925
0000d0 f5 9c 85 ba ce 8f e0 b9 6d 98 92 38 90 80 6e b9
       -0.0010193872 -0.00042831752 6.990214e-05 -0.00022745342
0000e0 b3 13 a7 3a 20 61 0b 3a bb 7e b7 b8 54 6e 98 39
       0.001274696 0.0005316902 -8.7497254e-05 0.000290739
0000f0 41 67 17 3a 35 b2 7e 39 6c 0d 28 b8 ce c7 07 39
       0.0005775579 0.00024289715 -4.006682e-05 0.00012949036
000100 17 da 01 ba 42 d4 5e b9 9b 03 0d 38 70 44 d6 b8
       -0.00049534574 -0.00021250642 3.3620378e-05 -0.00010217063
000110 b0 99 4e 3a eb e6 a9 39 aa 8a 65 b8 3d 48 43 39
       0.00078811776 0.0003240624 -5.4726996e-05 0.0001862356
000120 47 4e b4 38 d3 00 10 38 83 e3 bd b6 21 91 ac 37
       8.597649e-05 3.4333043e-05 -5.659125e-06 2.0571579e-05
000130 2e 04 d1 b9 0b 21 38 b9 1d d0 df 37 d3 12 9f b8
       -0.000398667 -0.00017559917 2.6680582e-05 -7.585217e-05
000140 e0 37 07 3b 2f 11 62 3a a3 b6 14 b9 45 55 f4 39
       0.002063267 0.00086237764 -0.00014182417 0.00046602837
000150 8e a5 56 ba 2d c3 b2 b9 d5 83 6d 38 78 45 45 b9
       -0.0008188122 -0.00034096223 5.662798e-05 -0.00018813263
000160 0c e4 e6 b9 e2 b0 46 b9 ff b4 ff 37 7f 19 c8 b8
       -0.00044038927 -0.00018948645 3.0482652e-05 -9.541492e-05
000170 45 9f 28 ba b7 a5 8e b9 00 dd 39 38 ac 83 14 b9
       -0.00064324244 -0.00027207818 4.431326e-05 -0.00014163431
000180 bb 06 28 39 18 bd 81 38 f3 7d 38 b7 08 a9 36 38
       0.00016024236 6.186421e-05 -1.09965795e-05 4.3549604e-05
000190 9b a9 c0 3a 67 07 25 3a 63 36 d2 b8 a5 bb a1 39
       0.0014698984 0.00062953535 -0.00010023711 0.0003084812
0001a0 15 f4 99 b9 05 f8 02 b9 0e f2 ad 37 1f b7 87 b8
       -0.0002936429 -0.0001249016 2.0735923e-05 -6.4714106e-05
0001b0 5f 8e 9d 39 e4 09 fd 38 2e 39 b1 b7 fb 15 9f 38
       0.00030051448 0.000120658224 -2.112667e-05 7.585805e-05
0001c0 42 79 ef ba 2b d4 48 ba 66 5f 03 39 f7 65 d5 b9
       -0.001827039 -0.000766101 0.00012528672 -0.00040702496
0001d0 b1 5a c4 ba 61 c9 26 ba af 66 d7 38 72 1e aa b9
       -0.0014980641 -0.0006362405 0.00010271125 -0.0003244761
0001e0 28 99 f2 3a aa de 4a 3a 61 b0 05 b9 4f d8 da 39
       0.0018508779 0.0007738868 -0.00012749575 0.00041741363
0001f0 ed eb 18 b8 2f 30 64 b7 b6 13 30 36 10 16 2f b7
       -3.6459347e-05 -1.3601078e-05 2.6237517e-06 -1.043595e-05
000200 aa bd 55 3a 8c b9 b5 39 7e 9c 6b b8 b9 58 38 39
       0.00081535673 0.00034661253 -5.617411e-05 0.00017580659
000210 c0 1d 1f b9 22 fe 89 b8 44 fc 31 37 b5 aa 03 b8
       -0.00015174504 -6.580005e-05 1.0608757e-05 -3.1391817e-05
000220 57 f0 e4 39 aa 1a 3b 39 e2 e4 ff b7 e1 10 de 38
       0.00043666616 0.00017843643 -3.050495e-05 0.00010588929
000230 c0 1f 9c 38 d9 04 e2 37 24 a6 ac b6 b4 1c c5 37
       7.4445736e-05 2.6943557e-05 -5.1453408e-06 2.3497596e-05
000240 6a 3f 6e b8 e9 1d d2 b7 f4 30 8c 36 93 da 4b b7
       -5.680268e-05 -2.5047879e-05 4.178024e-06 -1.2150634e-05
000250 2c 7f 8b 3a 04 6e ec 39 ba ee 99 b8 aa 96 7a 39
       0.0010642759 0.00045095396 -7.340075e-05 0.00023897985
000260 18 2d 16 3a 74 6c 80 39 6a 1f 24 b8 a7 05 00 39
       0.00057287654 0.00024494866 -3.9129904e-05 0.00012209137
000270 cd a9 c5 b9 54 b0 27 b9 40 73 d2 37 8c 4b ae b8
       -0.0003770128 -0.00015992048 2.5087618e-05 -8.311038e-05
000280 69 ac b5 39 fa 57 16 39 f3 4b cc b7 93 fa ad 38
       0.00034651466 0.00014337889 -2.4354062e-05 8.295956e-05
000290 d2 09 21 3b af 8c 87 3a 4f 75 31 b9 cb 32 0f 3a
       0.0024572504 0.001034161 -0.00016923736 0.0005462586
0002a0 54 25 f2 3a 63 c3 4b 3a 41 61 05 b9 69 32 d8 39
       0.0018474259 0.00077729503 -0.00012720098 0.0004123629
0002b0 e2 b4 0e ba cb 11 6f b9 64 49 1d 38 9f 7e 01 b9
       -0.0005443824 -0.00022799445 3.7500067e-05 -0.00012349569
0002c0 87 35 88 ba 50 93 e4 b9 0f 5a 96 38 79 5d 75 b9
       -0.0010391929 -0.00043597305 7.169332e-05 -0.00023399842
0002d0 66 1f 1a ba 56 fc 83 b9 88 d1 28 38 dc d5 06 b9
       -0.00058793125 -0.00025174272 4.0249462e-05 -0.00012858905
0002e0 48 2c 87 38 21 9e cf 37 31 f6 86 b6 93 9e 7c 37
       6.44555e-05 2.4749957e-05 -4.0221717e-06 1.5057291e-05
0002f0 d6 92 93 ba 59 2f fa b9 50 0a a1 38 e4 5f 7f b9
       -0.001125897 -0.00047718993 7.678999e-05 -0.00024354417
000300 bd 05 2c 3a 40 01 91 39 fb cd 3d b8 76 ac 17 39
       0.00065621344 0.00027657486 -4.5252946e-05 0.00014464729
000310 9e 96 83 3a 35 f4 d8 39 9a f1 91 b8 d6 68 7b 39
       0.0010039394 0.0004138068 -6.9591406e-05 0.0002397628
000320 7b 6c ae 3a 1f f5 10 3a 42 6c c0 b8 1a 14 a1 39
       0.0013307476 0.000552969 -9.175438e-05 0.0003072329
000330 75 33 0c 3b 5a 38 6c 3a 17 54 1a b9 bc 3a f9 39
       0.0021392975 0.00090110826 -0.0001471791 0.00047536741
000340 50 e6 2d ba 87 90 94 b9 30 d4 40 38 25 e3 16 b9
       -0.00066337455 -0.0002833644 4.5973982e-05 -0.00014389733
000350 b0 6b e0 3a 1c af 3c 3a 11 32 f6 b8 04 25 c9 39
       0.0017121937 0.0007197724 -0.0001173952 0.00038365286
000360 1d 4a f7 38 d0 8d 57 38 13 f4 07 b7 4d 06 c6 37
       0.000117916825 5.1392068e-05 -8.103455e-06 2.3606373e-05
000370 e1 c4 87 b9 3b 59 e2 b8 f3 d1 95 37 05 b8 72 b8
       -0.00025895893 -0.0001079314 1.785995e-05 -5.7868678e-05
000380 78 e4 90 b9 b1 e9 f5 b8 d9 0c 9d 37 bf 72 7a b8
       -0.00027636043 -0.00011726039 1.8721841e-05 -5.971151e-05
000390 fd 42 16 ba fd c1 80 b9 7a 2e 25 38 bb 54 03 b9
       -0.0005732028 -0.00024558595 3.938235e-05 -0.00012524698
0003a0 fc 8d 6c ba e4 43 d3 b9 4a 35 81 38 fd 9d 31 b9
       -0.0009023843 -0.0004029564 6.161125e-05 -0.0001693889
0003b0 52 d1 a3 3a ef a7 09 3a 7a e7 b2 b8 77 ca 91 39
       0.0012498295 0.00052511593 -8.530817e-05 0.00027807403
0003c0 3f e5 6d ba 89 50 c8 b9 19 93 7d 38 8a ad 53 b9
       -0.0009074993 -0.00038206976 6.0456896e-05 -0.00020187176
0003d0 ff 97 af 3a db c5 14 3a 90 b6 c0 b8 1c f7 98 39
       0.0013396739 0.0005675235 -9.189278e-05 0.0002917581
0003e0 b7 31 80 ba 1b 18 d6 b9 88 5c 8d 38 fe e5 6a b9
       -0.0009780441 -0.0004083522 6.740639e-05 -0.00022401658
0003f0 18 69 ec b9 51 4d 4a b9 16 22 02 38 3a 03 cc b8
       -0.0004509173 -0.00019293024 3.102616e-05 -9.728079e-05
