models/ppo_Pendulum-v1.pth (torch, 570755 bytes, 33 tensors)

actor.0.weight f4 [128, 3]
00000000: cdf2 90be 6bc0 d7bd d668 a8bd cb6e 923d
00000010: 4aaa 0a3f b9e0 813d 785c febd bb55 49be
00000020: 15d4 193d 9871 c9bd cb4e 783e de88 0cbd
00000030: 8e61 98be ad09 813c 2ab8 70be 9e05 e2bd
00000040: f319 7e3e 25ce f2bd 33c6 0e3e 1212 a73e
00000050: eca6 d43c 4387 d7be a0d8 b3be 1429 dcbd
00000060: f76c 123e 6216 923e 1586 213e 9745 2e3d
00000070: 05d5 f93e 4aa7 c43d ce4b 483d 4afd e1be
00000080: dcb9 c5be 6bda 0abd 8edd 93be 0061 5d3d
00000090: 5619 f6bd 9177 e6be 40b1 eabc 0c6f 963e
000000a0: efca 293e 2830 b2bd cdf3 273e 5580 83bc
000000b0: 1467 e2be eee4 02be 271c cdbe 0d3d a6bc
000000c0: b6ea a33e 355a 093f 70b3 8d3d 03da 8f3d
000000d0: b83a df3c 8b26 e5bc e3b4 c53d 13df 8fbe
000000e0: 0010 0d3d d1b9 023e c646 053f 5602 1c3d
000000f0: 3f24 a43d 961b efbe 429a 63bd e751 523d
00000100: dfe2 13bf 5b09 d3bd e006 5bbd 9b79 1cbf
00000110: 0e75 3ebe a2e5 90bd a0f1 b33d 10b9 933e
00000120: 9743 c4bd 37d0 92be 25b3 6e3c c83c ccbd
00000130: 59e8 c2be 5bca 67bd b425 58be cac5 8fbe
00000140: 8b9f 063c 6e7d 863d 8795 d93e 2c02 11bb
00000150: 84ae fbbd e2ac be3e a8d2 a13d dd58 38be
00000160: 60f6 be3b e931 0ebe 98a8 e33d c7e8 a03e
00000170: 646c e23d 703b 5d3d 68e6 193f f0e6 ce3d
00000180: be84 9abe da60 eb3e 17b5 83bd ae92 833d
00000190: 9172 9cbe 4907 21bf 69cc 7c3e ceca 01be
000001a0: 4764 88bd cc99 973e 1d4d bf3e 7101 05bb
000001b0: 0e95 9f3d af82 d93e c9ac b03d 1397 593e
000001c0: eb46 07bc ea7e ce3a d87d cebd 14f5 e2bd
000001d0: da95 ff3c 2c07 b2bc 4f89 363e 0504 17bd
000001e0: 3c7a 2dbe 811c 053e 5c40 693d e1b2 863e
000001f0: b3e7 683d e972 293e 9378 263e ede4 6bbe
00000200: 25a1 58bd a79c 623d de1e 153f f3d4 a13d
00000210: 56c7 87bd 6776 0ebf 999c f8bd 656a 173e
00000220: 1067 af3e d2e9 933c 28c3 03be ce42 213f
00000230: d50a 433d 2c63 c0bd 9fb0 fcbe 36a6 f0bd
00000240: f9b8 7cbd c76b febe 07c0 aabd 97a6 70be
00000250: b69c 963e fb53 993d 4601 09be 6394 9cbe
00000260: 61d8 cabd 8102 8fbd 40ac d9be e96d d8bc
00000270: f104 97bd 731c c63e 4665 3b3d 5a9a 8cbe
00000280: 6baf ab3e c81e 34be 9c7e 26bd 0f41 05bf
00000290: fb38 c3bd be0f 8e3e 8eb5 98bd 48f2 81bd
000002a0: 0e41 bdbe 4bfe dc3d c0a9 723d 0974 91be
000002b0: b0a2 b53e 3178 e33a 78fd 953c 3fe2 e93e
000002c0: 497d a73c b870 af3d e70f 9f3d 330a f03e
000002d0: 139f 903d c867 3cbe 3984 80bd d905 5b3e
000002e0: fff3 5dbe 790a 85bd 6961 613e 8546 e9be
000002f0: 2cfa e9bd ce13 063f 8c8d c53e 9805 913d
00000300: 9e58 ee3d 77ec c23e 0c30 283e 2264 873e
00000310: 7d28 a23d 631e 0a3e fed9 1bbe 6306 1fbf
00000320: 9a60 31be 2704 0ebe 3322 b9be 7066 f6bd
00000330: 4170 45bc 4748 943e c951 083e 6780 703e
00000340: b4a7 d73e 646e e03c beb8 363e 9ea3 173f
00000350: 4afd f43d 5870 e83d 8e7a 9a3e 439e 843d
00000360: 74cf 4dbd 4250 e53e 3201 03bc 8a3c 0a3c
00000370: e55b b1be 18ec 86be bb51 76be c3a3 243d
00000380: 8153 3f3d 51a4 bd3d 338b 1b3f 93d3 1e3e
00000390: 69d9 903c 750b 8cbc 250d ddbd 52d8 32be
000003a0: 4cba d33e 59b8 9c3d 93c9 00be 142c 253f
000003b0: 0e0f 223e edc7 01be 24e9 c7be 2c63 ebbe
000003c0: 3230 3cbd 008a 00bf 3237 6fbe 9d0f 783d
000003d0: 3fc1 043f 6edc 8b3d 9f6f 193b c493 363f
000003e0: da4f dd3d be03 1e3e 4160 0f3f 0119 af3d
000003f0: dae3 953b 32b8 15bf 5e70 b6bd 5e6f c93d
-0.28310242 -0.10534748 -0.08223121 0.07150038 0.5416609 0.063416906 -0.12419981 -0.1966161
0.037555773 -0.098361194 0.24248807 -0.034310214 -0.29761928 0.015751684 -0.23507753 -0.11036228
0.24814586 -0.11855725 0.13942795 0.32630974 0.0259585 -0.42095384 -0.3512621 -0.107500225
0.1429938 0.28532702 0.15773804 0.042546835 0.48795334 0.0960222 0.048900418 -0.44138557
-0.38618362 -0.033899706 -0.2887997 0.054047585 -0.12016551 -0.45013097 -0.028648973 0.29381597
0.1658132 -0.08700591 0.16401596 -0.016052404 -0.44219267 -0.12782642 -0.4006054 -0.020292783
0.32015008 0.5365327 0.069189906 0.07024004 0.027249679 -0.02797248 0.09653642 -0.2809988
0.034439087 0.12766196 0.52061117 0.038088165 0.08014726 -0.46700734 -0.055567034 0.05134764
-0.5776805 -0.10304519 -0.053473353 -0.61123055 -0.1859934 -0.07075049 0.08786321 0.2885213
-0.09583204 -0.2867448 0.014569079 -0.099725306 -0.38067892 -0.056589466 -0.21108133 -0.2808059
0.008216749 0.065668926 0.42496893 -0.0022126539 -0.122891456 0.37241274 0.079015076 -0.18002649
0.00582771 -0.13886227 0.11116141 0.31427595 0.1105583 0.054011762 0.601172 0.101026416
-0.301794 0.4597233 -0.064310245 0.06424461 -0.30556157 -0.6290174 0.24687351 -0.1267502
-0.066597514 0.29609525 0.3736352 -0.0020295049 0.07792102 0.42482516 0.08626706 0.21249036
-0.008256654 0.0015754376 -0.100825965 -0.11081901 0.031199384 -0.021731935 0.17825817 -0.036869068
-0.1694116 0.12999155 0.056946144 0.2630835 0.05686159 0.16547741 0.16256933 -0.23036547
-0.052888054 0.055325177 0.58250225 0.07901945 -0.06629817 -0.5564942 -0.12139244 0.1478668
0.34258318 0.01805583 -0.12867415 0.6299256 0.047617752 -0.093939155 -0.493535 -0.11750452
-0.06169984 -0.49691603 -0.083374076 -0.23501049 0.29416436 0.07486721 -0.13379392 -0.3058196
-0.09904552 -0.069828995 -0.4251423 -0.026419597 -0.073739894 0.3869358 0.04575088 -0.2746151
0.3353227 -0.17589867 -0.040648088 -0.52052397 -0.095323525 0.27746385 -0.07456504 -0.063450396
-0.36963695 0.1079069 0.059243917 -0.2840884 0.35475683 0.0017354545 0.01830934 0.45680425
0.020445483 0.08566421 0.07766705 0.4688278 0.07061591 -0.18398964 -0.062752195 0.2138895
-0.21675108 -0.06496138 0.22009815 -0.45561615 -0.114246696 0.5237397 0.38584554 0.07081145
0.11637996 0.38071033 0.16424578 0.26443583 0.07917879 0.13488154 -0.15219876 -0.6211912
-0.17322007 -0.13868771 -0.36158904 -0.12031257 -0.012050689 0.28961393 0.13312449 0.23486482
0.42120135 0.027396388 0.17843911 0.59234035 0.119623736 0.11349553 0.30171627 0.064754985
-0.05024667 0.44787794 -0.00799589 0.008437285 -0.34640422 -0.26352 -0.24054615 0.040195238
0.046710495 0.092598565 0.60759276 0.15510397 0.017681794 -0.017095307 -0.10793523 -0.17465332
0.4135307 0.07652349 -0.12576894 0.6452038 0.15826055 -0.12673922 -0.3904506 -0.459741
-0.0459444 -0.5021057 -0.23360899 0.060561765 0.5185737 0.06829153 0.0023412479 0.7131922
0.10806246 0.15431115 0.56006247 0.08549691 0.004574281 -0.58484185 -0.08908151 0.09835695

actor.0.bias f4 [128]
00000000: b54f 12bc 2ef1 833d ae35 b7bd 7cac e53d
00000010: 1b60 34be efc7 38be 34f0 353e 16a2 273b
00000020: 7b93 633d d56d 84bd 2c9a c63c 2121 e23d
00000030: 122f afbd 3555 cfbd 01ec 03be 27a7 eabc
00000040: f24f efbb d28b 9c3e faf5 403d bfa8 2f3d
00000050: 173b 513d f899 d7bc b2d3 dd3c a725 7d3e
00000060: 85ff 6d3d 34d8 a33d 86e1 babd 4fe7 52bd
00000070: 4b61 92bd 39e4 96bd 3d9a e5bd 4528 693c
00000080: bf57 00be e94b c3bd cb68 78bd bba5 da3c
00000090: 3e80 4c3d bf19 393e ed19 62be 6ba5 713e
000000a0: df0c 8dbc 87a4 be3d 61db 7abe ed40 e83c
000000b0: 2a07 433d db68 4f3e aa61 8dbd 5a66 cc3d
000000c0: c5d2 d9bc fe80 f6bd 8a94 f83d 33fa 25be
000000d0: 8773 36be e5f8 23be 42fc 6a3d 4a9a 3bbd
000000e0: 7f47 fbbd cdfd 72bc 0cf7 293e ac8e 533e
000000f0: ae15 623e 6046 343e 4806 5ebd 1915 dfbc
00000100: a325 893d d607 b73d 2628 fd3a d681 093e
00000110: 02e3 8abd eff0 b63d b301 0f3c bce6 36be
00000120: a952 ffbd f60a 72bd 3983 13be 3ef7 8e3a
00000130: 4100 2c3e 016c a9bd 3430 e4bb c835 fcbd
00000140: e4cf 8dbd bb59 ac3c 0d0f 703d bf5f 233d
00000150: 02c8 11bd 0953 f2bd 978e 27be 6506 d73d
00000160: 5c29 083e e109 a0bd 4982 0cbe d0b8 373d
00000170: a166 dfbc 180b 873d 2d20 d7bd e066 df3d
00000180: 0414 343e 4941 8ebd a83c 2e3b 3543 a63d
00000190: fddb 38be 8d6f d1bd 48ff a73e 3e69 5abe
000001a0: 4c28 c43d d6f5 343e 7e07 d73d a5ce 043e
000001b0: 5fe1 27be a816 70be d289 1d3e fd87 d73d
000001c0: e8ff 133e 0291 c23d 8e8e 303d 975f 2bbd
000001d0: 2fbf ca3d f98f 8abd b221 63be 322f 28be
000001e0: 4dba 403d f55d 75bc 89ce 69bd 2d3b 25bd
000001f0: 34d4 57bd 20b6 a8bd 772e b7bd 471d e53b
-0.008930136 0.06442486 -0.089457855 0.112145394 -0.17614786 -0.18045019 0.17767411 0.0025578788
0.05556057 -0.06466261 0.024243437 0.11041475 -0.085539 -0.10123674 -0.12882997 -0.028644158
-0.0073032314 0.30575424 0.04710958 0.04288554 0.051081743 -0.026318535 0.027078483 0.24721394
0.05810501 0.08000222 -0.091250464 -0.051490124 -0.071474634 -0.07367749 -0.11211059 0.014230792
-0.12533472 -0.09535963 -0.060646813 0.026690355 0.04992699 0.18076228 -0.22080202 0.23598258
-0.017218051 0.09308725 -0.24497749 0.028351272 0.047614254 0.20254843 -0.069033936 0.099804595
-0.02658976 -0.12036322 0.121377066 -0.16208725 -0.17817508 -0.16012914 0.057369478 -0.04580144
-0.12269496 -0.014831019 0.16598147 0.20659894 0.22078583 0.17604971 -0.05420521 -0.02723174
0.06696632 0.089370415 0.0019314333 0.13428435 -0.067815796 0.08932673 0.0087284325 -0.17861456
-0.12466938 -0.059092484 -0.14405526 0.0010907424 0.16796972 -0.08272553 -0.006963754 -0.123149455
-0.069244176 0.02103888 0.058608104 0.039886232 -0.035591133 -0.11832244 -0.16362987 0.104992665
0.13297027 -0.07814384 -0.13721575 0.044853985 -0.027270617 0.06593913 -0.10504184 0.10908294
0.1758576 -0.06946046 0.0026586447 0.081182875 -0.18052669 -0.10226355 0.32811952 -0.21329209
0.095779985 0.17671904 0.10499476 0.12969454 -0.16394566 -0.23446143 0.15384606 0.105239846
0.14453089 0.09500314 0.0431047 -0.04183921 0.098997466 -0.06765742 -0.22180822 -0.16424254
0.04705267 -0.014976014 -0.057081733 -0.040339638 -0.052692607 -0.082378626 -0.08944409 0.0069920155

actor.2.weight f4 [128, 128]
00000000: a317 70be 19ab 8e3e ffa5 bb3c 5219 edbc
00000010: 8abc 60be 7f10 cfbd b8b6 a53e fb4a 8cbe
00000020: 5c2b 8e3e 9e02 483d ae14 0a3c de56 ae3e
00000030: b087 94bc 5961 84bd e71e c83d 95f1 36be
00000040: bc30 073e af4f 3e3e 3c2f d33d d5f4 cb3d
00000050: fa21 d13c bcdb 8cbe 239f 83bd f07a df3d
00000060: da9a f63c a206 18be e2cc e1bc 88f1 113e
00000070: b347 2e3e 4b7f 19be 335a a13d a1a1 1d3e
00000080: 5931 55be 01c8 283e cf06 cdbe be00 393d
00000090: 9130 3d3d 765c 17bc 2237 18bd 952f 21bd
000000a0: 4991 4e3c 0e4b 983e ae7b 333d f280 3c3e
000000b0: a3fe 30be ac28 333e c13c b63d 3d5e 6ebe
000000c0: 012d 89be fec0 0fbe 5011 87bd 03c6 9fbc
000000d0: bd0a 633d 74cb 9ebd 0f58 cfbd 525b 063e
000000e0: 3355 f93c 81d2 edbb b405 1e3e bdc7 5c3e
000000f0: b5a3 97be 189e 5abc c77e a1bc aab0 3b3e
00000100: e76d c73d 35e6 cb3e ee7a 07be aad9 bdbd
00000110: fe88 24be 6056 9a3e f306 303e 2677 7b3e
00000120: f361 b7bd 8b78 bdbd efff 12be 9829 bf3e
00000130: 88a4 90bd e7a8 73bd 8102 e0bd 8fbe d5bd
00000140: b37b 6cbe 56f5 723e 16f6 0b3e 436c 0b3e
00000150: 26fb cd3c 3ac3 b03d e8fe bcbe 57f6 fdbb
00000160: c449 15bd 43f9 7e3e a28c c1bc 1ddf 713e
00000170: c653 21bd e898 073e 838d 5b3e 683f 043e
00000180: 608c 4b3e 46a2 67be 891d b83c 22a7 3d3d
00000190: b4f2 b8be 2b29 393d 9a59 0d3e de1e 8fbe
000001a0: ec56 663e acef 533d ed58 a4be e4a2 e13d
000001b0: 05a4 6bbe cfdb 30bd 7f5d be3d e646 49be
000001c0: 1bee dc3d 25e9 543e 5c37 f3bd 2165 943d
000001d0: bde4 fcbd 3ab1 7b3d b231 113e e0c0 d43d
000001e0: ce59 2d3e 8ec2 eabd 7bbf dfbd 464b a2be
000001f0: 2187 903e 540d e9be f5a3 073e a91b b7be
00000200: 542d 3ebd 89ec 7abe 3994 70bc ca03 993d
00000210: 2239 8ebd d97b 81be ff97 b7bd 9341 823d
00000220: 0153 283d 7965 3b3d 4696 893d 1d52 493d
00000230: 5aac a43d 0430 9d3d 66b3 103e bbde ddbd
00000240: b302 02be bbf2 293d d1df fd3c 0085 88bd
00000250: c4ce 143e 07ec a8bc 1357 e7bd 248b 95be
00000260: 108d 01be 9f9a 22be 0069 b73d 752b b4bd
00000270: 4c58 083e ffec 3fbe 611b bcbd 47d0 02be
00000280: 8be2 543d 307d 843e 29a2 3e3d fa9b a3bd
00000290: d154 05be 791b 473e 8f3e 4cbd cac5 65bd
000002a0: f855 413e 6400 2a3e 0484 00bc 867b c8bd
000002b0: ac45 483e 16ef 2cbe e45b 0cbe c134 b03d
000002c0: 9378 4ebc 8d2b bd3e 58e9 cbbd 4fe8 433e
000002d0: 48e4 60be 185b ecbd 63e0 0f3d 05a5 1abe
000002e0: f7a7 19be 1497 b33d 8cfc 03be de6a d4bd
000002f0: 6882 313d a3fe 99bd 3945 36bc 3743 41be
00000300: 7171 973d 27e9 373e fab2 92bc 3232 473d
00000310: 60f4 1a3e dfd3 b33c 4aeb 02be 492b d2bd
00000320: fc53 7bbd 95ad 9dbd 944d 953e b89c a83d
00000330: 8ed6 30bd c27e 92bd 3d27 4abd ff56 21be
00000340: 524c 26be 7c8b 15be 5892 acbd 79c6 823d
00000350: 7c90 5cbe fd10 783b 1a2a afbe b3d0 7bbd
00000360: 1d3e 15bc 5e62 363e 4649 073e 77b4 253d
00000370: dffe b63d 62a7 883e d319 a43d 4a8c 45bd
00000380: 9da9 d7bc 873f b2bc 0112 413d 9839 cebd
00000390: e1ba 19be 815f 463e c445 803d 9408 3bbd
000003a0: b179 cdbd 0f96 67be 0a3f 5b3d c096 ed3b
000003b0: 25ad 263e e9de c1bd 60fb c0bc 1d6c 12bc
000003c0: e98f 0bbd 6fab 8fbc 5b19 43bd 1c5e 3b3e
000003d0: d062 183e afa1 073e ec50 f73d f13a 9b3c
000003e0: 61c5 5f3e f39c babd 45b8 223e c6f7 8bbe
000003f0: afb3 3f3d c9af 49be 71e7 683d f1e3 3a3e
-0.23446517 0.27864912 0.022906302 -0.028942738 -0.21946922 -0.10110568 0.32365966 -0.27400956
0.27767456 0.04883062 0.008427782 0.3405065 -0.018131107 -0.0646388 0.09771519 -0.17865594
0.13202184 0.18585084 0.103117436 0.099588074 0.025528897 -0.27511394 -0.06426837 0.1091212
0.030103136 -0.1484628 -0.027563516 0.14252293 0.17019539 -0.14989965 0.07878532 0.15393688
-0.20819606 0.16482545 -0.40044257 0.045166723 0.046188895 -0.009238353 -0.037161954 -0.03935202
0.012607881 0.29744762 0.043819122 0.18408564 -0.17284636 0.17495984 0.08898307 -0.23278137
-0.26792148 -0.14038464 -0.06595099 -0.019503599 0.055430163 -0.07753649 -0.10124218 0.13120773
0.030436134 -0.00725776 0.15431863 0.21560569 -0.29617086 -0.013343357 -0.019713772 0.1832911
0.09737759 0.39824072 -0.13230488 -0.09270032 -0.16067883 0.30144024 0.17190151 0.2455717
-0.08954229 -0.09251507 -0.14355443 0.3733642 -0.07062632 -0.05948725 -0.109379776 -0.10436737
-0.23094063 0.237264 0.13668093 0.13615517 0.025144171 0.086309865 -0.36913228 -0.0077503133
-0.0364473 0.24899773 -0.02362663 0.23620267 -0.039386533 0.13241923 0.21440701 0.12914813
0.19877768 -0.22620496 0.022475021 0.04630197 -0.36122668 0.045205276 0.13803712 -0.27953237
0.22494096 0.05174224 -0.32099095 0.11017397 -0.23011787 -0.043178376 0.09295177 -0.19655952
0.107876025 0.20792063 -0.11875793 0.07245851 -0.12348316 0.061448313 0.14179114 0.103883505
0.16928789 -0.114628896 -0.10925194 -0.31698054 0.28228095 -0.4551798 0.13246138 -0.3576329
-0.046429947 -0.24504294 -0.014683777 0.07471426 -0.06944491 -0.252898 -0.08964538 0.063601635
0.041094784 0.04575107 0.067181155 0.049150575 0.08040686 0.07675174 0.14130935 -0.10833498
-0.12696342 0.04149125 0.030990513 -0.06665993 0.14532 -0.02062036 -0.11295905 -0.29207718
-0.12651467 -0.15879296 0.08955574 -0.08797351 0.13314933 -0.1874275 -0.091849096 -0.12774764
0.05197386 0.2587676 0.046541367 -0.079887345 -0.13020636 0.19444074 -0.049864348 -0.05609683
0.1888045 0.16601712 -0.007843975 -0.09789185 0.19557828 -0.16888079 -0.13706928 0.08603812
-0.012601989 0.3694729 -0.09956616 0.19131587 -0.21962082 -0.11540812 0.0351261 -0.15102012
-0.1500548 0.0876905 -0.12889308 -0.10371946 0.043337256 -0.07519271 -0.011124902 -0.18873297
0.07394684 0.17960034 -0.017907608 0.048631854 0.15132284 0.021951614 -0.12785068 -0.10262162
-0.06135939 -0.07699124 0.2916075 0.08233017 -0.043173365 -0.071530834 -0.049353827 -0.15755843
-0.16240051 -0.1460399 -0.0842635 0.06385512 -0.21539491 0.0037851923 -0.34211808 -0.061478328
-0.009109047 0.17810962 0.13211545 0.040455308 0.089353316 0.26690203 0.08012738 -0.048229493
-0.026325995 -0.021758808 0.04713631 -0.10069579 -0.15012695 0.1937237 0.06263307 -0.045662478
-0.100329764 -0.22615837 0.053526916 0.007250637 0.16276987 -0.09466345 -0.023557365 -0.008936909
-0.03407279 -0.0175378 -0.047631603 0.18297619 0.14881444 0.13245271 0.120759815 0.018949004
0.21852638 -0.09111967 0.15890606 -0.27337474 0.04680222 -0.19695963 0.056861345 0.18251015

actor.2.bias f4 [128]
00000000: cb61 3c3d a38a f3bc cf96 3ebd d3b1 63bd
00000010: a04d 83be e231 0bbe e2b8 6cbc 4a5e 373e
00000020: d11d 90bd 05e6 8c3c 0bc1 cb3d cada 7fbd
00000030: 420d 7d3d 0d8b 57be c698 9b3d 6fba b5bd
00000040: 0c00 14be e76f f03d c634 97bb 1644 96bd
00000050: 0db6 0bbe 6243 22bd 35d2 a5bd a1b9 91bd
00000060: fa3a 0fbd 6406 443d 71f0 073e 001d cc3d
00000070: e8ca 77be dece a2bb e04c 0bbe 8ac6 10bd
00000080: 6ab9 b0bd 1ca7 e3bd 463c 6ebe deae 07be
00000090: cf76 da3d e573 183e d589 8d3d e635 b53c
000000a0: 770b a23d 4548 1a3e 2392 0bbe 70dd 21be
000000b0: 5701 edbd 028a 87be 391b c2bd 02c0 2d3d
000000c0: 5af1 59be 2b9a 07be 29e5 bb3d e155 8fbd
000000d0: d1bd ca3d 67f3 18be bc71 2fbd ec2a 503e
000000e0: 911e 3e3d 4567 d73b f41f f8bc c86e 03bd
000000f0: ad29 03be 8ed5 86be 12e9 7fbd 78c9 d9bd
00000100: 1ee4 8cbd 702e febb b16c 513e 45a8 a53d
00000110: d2ae 28bd 653e 48bd f43c 293e 3380 adbd
00000120: c200 b4bd 58f3 87bd f040 adb9 ea36 9f3d
00000130: 7cf7 de3d f942 6bbe f19e a43d 6383 3f3d
00000140: cf6f bbbc cbda 3dbc 240d 553d 1f7f 1e3e
00000150: 5aec 413d bc69 c1bd 4a95 69bc 0e3a 9fbd
00000160: 5a94 b4bd 7f57 47bd a2c6 f7bc 6390 8a3c
00000170: ebae eb3c ede4 703d b983 53bd 645d b93d
00000180: 3f21 323e d348 1bbd 42ca 37be 7292 f83d
00000190: eeac ab3d d6b1 e2bd c1b0 7ebd e5fc aa3d
000001a0: 4ba1 08be b532 49bd 2c23 fc3d 69aa ac3b
000001b0: 899c af3d 1a88 2fbd ab77 0dbd b18e 833d
000001c0: 8dab 8e3d c067 03be faef 8a3d 6303 fcbd
000001d0: 6f93 5bbd be63 e5bd 5dec 34bc f3ad 8fbd
000001e0: 9787 f23d 1d1e 01be 292c bc3c ad8f f33d
000001f0: 9100 f33c 44f6 8abe 3360 f03d b6f9 7e3d
0.0459917 -0.029729193 -0.04653054 -0.05558951 -0.2564516 -0.13593248 -0.014448376 0.17907062
-0.07036937 0.017199526 0.099489294 -0.062464513 0.06178022 -0.21049137 0.075974986 -0.0887345
-0.14453143 0.11740094 -0.0046144454 -0.07337205 -0.13643666 -0.039615043 -0.080967344 -0.07115484
-0.034968354 0.047857657 0.13275315 0.09966469 -0.24198496 -0.004968508 -0.13603544 -0.03534559
-0.08629115 -0.11115858 -0.2326518 -0.132503 0.10667192 0.1488796 0.06911055 0.022120427
0.07912343 0.15066631 -0.13629965 -0.15807128 -0.11572521 -0.2647248 -0.094778486 0.04241944
-0.21283475 -0.13242404 0.09174568 -0.06998802 0.09899486 -0.149366 -0.042833075 0.20328873
0.04641587 0.00657359 -0.030288674 -0.03208807 -0.12808867 -0.26334804 -0.062478133 -0.1063413
-0.068794474 -0.0077570006 0.20451619 0.080887355 -0.041182347 -0.04888763 0.16527158 -0.08471718
-0.08789207 -0.06638211 -0.00033045514 0.07774146 0.10887048 -0.22974767 0.08038128 0.04675616
-0.022880463 -0.011587809 0.052014485 0.1547818 0.047344543 -0.09443995 -0.014256785 -0.07774745
-0.08817358 -0.048667427 -0.030246083 0.016914552 0.02876993 0.05881207 -0.051639292 0.09051016
0.17395495 -0.037911247 -0.17948249 0.12137307 0.08382593 -0.11069076 -0.062180284 0.08349017
-0.13342778 -0.049120624 0.12311396 0.005269338 0.085747786 -0.042854406 -0.034537952 0.064237006
0.069663145 -0.12832546 0.06784053 -0.123053335 -0.0536074 -0.11200665 -0.0110426815 -0.070156
0.11842268 -0.12609144 0.022970276 0.11892638 0.029663356 -0.2714101 0.117370985 0.06224986

actor.4.weight f4 [5, 128]
00000000: e48b c5bd 4c2f 073d 26e8 ddbd 85a2 0dbd
00000010: 6e7b ef3d 5aa7 10bd 166a e63c 6d63 dfbd
00000020: 9f35 b9bd 46df 353d 37da b43d 9f6d b1bd
00000030: 66aa 99bc f547 e63d 83a5 c4bd 0392 71bd
00000040: 4485 b03d e367 783d 5c67 013c ad9c 61bc
00000050: 320e babd f699 393d 76d7 b93d a860 8ebd
00000060: da1c 5abd d22b 513d 5614 68bd 4783 013e
00000070: 04e9 f13d 0bc4 513d 5dbc d7bd 4efc 12bd
00000080: 09f1 003d 3311 edbd 56c7 a93d 5f89 76bb
00000090: cbbe b03d 94d3 87bd 9c1b e73c e1d9 613d
000000a0: 3fc6 34bd 93b3 a13d 7206 94bc bfbb 3c3d
000000b0: a6fe 023d 0306 023e 1025 00be 51ba c63a
000000c0: af3b 6e3d 507f c1bd 9eae fc3d 2691 b1bd
000000d0: 225f fb3a 2185 993d be7a d5bd 4d8f a9bd
000000e0: a977 f33c b950 92bd 8e5a f9bc eb1c a3bd
000000f0: ffed e4bd 096e ff3d e85e a5bd 8117 25bd
00000100: 667f 94bd 897d 6ebd 96ae cdbd 455b 213b
00000110: 6186 afbc 928a 963d d1cd d4bd d6dc 9ebc
00000120: 79a1 ecbd d29a 32bd ad8a 7fbd 7ad9 0c3d
00000130: 3153 a9bc f5cd ee3d 8aa0 c8bc 65d5 9cba
00000140: 588e 353d aa0e 71bd 79d7 933b 36ea b2bd
00000150: 802b a53c 19b1 02be 2c8d 04bd 122f f4bd
00000160: 130f 6bbd 912a 68bd c6f0 a33c ddb1 8a3d
00000170: 5645 cd3a c3ec 81bd 56fc b9bd 1054 e33d
00000180: 4c3b 24bd c9b1 a2bd 7468 c4bd 96ae b4bb
00000190: 011a 033d 4da7 c43d bd81 ffbc 1952 893d
000001a0: 7f93 e83c 8169 3abd 37a5 7c3d fdd2 2f3d
000001b0: 91fb 3b3d 0992 373d b34c 633d 7d57 17bc
000001c0: 1ca4 c23d 13d4 903d 9d81 0a3d 6ba6 0ebe
000001d0: f480 6ebd 2152 17bd ac51 4d3d 882e c3bd
000001e0: c286 953d b231 923d 4704 6f3d e0f0 be3d
000001f0: cf26 cc3b 87e5 063e e076 7ebd 620d 773d
00000200: fa65 d0bc 9ec3 2c3d d15f 83bc 8cac 2ebe
00000210: 36c3 3d3d 1dcc efbd a7d5 2ebc 81fc 81bd
00000220: 076f fb3c b0b0 503d cb69 613d 76e5 1c3d
00000230: ee18 39bd 6869 4a3d 29bc 54bd a8ff d93c
00000240: ef1c 1d3d 8875 c33d c3da 703c d9de 19be
00000250: a7a2 ddbc 84b4 9f3d 98eb 1a3d 5971 18bc
00000260: 104c 963c acc1 543d 9a90 e2bd c217 483d
00000270: 3579 603d 6a9b 453d d1c8 023d 629a 10bd
00000280: 3fff 183c f18b 1ebc 2fb8 733d 384b 1bbe
00000290: b18f 1e3d 147e d1bd e1e6 3b3e 4d74 983d
000002a0: 95cd 1ebe 792c 76bd 7a07 05be b833 9b3d
000002b0: 1964 363d 6bff 5d3d bdeb 34bd 22cc a7bd
000002c0: bc3a 4d3e b6d5 c5bd 6637 92bc 901c 2abc
000002d0: 7ae5 213e 8a5b 6e3d a3c3 553d 82dd 45be
000002e0: 0b2a dd3d f9cb 633d e88b 3ebd b954 77bb
000002f0: 75dc f7bc d2f5 853d c066 0abd 53d0 3abe
00000300: 74fa 063d c24b 39bd f6b9 93bd 25ae 7a3d
00000310: c98a 34bd be29 203d 70c2 41bd d61d c9bd
00000320: 82e9 c63c aeb8 dcbd f092 cdbd 4a25 9abd
00000330: 9d27 e4bd 8e3d 6f3d 8c2a 193e de23 2b3d
00000340: c280 82bd fba4 edbb dc6a 893d 77cf 5cbd
00000350: 8c16 43bd 7041 bcbc 0e93 69bd 6a59 763b
00000360: ef7b fabd ac8c 6e3d dd20 b73c a37d b03d
00000370: 0f12 d5bc 38ea 2abd 49ac 253d eb5f d4bc
00000380: b757 2bbe 21d9 8f3d 2a11 a13c 3879 183e
00000390: 17e5 123e 4722 633d 10bd 20be 0c6c 9e3d
000003a0: e423 f63d a711 31be fbac c03d 7ac3 82bd
000003b0: 012d fd3b 52b0 8f3a e7e1 2dbd e38f d23c
000003c0: 796b b63c 965c a33d 99aa c93d 08d9 4bbd
000003d0: 9dbc 563d 6253 7ebd a10a 0ebb df80 533d
000003e0: 07f3 14bd 151d 303d 8d12 4f3c f6ba 6b3d
000003f0: d61f 253d 44aa 523d 89f1 22be 88c1 a0bd
-0.09645823 0.03300409 -0.108352944 -0.03457882 0.11693464 -0.03531585 0.028126758 -0.10907636
-0.090434305 0.044402383 0.08830684 -0.08663487 -0.01875801 0.112441935 -0.09601881 -0.05897714
0.086191684 0.06064595 0.007898178 -0.013770265 -0.09084739 0.045312844 0.09074299 -0.069520295
-0.05325017 0.05106718 -0.05666002 0.12647735 0.11812022 0.05121235 -0.10533974 -0.035885148
0.03147987 -0.11575546 0.082899734 -0.00376185 0.08630141 -0.06632152 0.028211407 0.055139426
-0.044134375 0.07895579 -0.01806948 0.046077486 0.031981133 0.12697606 -0.12514138 0.0015161728
0.058162387 -0.09448111 0.12337993 -0.08670263 0.0019178132 0.074960954 -0.10423802 -0.082792856
0.029720144 -0.07144303 -0.030438688 -0.079645 -0.11178207 0.124721594 -0.080747426 -0.04030562
-0.07250862 -0.05822519 -0.10043065 0.0024621051 -0.021426382 0.07350649 -0.10390819 -0.019392412
-0.11554236 -0.04360468 -0.06238811 0.03438709 -0.020669552 0.11660377 -0.024490613 -0.0011965452
0.044325203 -0.058851875 0.0045117703 -0.087360784 0.020162344 -0.1276287 -0.032361194 -0.119230404
-0.057387423 -0.05668122 0.02001227 0.06772206 0.0015660923 -0.06343987 -0.090813324 0.11100018
-0.040095612 -0.07944066 -0.09590235 -0.0055139763 0.03200722 0.096022226 -0.031189794 0.06705112
0.028390644 -0.045510773 0.061681 0.042925823 0.04589421 0.044817004 0.055493068 -0.009237167
0.09503958 0.070717 0.033815015 -0.13930671 -0.058228448 -0.03694356 0.050126716 -0.095303595
0.07301094 0.07138385 0.05835369 0.09323287 0.0062302123 0.13173495 -0.062125087 0.060315497
-0.025439251 0.042178743 -0.0160369 -0.17058009 0.046328746 -0.117088534 -0.010671056 -0.063469894
0.03069259 0.050949752 0.055032533 0.03830477 -0.04518979 0.04941693 -0.051937256 0.026611164
0.03835767 0.09543902 0.014700594 -0.15026416 -0.027055098 0.077981025 0.037822336 -0.009304368
0.018346816 0.051942512 -0.11062737 0.048850782 0.054803092 0.048243918 0.031929795 -0.03530348
0.009338199 -0.009676919 0.059501823 -0.15165412 0.038711254 -0.102291256 0.18349792 0.074440576
-0.15508111 -0.060101006 -0.12991133 0.07578224 0.044529054 0.054198664 -0.04417013 -0.08193232
0.20041937 -0.09659903 -0.017848682 -0.010382786 0.15810195 0.058192767 0.052188527 -0.1932278
0.10799035 0.055614445 -0.046520144 -0.0037739708 -0.03025649 0.06541027 -0.033789396 -0.18243532
0.032953694 -0.045238264 -0.072132036 0.061201233 -0.04407767 0.03910231 -0.04730457 -0.09820144
0.024281267 -0.10777412 -0.10037792 -0.075266436 -0.11140368 0.058408312 0.14957637 0.041782252
-0.06372215 -0.007252333 0.06709835 -0.05390879 -0.047628924 -0.022980422 -0.057025008 0.0037589916
-0.1223067 0.058239624 0.022354538 0.08617713 -0.026009588 -0.041727275 0.040447507 -0.025924644
-0.1673268 0.07023836 0.019661505 0.14889991 0.14345203 0.05545261 -0.15697122 0.07735452
0.12018564 -0.1729189 0.094079934 -0.063849404 0.007726312 0.0010962582 -0.042451765 0.025703376
0.022268044 0.07976644 0.09846992 -0.049767524 0.05242597 -0.06209124 -0.0021673816 0.051636573
-0.03636458 0.042996485 0.0126387 0.057551347 0.040313564 0.05143191 -0.15912451 -0.07849413

actor.4.bias f4 [5]
00000000: b8e2 9b3d 4eea a43c 156c 0e3c 1f9f 01be
00000010: a557 a93c
0.076116025 0.020131256 0.008692761 -0.12658356 0.020671675

critic.0.weight f4 [128, 3]
00000000: 6546 6cbb faa3 0a3e bd05 e2bd 8962 65be
00000010: 93e2 903d 81d4 10be ce35 b3be 9cfc af3d
00000020: df4e 4d3e 9b2a 273d 209e bebd 9518 03be
00000030: 0efe 2fbe 62bf a93d b252 08be 7abc 573e
00000040: b6b2 403c 163c 093e fff6 303d d97b 823c
00000050: d6d8 fb3d 320e 6a3d 740e c33d e560 f33d
00000060: f7b7 94be c0cd 183d 165f 323e f5f0 cd3d
00000070: c88d 2ebe 272e 003e cec0 723e 578b 403c
00000080: 3ca0 8a3b b4b8 adbe 765e 6d3d 66b7 a4bd
00000090: 1cf4 683e f583 98be eb9c ea3d eab6 57be
000000a0: f09a f7bd e5ea a63d f5de 7a3e 58f1 31be
000000b0: 67c5 143e 3257 f83b 7a47 f9bd 73da 003e
000000c0: 6beb 1bbe aae3 d03c 386b f43d 7f89 193e
000000d0: 6596 753c 9959 203d 9c5f 83be 2eac 84bc
000000e0: a16e 1c3e 33fd b63d bf06 acbc 6d03 bebd
000000f0: f0fe 963d bd99 8abd e3d3 023e 902f ca3d
00000100: f209 a7bd 3d5f ff3d 5c0d 8a3e 8fae 74be
00000110: 3c07 a53d 0c4d 423e aa45 4bbe 7922 a63d
00000120: 70a1 f73d a4ca 023e 8388 e3bd 9a9d 51be
00000130: 5822 493e 476d 0bbe 898c 4cbe 28a9 65be
00000140: aad2 d93d 0dc3 b53e eed3 f2b9 f797 33be
00000150: 306b 0ebe 9c9a 3abe 79a7 e13d f15c 8fbd
00000160: c478 49be 717e ee3d 36ba 1b3e 864c bf3d
00000170: aff2 84bd 7e68 733e 7f1e afbd d0f1 173e
00000180: cb63 793e 566d f8bd c5fa 16be 79a3 983e
00000190: ec68 d73d e855 19be 0a8d e13e 59f0 553e
000001a0: 0e10 9d3d 8b94 7dbe fbd9 983e fed7 cbbd
000001b0: 6039 3abe 6fd5 aabc e9b0 e83d 9ed4 4a3e
000001c0: edbd aabd fec1 1e3e 39ca 84bc f490 293d
000001d0: a4c6 cabd dc16 003e 6b91 08bd cf0d c23d
000001e0: c7e8 86be b980 543e 3409 bf3d 84b1 3b3e
000001f0: 7996 ddbd 0b97 123e c783 933e 4bdb f63c
00000200: 7aa4 06be cc49 02be 9d3f 52bd 68f5 0a3c
00000210: 3872 d53d d2ba a43d 1182 0d3e 3966 bc3c
00000220: eaa1 97bd 8a11 d1bd 56b6 55be 7389 a9bd
00000230: 70bd ffbd 21e5 643c db8e 1a3e 23a0 ccbd
00000240: 51c5 47be c4f7 36bb 344f 163e 9e6d 75bd
00000250: dd0c 40bd f874 e7bc 1663 b33e a30b 98bd
00000260: 42f5 253e c26d 8b3e 1395 ab3c 30c6 0ebe
00000270: 2493 963e c73c 02bd 62f7 ffbc a409 a73e
00000280: 64f9 223d c2de ffbd ec85 89bc 9a2e b6be
00000290: 1dad a43d bb83 3b3e 7c0a 723d c1dc 9fbd
000002a0: 787c 6dbe 78ec 073e 1402 20bd 0cb9 2cbe
000002b0: 207d bf3d 3b7a 0fbe 81bc 953e 26b7 3a3e
000002c0: 4ac7 fcbd b11f 31be c02c 0dbe 301f 033e
000002d0: fa46 143d 73cc 053c 7c24 01be aa1e 813d
000002e0: af67 aa3e 6945 cbbd c971 293e 1e19 ffbd
000002f0: ffc4 b53d 960e 463d 5deb 343d 1b42 cebd
00000300: abbb e1bd 744f a83e be22 b4bd 2e18 b7bc
00000310: 9080 25be 29f1 d73d dc87 673e 9920 43bd
00000320: 59d6 20be da8a dc3d 86f0 f33d c90d d2bd
00000330: dfb4 c4be 1baf 943d 09cc a83d 444e ff3e
00000340: 69aa 853d 3bdc 45be 529a a1be 3cc6 09be
00000350: 956f f73d 4320 9cbe 41ab 903d 7bcb 083e
00000360: 997c b5be e4e6 373e e753 0ebe e02c 253e
00000370: 82b3 d23d 93e7 d33d 6327 8abe cf6a d83d
00000380: 7784 0dbe d404 283e bfee 97bd 5698 ff3d
00000390: 0190 e0bb d260 0dbe 2c6e cc3d 51db e3bd
000003a0: eff8 833e 9d35 0dbe 13fe b1be fc3e 713d
000003b0: 02d6 28be 961f 823d 1c14 a43d 2fce e63d
000003c0: 089d ccbd eefd 613d 4f2d f5bd 5619 3a3d
000003d0: f546 56bd 2710 d63b 154a 3abd 2a42 fbbe
000003e0: 2ab8 163d c6bd 203e 0e7a df3d a5c0 d53d
000003f0: 3950 683e 448d acbd a8bf d63d e294 68be
-0.00360527 0.13539115 -0.11036251 -0.2240087 0.070744656 -0.14143564 -0.35001987 0.08593103
0.20049618 0.040812116 -0.09307504 -0.12802346 -0.17186758 0.082884565 -0.13312796 0.21067992
0.011761358 0.13401827 0.043204304 0.015928196 0.122972175 0.057142444 0.09524241 0.118837155
-0.29046604 0.037305593 0.17419085 0.100557245 -0.17046273 0.12517606 0.23706362 0.011751971
0.004230527 -0.3392998 0.057951413 -0.08042793 0.2274937 -0.29788175 0.11455711 -0.2106587
-0.12090099 0.08150271 0.24499114 -0.17377222 0.14528428 0.007578754 -0.12171836 0.12583332
-0.15226524 0.025499184 0.11934513 0.14993857 0.01498947 0.039147947 -0.25658882 -0.016195383
0.15276577 0.08935013 -0.02099931 -0.09277997 0.07372844 -0.067676045 0.12776141 0.09872353
-0.08156194 0.12469337 0.26963317 -0.23894714 0.080580205 0.18974704 -0.19850793 0.08112044
0.12091339 0.12772614 -0.11110022 -0.20470276 0.19642007 -0.13615905 -0.19975485 -0.22427809
0.10635884 0.35500374 -0.00046315737 -0.17538439 -0.13908076 -0.18223041 0.11018271 -0.07000149
-0.19674975 0.116452105 0.15207753 0.093407676 -0.06491601 0.2377033 -0.085507385 0.14838338
0.24354474 -0.12130229 -0.14744098 0.2981222 0.10518059 -0.14974177 0.44052917 0.20892467
0.07669078 -0.24763696 0.29853806 -0.099533066 -0.1818595 -0.020853726 0.11361868 0.1980767
-0.08337007 0.1550369 -0.016209709 0.041398004 -0.09901169 0.1250872 -0.033341806 0.0947529
-0.2634947 0.20752229 0.09327927 0.18329436 -0.10819716 0.14315431 0.28811476 0.030133864
-0.1314868 -0.12723464 -0.051330198 0.008481361 0.10422176 0.08043446 0.13819148 0.022997962
-0.074039295 -0.102084234 -0.20870337 -0.082781695 -0.12487304 0.013970644 0.15093558 -0.09991481
-0.19508864 -0.0027918676 0.14678651 -0.059918992 -0.046887267 -0.028254017 0.35036534 -0.074240945
0.1620684 0.27232176 0.020945108 -0.1394279 0.29409134 -0.031796243 -0.031245891 0.32624543
0.03978862 -0.124936596 -0.016787492 -0.3558243 0.08040831 0.1831197 0.05909203 -0.07805777
-0.23192012 0.132738 -0.03906448 -0.16867465 0.093500376 -0.14011471 0.2924538 0.18233928
-0.12342699 -0.17297246 -0.13786602 0.12804866 0.0362005 0.00816642 -0.12611574 0.06304677
0.3328223 -0.09925348 0.16547312 -0.124559626 0.08875465 0.048353754 0.044169772 -0.10071202
-0.11022123 0.32873118 -0.08795689 -0.022350397 -0.16162324 0.105440445 0.2261042 -0.04763851
-0.15706767 0.10768671 0.119111106 -0.102565356 -0.38419244 0.07259961 0.082420416 0.498644
0.06526644 -0.19322293 -0.3156305 -0.13454527 0.120818295 -0.30493364 0.07063914 0.13358872
-0.35446623 0.17959172 -0.13899194 0.161304 0.10288145 0.10346904 -0.26983175 0.10567247
-0.13820063 0.16408092 -0.07418584 0.12480228 -0.006853104 -0.13806465 0.09981951 -0.11125816
0.2577586 -0.13789983 -0.34764156 0.058897957 -0.16487888 0.06353681 0.08011648 0.11269795
-0.09990889 0.055173807 -0.119715326 0.04543432 -0.052313764 0.006532687 -0.045480806 -0.49073917
0.036796726 0.15697393 0.10911952 0.10437135 0.22686853 -0.08425382 0.10485774 -0.22713044

critic.0.bias f4 [128]
00000000: d828 9fbe 9588 413e dcda 543e d185 4cbe
00000010: 3d92 483e a6fc 8a3d 9afe 70be ff11 97be
00000020: ebc1 443e 0cb8 82be 98d4 84be eda2 633e
00000030: 8a9a 6dbe 0cc5 813e cd0a 70be cb79 aebe
00000040: 9935 4d3e 2bf3 85be 2bce 843e c4d9 923e
00000050: dfbb 98be 502d 91be bb5c 70be d3f4 6dbe
00000060: 335c 933e 92ae 673e 5f5a 7c3e f5e9 83be
00000070: 8842 923e a26e a7be 65fc 7dbe 8b06 61be
00000080: eee8 6cbe bedd 52be 99e5 33be fe57 5f3e
00000090: bf6b 94be d7fa 50be a347 863e b114 8ebe
000000a0: d32b 7e3e 376c 5abe 7709 50be 29b8 8e3e
000000b0: 53f9 90be 9d0e 7e3e ece8 593e 3eb8 83be
000000c0: b0f7 903e fda9 8b3e de81 50be 35fb 69be
000000d0: 53e5 5cbe 941e 58be e636 363e 7958 7fbe
000000e0: 9455 5d3e 1b3f 893e 9daa 77be 7c10 843e
000000f0: 7407 ac3e e3c1 91be b342 84be 1a68 61be
00000100: 1090 69be c526 923e e6a7 3dbe e61a 40be
00000110: db8c 8a3e 9551 58be 3cf3 5f3e f4af 5b3e
00000120: c175 6f3e 2bc7 69be 52b0 8b3e 00df 64be
00000130: 82bc 983e 955c a43e 84ea 593e b8b8 9abe
00000140: d8c2 8c3e 0b96 7d3e 59a7 213e e88d 58be
00000150: 8a73 88be ec3f 7a3e 2215 643e a7e2 59be
00000160: b857 8e3e 9d22 47be eaf9 01be 16b6 71be
00000170: 9229 893e 2a9b 8fbe 8758 4b3e 9a32 6c3e
00000180: 39b1 523e bb10 48be 1a96 9ebe d437 4a3e
00000190: 4fa8 5b3e 7613 2ebe 9421 86be edda 953e
000001a0: c0d2 8abe 44bc 48be a430 7fbe 2d5a 22be
000001b0: b2d2 783e 1e1c 74be 5fde 763e 065f 683e
000001c0: 39e2 a33e bed9 823e b306 80be ce9a 743e
000001d0: fb97 65be 67f7 48be 33a4 8b3e b52a 893e
000001e0: a7d9 7f3e a278 33be e6d5 913e 1a8b 943e
000001f0: 2b12 60be 1fa4 8a3e 09e3 84be f4f7 623e
-0.3108585 0.18899758 0.20786613 -0.19972922 0.19587035 0.0678647 -0.23534623 -0.29505917
0.19214599 -0.25531042 -0.25943446 0.2223012 -0.23203483 0.25345647 -0.2344162 -0.34077296
0.20039977 -0.26162085 0.25938544 0.28681767 -0.29830834 -0.28354883 -0.23472874 -0.23237924
0.2878128 0.22625187 0.24643849 -0.25764433 0.28566384 -0.32701594 -0.24803312 -0.21975152
-0.2313573 -0.205924 -0.17568053 0.2181091 -0.28988454 -0.20408188 0.2622653 -0.2775016
0.24821405 -0.21330343 -0.2031611 0.27874878 -0.2831522 0.24810262 0.21280259 -0.25726503
0.2831397 0.27278128 -0.2036204 -0.22849734 -0.21571855 -0.21105415 0.1779438 -0.24936093
0.21614677 0.26805958 -0.24186178 0.25793827 0.33599436 -0.28468236 -0.25832137 -0.22012368
-0.22808862 0.28545204 -0.1852108 -0.18760261 0.2706059 -0.21124871 0.2187013 0.2145384
0.23384763 -0.22829883 0.2728296 -0.22350693 0.2983132 0.32101884 0.21280867 -0.30219054
0.27492404 0.24764268 0.15786494 -0.21147883 -0.2665065 0.24438447 0.22273687 -0.21277867
0.278013 -0.19446798 -0.12692991 -0.23604617 0.26789528 -0.28048068 0.19857989 0.23066178
0.20575418 -0.19537632 -0.30973893 0.19747859 0.21450923 -0.16999611 -0.26197493 0.2926859
-0.27113914 -0.19603068 -0.24920899 -0.15854712 0.24299124 -0.23838851 0.24108265 0.22692499
0.32008532 0.2555675 -0.2500511 0.23887178 -0.22421257 -0.19625627 0.27273712 0.26790395
0.24985372 -0.17526487 0.28483504 0.29012376 -0.2188193 0.2707834 -0.25954464 0.22164899

critic.2.weight f4 [128, 128]
00000000: 9646 d93d 65d5 c63e f099 81bd 7777 16be
00000010: 024e 823e eec0 8ebd 7406 42be c67a 3bbe
00000020: 5b67 bcbd f411 9fbe 72bb 27be a611 a33e
00000030: 6f3e eabe 58fc 833e 68c4 debe 1af7 9ebe
00000040: a53f 163e 55cf 15bb 6a05 75bd e54d 583e
00000050: 6c34 ecbe d53d e4be b607 acbe 2ce9 cabe
00000060: 2830 853e 8af8 6e3e 673d 323e 858f 7bbe
00000070: 99d4 4b3e e8f9 31bc 6e73 03bb b079 e0be
00000080: d72b 65bd c716 763d 5f10 d6bc c785 983e
00000090: d6d3 fdbd 4082 37be 6cae f43d d9d4 61be
000000a0: 02d6 0d3e 2249 06be e62c edbe dabf da3d
000000b0: afe0 ff3d a5b4 933e 8d93 ac3e d4a5 16be
000000c0: 985c 863e d407 843e 33ae 09bf d17e c6bd
000000d0: cb9c eebe f9cb 66be 916c 35bd 3dd0 b0be
000000e0: 705c a33e 1405 033f c645 9f3d 8d37 7b3d
000000f0: d8a7 483e 9615 6b3d 1159 b0be 4ce6 1fbe
00000100: bdc1 29be d422 d13d 7a0a adbd 74f1 e8bd
00000110: cca7 083f 022a 63be 205a 293e ea83 813d
00000120: 27c3 903d fcc6 16be 06b1 273f 1bd9 cfbe
00000130: 5658 2e3c 3041 983e 186f 803e 3d18 403d
00000140: 81d3 943e e86f 853e b271 29bd 93c1 a0be
00000150: d3ce febe c9f7 b63e d72e bc3e 1bc1 a9be
00000160: 9c18 e13e 3e57 c4be fbb6 2cbe 1ffa 1ebc
00000170: d176 1a3e f49d edbe d122 883e a272 a63d
00000180: 4eca 40bd 83e5 e2be 1e25 26be 718c 3c3e
00000190: 5b44 913e c490 4ebd 5d53 cbbd f95e 1b3e
000001a0: 8c08 b0be 66b0 c1be 4d26 c9bd 5114 073e
000001b0: 7a0c 373e 5893 dbbe 70ea 113e 5020 3e3d
000001c0: ddf3 203d ed61 8cbd 3374 3abe e8a1 023f
000001d0: 0475 f0be 56af d2be 4b2d 1d3f 1a68 a7be
000001e0: 6752 2b3e e56b 9cbe b2dc 583e 066c 393d
000001f0: 44a8 88be 8cc8 cc3d e707 70be ef77 a03d
00000200: abb8 bd3d 8279 9b3e d8c2 693e 32ff 003d
00000210: a059 7b3e e8fb 15be ffd8 313c b577 dabc
00000220: 2b0d fb3d 89dc 9ebe 70d4 94be 79f1 de3e
00000230: 6298 4ebf 219a 29be 383b 9dbe 9e7d f6bd
00000240: ae59 503e fb31 18be 409b b13e 2dea 8f3e
00000250: 95ff a7be 54c6 5abe e83c aebe cab9 0fbf
00000260: 0869 a7bd ea22 c13e da09 133e bd37 cebe
00000270: 2ab5 d13d a6a2 8bbe fc93 e5bd ad8d e5be
00000280: 89fc 45be 8ded 9ebe e5cd 5bbe 8ed9 013f
00000290: 711f 0abe 81b7 09bd 07a2 fa3c a4a4 a4be
000002a0: 5411 963e 6452 36be f118 e6be d01c 373e
000002b0: 25b1 f3bd ec79 e3bc 738f bf3e cef9 1d3e
000002c0: d561 0a3d 570f af3e c9b5 babe 6f18 3dbe
000002d0: 9d46 8abe 2018 abbe 5e9b cebd 4f4a 83be
000002e0: 5a2d aa3e 0f8b b83e e047 59bd 6a31 77bd
000002f0: 6cc7 943e de4f 843e 94f1 f9be 9dba 1d3e
00000300: 6596 a93d f8dc 673c e7db 133d 3ff6 183d
00000310: c9d6 143f 353e 0fbe b5f1 b13e 31d6 5b3e
00000320: 4cdb 973e 6597 f2bd 7856 ef3e ac6b 82be
00000330: 5864 153d 4940 9f3e 0f67 1c3f 7ab2 b0bd
00000340: 932f 713e 9b4b f03d 8eb4 e1bd 7812 bebd
00000350: 981b 70be 84e2 823e f4af fd3e c4d3 a1be
00000360: d436 c73e bf1c 85be cfff f0be 6415 29be
00000370: fe8f 893e a74b 30bf 5503 d13e cef8 9dbd
00000380: 5b08 1c3e c732 dbbe af9c b2bd e1bb b13d
00000390: 994c 183f 06a2 ecbd feb8 87bd 36d6 aa3e
000003a0: 1b8a c2be 7f94 3abe 6033 9abe 9dc9 363e
000003b0: b39e a93e 4e72 0abf 4455 553e 2d34 6d3d
000003c0: 505e 2dbe 880d b7bd 26ab f6be 0217 953e
000003d0: 009a d1bd 2510 9bbe e8b1 3e3e 0e5a 073d
000003e0: 64cd 093e 71f5 e1bd 51fd d33e 5349 a93e
000003f0: 9ca9 39bd 483d 763d 5ac9 97be ff83 d93d
0.10609166 0.38834682 -0.063281894 -0.1469401 0.2545014 -0.06970392 -0.18947774 -0.18308553
-0.09199401 -0.31068385 -0.16380098 0.31849402 -0.45750758 0.2577846 -0.4350922 -0.310479
0.14672716 -0.0022859175 -0.059819616 0.21123464 -0.46133745 -0.44578424 -0.33599633 -0.3963102
0.26013303 0.23336998 0.17406236 -0.24566467 0.19905318 -0.010862805 -0.0020057815 -0.4384284
-0.055950012 0.060080316 -0.026130853 0.29789564 -0.1239392 -0.1792078 0.11947331 -0.22053851
0.13851169 -0.13113835 -0.46323317 0.10681124 0.12494027 0.28848758 0.33706322 -0.14711696
0.26242518 0.25787222 -0.5378143 -0.09692157 -0.46604 -0.22538747 -0.04429299 -0.34533873
0.31906462 0.51179624 0.0777698 0.061332274 0.19595277 0.057393633 -0.34442952 -0.15615195
-0.16577812 0.10211721 -0.08449264 -0.113741785 0.5338104 -0.22183993 0.16538286 0.06323989
0.07068472 -0.14724344 0.6550449 -0.40595326 0.010641178 0.29737234 0.25084758 0.046898115
0.29067615 0.2606194 -0.041368194 -0.31397685 -0.4976717 0.3573592 0.36754486 -0.3315514
0.43964088 -0.3834781 -0.16866677 -0.009703188 0.15084387 -0.4640957 0.26589063 0.08127333
-0.047067933 -0.4431573 -0.16225097 0.18412949 0.28372464 -0.050431028 -0.0992801 0.15172948
-0.3438152 -0.37829894 -0.098217584 0.13191344 0.17875853 -0.42885852 0.14249587 0.046417534
0.039295066 -0.06854615 -0.18208389 0.510283 -0.46964276 -0.41149396 0.61397237 -0.3269661
0.16730653 -0.30551067 0.21177939 0.045269035 -0.26690876 0.09999189 -0.23440515 0.078353755
0.09263738 0.3036614 0.22828233 0.031493373 0.24545908 -0.14646876 0.010854959 -0.026668409
0.12258371 -0.3102763 -0.29068327 0.43543604 -0.8070127 -0.16562702 -0.30709243 -0.12035678
0.2034671 -0.14862816 0.3468876 0.2810835 -0.3281218 -0.21364719 -0.34030843 -0.56142867
-0.0817433 0.3772195 0.14359227 -0.402769 0.102396324 -0.27272528 -0.112098664 -0.44834653
-0.19334616 -0.31040612 -0.21465261 0.5072259 -0.13488556 -0.03362227 0.030594839 -0.3215686
0.29310095 -0.17804867 -0.44940904 0.17882085 -0.11899022 -0.027768098 0.3741413 0.15427324
0.033784706 0.3419139 -0.36466816 -0.18466352 -0.27007 -0.33416843 -0.10088228 -0.2564263
0.33237725 0.36043593 -0.05304706 -0.06034986 0.29058397 0.25842184 -0.48817122 0.15403219
0.082806386 0.014151804 0.036098387 0.037344214 0.58140236 -0.13988574 0.3475472 0.21468426
0.29659498 -0.118452825 0.46745658 -0.25472772 0.03647265 0.31103733 0.61094755 -0.08627792
0.23553304 0.117331706 -0.11020766 -0.092808664 -0.23448026 0.25563443 0.49548304 -0.31606877
0.38909018 -0.25998494 -0.47070166 -0.16512066 0.2686767 -0.68865436 0.40822855 -0.07713471
0.15237562 -0.42812178 -0.08721291 0.08678413 0.5949188 -0.11554341 -0.06627081 0.33366555
-0.3799599 -0.1822071 -0.3011732 0.17850347 0.3312889 -0.54080665 0.20833308 0.057911087
-0.16930509 -0.08938128 -0.4817745 0.29119116 -0.10234451 -0.30285755 0.18622553 0.033044867
0.13457257 -0.11033142 0.41404203 0.33063754 -0.045327768 0.060117036 -0.29645807 0.106208794

critic.2.bias f4 [128]
00000000: 38e0 0a3e 680e 0b3e d847 ac3d 4b11 14be
00000010: 20c3 09be fa5a d33d 81c1 ef3d d923 54be
00000020: e995 b8bd a723 113e 7146 11be 13aa b1bd
00000030: a3b4 13be da75 57be 070c 0dbe 4830 2fbe
00000040: 641c 243e a978 19be 4b4c 5b3e f1a9 6fbe
00000050: c568 f8bd 2a91 7c3d 8431 01be e91e 8ebe
00000060: 5d61 f0bd a352 883d 1c17 5f3e deb4 c1bd
00000070: c54e 453e 57ac 70be 0c82 2dbe 4a54 c8bd
00000080: 10b3 ffbd 4d2d 0bbe d824 6ebd 1a44 95be
00000090: da2e 933d ee27 fd3d eed6 d53d a594 0fbe
000000a0: 3033 b8bd 0866 4c3e 229f 0fbe 61c2 c6bd
000000b0: 1068 37be 4fb0 c9bd 4222 39be 121d 8a3d
000000c0: 7a76 a33d bc4f ddbd 659a 60be 5196 6fbe
000000d0: 9e14 e3bd f961 783e 6895 9a3d 0aa7 e1bd
000000e0: 0137 17be e932 9cbd 579c 57be 80e9 03be
000000f0: 9be1 f33d f560 9bbd d82e 07be a339 46be
00000100: cf7e 33be deed cb3d 620e 5d3e 79a1 ea3d
00000110: cc87 aabd 1ba2 efbd a08b 86bd 929f c43d
00000120: 9687 1abe 9312 c33d d3df d73d 76d7 18be
00000130: 55df c13d 5ae8 12be 0a6b 8a3e eb7a ae3d
00000140: b561 d8bd a3c8 013e 0837 82bd 12f1 033e
00000150: ddee ae3d 760a 0abe cdb1 21be 1a24 0f3e
00000160: 1452 173e 2910 043e 9927 273e 168c 5c3e
00000170: 4f49 4abd 2bd3 5e3e dfb7 2d3e c77a 1cbe
00000180: 3145 c9bd 9012 ccbd e3ce 35be b92b 053e
00000190: 0cf3 dd3d 9bac 7fbd 231c 343e 8b26 8b3e
000001a0: b179 cb3d 190c 70be 586b c83d df9a f8bd
000001b0: 32ea a23d d0a4 0cbe 1a7a 2ebe fa6f 633e
000001c0: 5a68 94be f29f f6bd 8bb9 cebd 70ad 153e
000001d0: c7db 023e c395 cfbd 710d 1bbe e719 5bbe
000001e0: 84ec 0b3e 0255 04be bd88 f4bd 4ebc 0d3e
000001f0: 0758 96be 0129 d5bd 355e 00be 521d 31be
0.13562095 0.13579714 0.084121406 -0.14459722 -0.1345334 0.10320087 0.1170683 -0.207168
-0.09012968 0.14173757 -0.14187028 -0.08675017 -0.14424376 -0.2104105 -0.1377412 -0.17108262
0.16026455 -0.14987434 0.21415822 -0.23404671 -0.12129358 0.061661877 -0.12616545 -0.27757958
-0.117373206 0.06656387 0.2178616 -0.09458326 0.1926833 -0.23503242 -0.1694414 -0.09781702
-0.12485325 -0.135915 -0.058140606 -0.2915352 0.071866706 0.123611316 0.10441385 -0.14021547
-0.08994138 0.19960797 -0.14025548 -0.097050436 -0.1791079 -0.09848081 -0.18079475 0.06743826
0.07981582 -0.10806224 -0.21933897 -0.23397185 -0.11087917 0.24256124 0.07548028 -0.11018188
-0.14767076 -0.07626898 -0.21055733 -0.12882042 0.11908265 -0.075868525 -0.13201463 -0.19357924
-0.17528842 0.09957479 0.21587518 0.1145658 -0.083266824 -0.11700841 -0.065696 0.09600748
-0.15090784 0.09525027 0.10540738 -0.14925942 0.09466425 -0.14346448 0.2703479 0.085195385
-0.10565511 0.12674193 -0.06358153 0.1288493 0.08541653 -0.13480553 -0.15790482 0.13978615
0.14777404 0.1289679 0.16323699 0.21537814 -0.04938632 0.21760242 0.16964673 -0.15281211
-0.0982765 -0.09964478 -0.17754702 0.1300496 0.10837373 -0.06242047 0.17588858 0.27177843
0.0993532 -0.23442115 0.09786099 -0.12138914 0.079548255 -0.13734746 -0.17038766 0.22210684
-0.28985864 -0.12042226 -0.10093983 0.14616942 0.12779151 -0.10135987 -0.15141846 -0.213966
0.13664442 -0.12923053 -0.11940143 0.13841364 -0.29364035 -0.104082115 -0.12535937 -0.17296341

critic.4.weight f4 [1, 128]
00000000: 1d14 a5bf 8162 8ebf a1df a3bf 9d86 873f
00000010: 6a63 7f3f 9de9 96bf 3292 8dbf 3d62 9a3f
00000020: 65c6 883f 28b8 97bf 223d 993f 178c 973f
00000030: 5c75 913f c322 913f 83dc 943f 0e3d 893f
00000040: 58a9 7fbf 1f7e 883f 89b2 94bf 3f85 8a3f
00000050: bcae 8a3f b8cb 8f3f 129d 8d3f dc14 8e3f
00000060: fff9 8a3f a765 98bf 1dd6 89bf aa83 933f
00000070: db48 8fbf 6e9b 933f 45f8 7d3f 6ebb 9a3f
00000080: 68ae 923f a522 8d3f 7831 9e3f 3085 863f
00000090: 4e2d 9ebf 9164 89bf 0de9 98bf d1bf 833f
000000a0: 88ea a53f 474a 99bf 86c9 8a3f cfb3 a23f
000000b0: 0992 823f e16e 933f 4b38 993f 3d36 9cbf
000000c0: 39fc 91bf 9de7 863f f782 903f 4f42 993f
000000d0: f5a3 a53f 4c6e 8abf 9842 88bf c07a 863f
000000e0: 1f7a 8c3f 2b7e 933f 84cb 913f dab7 893f
000000f0: 76f3 93bf de74 993f 09b8 833f 4370 8e3f
00000100: 30b5 ab3f a047 88bf a0de 94bf 8a3c 83bf
00000110: 7d15 903f 42ac 983f 03da 903f 9a35 95bf
00000120: 1a66 853f 5609 8bbf 208e 8bbf 940e 8c3f
00000130: 24a7 9bbf e613 893f 8099 8abf 0b70 96bf
00000140: f23f a43f c482 93bf 6559 a63f 2cc2 82bf
00000150: 9336 8bbf 6ef9 8d3f bf35 973f 7b22 91bf
00000160: 81b7 8ebf 0daf 83bf ffee a0bf da2f 92bf
00000170: 6c34 933f 9f70 91bf 1d6e 97bf dc48 893f
00000180: c5ab 8e3f 48bc 993f 33fc 883f cb7d 8fbf
00000190: b2fa 87bf 783a 943f 1fcb 95bf 86b0 8bbf
000001a0: 2792 86bf a085 983f 341d 88bf db0b 963f
000001b0: 8ca8 8fbf fd37 843f 9f83 7c3f 803a 92bf
000001c0: bdb1 953f afba 843f 21cc 893f 91af 97bf
000001d0: c397 9ebf 7b31 903f ce09 953f b9a3 8d3f
000001e0: 8ce9 92bf 7f50 973f 166c 893f caf2 82bf
000001f0: 38a9 8e3f 6854 823f dbce 853f 5927 903f
-1.2896763 -1.1123811 -1.2802621 1.0587956 0.9976107 -1.1790043 -1.106024 1.206123
1.0685545 -1.1853075 1.1971781 1.1839627 1.136394 1.1338733 1.1629795 1.0721757
-0.99867773 1.0663489 -1.1616985 1.0821913 1.0834575 1.1234045 1.1063559 1.1100116
1.0857543 -1.1906022 -1.0768467 1.1524556 -1.1194109 1.1531808 0.99206954 1.2088449
1.1459475 1.1026198 1.2358847 1.0509396 -1.2357576 -1.0733815 -1.1946121 1.0292913
1.2962198 -1.1975793 1.084275 1.2711123 1.0200816 1.1518213 1.1970304 -1.2204052
-1.1405097 1.0539433 1.1289967 1.1973361 1.2940661 -1.081491 -1.0645323 1.050621
1.0974768 1.1522878 1.1390233 1.0759232 -1.1558673 1.198879 1.0290538 1.112801
1.3414669 -1.0646858 -1.163044 -1.025285 1.1256558 1.1927569 1.1316532 -1.1656983
1.0421784 -1.0862224 -1.0902748 1.0941949 -1.2160382 1.0709198 -1.0828094 -1.1752943
1.2832015 -1.1524282 1.2996031 -1.0215507 -1.087603 1.1091745 1.1813277 -1.1338648
-1.1149751 -1.0287796 -1.2572936 -1.1420853 1.1500373 -1.1362494 -1.1830479 1.072536
1.114617 1.2010584 1.0701965 -1.1210264 -1.0623381 1.1580343 -1.1702613 -1.0913246
-1.0513352 1.1915779 -1.0633912 1.1722368 -1.1223311 1.0329586 0.9863834 -1.1424103
1.1694866 1.0369471 1.076542 -1.1850454 -1.2390064 1.12651 1.1643617 1.1065589
-1.1477523 1.182144 1.073611 -1.0230343 1.1145391 1.0182009 1.0453752 1.1262008
