models/ppo_CartPole-v1.pth (torch, 130243 bytes, 33 tensors)

actor.0.weight f4 [64, 4]
0	0x3d60a210	0.054842055
1	0xbe4ae953	-0.19815569
2	0xbdde952b	-0.10868295
3	0xbec8a21b	-0.39186177
4	0xbd8cb0bc	-0.06869647
5	0xbda08beb	-0.07839187
6	0xbe8c0707	-0.2734911
7	0x3ca62725	0.020282337
8	0x3d0dcf40	0.034621477
9	0x3d59b248	0.053148538
10	0xbf41c2af	-0.7568769
11	0xbe21ae5e	-0.15789172
12	0x3d347be1	0.044063453
13	0xbca27a3c	-0.019833677
14	0xbefc665d	-0.49296847
15	0xbc0c8a7a	-0.008577937
16	0x3e3a0b33	0.18168335
17	0x3d836c9b	0.06417199
18	0x3ef414f3	0.47672233
19	0x3d5067e8	0.050880343
20	0x3a9953cf	0.001169795
21	0xbe5407c5	-0.20706089
22	0xbecbdda0	-0.39817524
23	0xbc31d849	-0.010854789
24	0x3e117b18	0.14207113
25	0x3ea94d93	0.33066997
26	0x3e89b2c4	0.268942
27	0x3ebbe50e	0.36698192
28	0x3e03dc40	0.12876987
29	0xbe5111e0	-0.20416975
30	0xbf02d01f	-0.5109882
31	0xbe095d44	-0.13414484
32	0xbe18144e	-0.14851496
33	0x3d113f30	0.03546065
34	0xbe90c0a0	-0.2827196
35	0xbe985dbc	-0.29759014
36	0xbd3e1f6a	-0.046416678
37	0xbda5c135	-0.08093492
38	0x3e63e778	0.22256267
39	0x3ed209be	0.41023058
40	0x3ec5ef50	0.38659143
41	0x3e936ea2	0.28795344
42	0x3e3c40d1	0.183841
43	0x3dea20ee	0.11432062
44	0xbe86f0c9	-0.2635558
45	0xbacfd41b	-0.0015856059
46	0x3eb3fcf5	0.35153928
47	0x3ec64310	0.3872304
48	0xbc407078	-0.011745565
49	0x3dbaff3e	0.09130715
50	0x3f54559c	0.8294313
51	0x3ebc389a	0.36761934
52	0x3dc41547	0.09574371
53	0x3e33b48c	0.17549342
54	0x3e85b369	0.26113442
55	0x3e5a262a	0.21303621
56	0xbda09ed9	-0.07842798
57	0xbe89101b	-0.267701
58	0xbf1b18bb	-0.6058461
59	0xbb79201f	-0.003801353
60	0xbdc2f1f4	-0.09518805
61	0x3e00858c	0.12550944
62	0xbec94d6f	-0.3931689
63	0xbd80e797	-0.06294172
64	0x3d0c965c	0.03432308
65	0xbd9a84a9	-0.07544834
66	0xbe9747dd	-0.29547015
67	0x3d4ed8ba	0.050499655
68	0x3e5b139b	0.21394198
69	0xbe87881c	-0.2647103
70	0xbf07be83	-0.5302507
71	0xbdae887d	-0.08522127
72	0xbe6db56a	-0.23213735
73	0xbecfe271	-0.4060245
74	0xbdc672c4	-0.096898586
75	0x3de41fb1	0.11138857
76	0x3e4e76a6	0.20162448
77	0xbcc2a8ef	-0.023762194
78	0x3dfaacf4	0.122400194
79	0x3e7c737f	0.24653433
80	0xbd0a6e79	-0.03379676
81	0xbe7e4d37	-0.24834143
82	0xbf002181	-0.5005112
83	0xbe325dad	-0.17418547
84	0x3e1611a3	0.14655165
85	0xbd1e15d7	-0.038595047
86	0x3e93fe7f	0.28905103
87	0x3d23a682	0.039953716
88	0x3e1652fb	0.14680092
89	0xbe836581	-0.2566338
90	0x3efdb69d	0.49553385
91	0x3e43479e	0.19070289
92	0xbc3c2650	-0.011483744
93	0x3c4f632e	0.012657924
94	0x3e8cdba0	0.2751131
95	0x3e4039eb	0.18772094
96	0x3ca738a2	0.020412747
97	0xbe8b98a4	-0.27264893
98	0xbea5de02	-0.3239594
99	0x3dae8b43	0.08522656
100	0xbdd3b5e3	-0.103374265
101	0xbe213032	-0.15741041
102	0xbea8bb92	-0.32955605
103	0xbedc39dc	-0.43012893
104	0xbd88c992	-0.066790715
105	0xbcd5ceab	-0.026099524
106	0x3e626390	0.22108293
107	0xbd3f4149	-0.04669312
108	0x3ddb1ef4	0.10699263
109	0xbe466165	-0.1937309
110	0xbef4e948	-0.4783423
111	0x3dbabd84	0.091181785
112	0xbd6d3961	-0.05791605
113	0x3e8a7cf2	0.2704845
114	0x3e806925	0.2508022
115	0x3eca7eea	0.39549953
116	0x3e2f2fc6	0.17108068
117	0x3ce70492	0.028200421
118	0x3eea9eb8	0.45824218
119	0x3e8a3096	0.26990193
120	0x3db5b350	0.08872092
121	0xbe9badbf	-0.30405995
122	0xbeb40dff	-0.35166928
123	0xbeb01b81	-0.34395984
124	0xbd0e541a	-0.034748174
125	0x3e01818b	0.12647073
126	0x3d40253c	0.04691051
127	0xbe283fd7	-0.16430603
128	0xbe5eb3f1	-0.2174833
129	0x3dc33a60	0.095326185
130	0xbedf4557	-0.4360759
131	0x3ca2cefe	0.019874092
132	0xbdb06a7a	-0.08614059
133	0xbdd3148a	-0.10306652
134	0x3d0c12e1	0.03419769
135	0x3e144f5c	0.14483398
136	0x3e6640b6	0.22485623
137	0xbe021e9f	-0.12706994
138	0xbf04805c	-0.5175836
139	0xbbf83ce3	-0.0075756176
140	0xbd04a566	-0.0323843
141	0xbe12fdca	-0.14354625
142	0xbe62efb0	-0.22161746
143	0x3e83dd9e	0.25755018
144	0x3d63dd4e	0.055630974
145	0xbe712c58	-0.23552072
146	0xbe97df41	-0.29662517
147	0xbcd9c3d3	-0.026582634
148	0x3be42b16	0.006963144
149	0x3e1791f8	0.14801776
150	0xbf275993	-0.65371054
151	0xbe81c559	-0.25345877
152	0xbe45ee8f	-0.19329284
153	0x3d10ec45	0.035381574
154	0xbe434d03	-0.19072346
155	0xbe54d878	-0.20785701
156	0x3f05488d	0.5206383
157	0x3e895830	0.26825094
158	0x3eb03503	0.34415445
159	0xbe6b7c65	-0.22996671
160	0x3e6e42db	0.23267691
161	0x3d047da3	0.03234638
162	0xbefe5974	-0.49677622
163	0xbdd8110f	-0.10550129
164	0xbdf745f3	-0.12073889
165	0xbe1f7bcd	-0.1557457
166	0xbf2e80aa	-0.68165076
167	0xbe8f40b6	-0.27979058
168	0xbdcad453	-0.09903779
169	0xbd5c53ef	-0.053790983
170	0xbee333ec	-0.4437555
171	0xbe9259a7	-0.28584024
172	0xbd194a70	-0.037424505
173	0x3d8c9e87	0.06866174
174	0x3ee1dae9	0.44112328
175	0x3cda20cb	0.026626965
176	0x3e5f3c37	0.21800314
177	0xbd333e79	-0.04376075
178	0x3ed71e6b	0.42015395
179	0x3d5d8612	0.054082938
180	0xbdedf749	-0.116194315
181	0xbd08c8b9	-0.03339455
182	0x3dae0a6a	0.0849808
183	0x3ed95a98	0.4245193
184	0xbe673e58	-0.22582376
185	0xbec98a01	-0.393631
186	0x3e0496f1	0.12948205
187	0x3d67eda3	0.056623112
188	0x3e1021c6	0.14075384
189	0x3df8da7d	0.12151048
190	0x3e799648	0.24373734
191	0x3e533cce	0.20628664
192	0xbe03b8f9	-0.1286353
193	0x3e1da205	0.15393837
194	0x3dd27722	0.10276629
195	0x3d1cec14	0.03831108
196	0x3e625093	0.22101049
197	0xbd8923f2	-0.06696309
198	0xbf1533eb	-0.58282346
199	0xbe537ad9	-0.20652331
200	0x3d78dae9	0.060755644
201	0xbe1a54ec	-0.15071458
202	0xbea504a8	-0.32230115
203	0xbe1e7e50	-0.15477872
204	0xbeb247c8	-0.3482039
205	0x3a587eb6	0.00082586275
206	0xbf2d6efc	-0.67747474
207	0xbe389665	-0.18026121
208	0x3e72152f	0.23640893
209	0xbe5dc756	-0.21658072
210	0x3ee5b7d7	0.4486682
211	0x3df0e6b0	0.1176275
212	0x3cc9f3c3	0.024652367
213	0xbf09fb04	-0.53898644
214	0xbf2326e5	-0.63731223
215	0xbeb07944	-0.34467518
216	0x3cdd951c	0.02704864
217	0xbda0db0c	-0.0785428
218	0x3ba2b0b9	0.0049649146
219	0xbe34b487	-0.1764699
220	0x3e5056c2	0.20345595
221	0x3d0941e3	0.0335101
222	0x3e9b3a0e	0.3031773
223	0xbddeb392	-0.10874094
224	0xbe85a081	-0.26099017
225	0x3ddb5958	0.107104
226	0x3c0683e4	0.008210156
227	0x3e7534d3	0.23945932
228	0xbdb0ee8d	-0.0863925
229	0xbd8053b5	-0.06265966
230	0x3eafa31d	0.34304133
231	0x3eb02967	0.34406587
232	0x3eba9243	0.36439714
233	0xbe504176	-0.20337471
234	0x3f008a1a	0.50210726
235	0x3eb43ad1	0.35201123
236	0xbed10009	-0.4082034
237	0xbdb7ca12	-0.08974089
238	0xbee49066	-0.44641417
239	0xbdc5db3e	-0.09660958
240	0x3ec4b76f	0.384212
241	0x3efc5fa9	0.49291733
242	0x3e8bf248	0.27333283
243	0x3e897a75	0.2685124
244	0x3c046bff	0.008082389
245	0xbde8a280	-0.113591194
246	0xbe984b40	-0.2974491
247	0xbe33f39e	-0.17573401
248	0x3df37eb6	0.118894026
249	0x3e2a2718	0.16616476
250	0x3f10f57c	0.5662458
251	0x3d90b576	0.07065861
252	0x3d3e88fd	0.04651736
253	0xbd5f2e87	-0.05448773
254	0x3dddda0a	0.10832603
255	0x3db0fb69	0.08641703

actor.0.bias f4 [64]
0	0x3a92f61d	0.0011212263
1	0xbd9a2514	-0.07526603
2	0xbc0359af	-0.008016988
3	0xbc011bb0	-0.007880136
4	0x3b40e4da	0.002943328
5	0xbc3410dc	-0.010990348
6	0x3b8eb9f8	0.0043556653
7	0xbc1a644d	-0.009423328
8	0x3b49c0d7	0.0030785108
9	0x39c5be41	0.00037716518
10	0xbbe69279	-0.007036504
11	0x3bbec0d4	0.0058213267
12	0x3bbf960d	0.005846745
13	0x3bba239c	0.0056805145
14	0xbc05080a	-0.008119592
15	0x3bfe84bb	0.0077672875
16	0xbd01c886	-0.031685375
17	0xbc1f4921	-0.009722025
18	0x3c764797	0.015031717
19	0x3bd8505b	0.006601376
20	0xbbddbdc8	-0.0067670085
21	0xbc80208a	-0.015640516
22	0xbbafc52d	-0.0053640814
23	0xbb788f4b	-0.0037927206
24	0xbc86ca62	-0.016453926
25	0xbb800f23	-0.0039080544
26	0xbb6dedb7	-0.003630502
27	0xbc5ca8cb	-0.013467978
28	0x3b33c151	0.0027428458
29	0x3b9631b9	0.004583564
30	0xbb81500a	-0.003946309
31	0xbd146aa9	-0.03623453
32	0x3a69a0ef	0.00089122256
33	0xbbc4003c	-0.0059814733
34	0xbc08acfe	-0.008342026
35	0x3af7ef4c	0.001891592
36	0xbd0121e6	-0.03152647
37	0xbba5cfa0	-0.005060151
38	0x3b0b7cb2	0.002128404
39	0xbbeffabd	-0.0073235915
40	0x38270105	3.9816852e-05
41	0xbbf58590	-0.0074927285
42	0xbb1b00e3	-0.0023651652
43	0x3c298d08	0.010348566
44	0xbb92d942	-0.0044814656
45	0xbada956a	-0.0016676609
46	0x3c5f4afc	0.0136287175
47	0x3ba66e04	0.005079033
48	0x3cccc37e	0.024995562
49	0xbb96c6ac	-0.0046013203
50	0xbb61d772	-0.003446069
51	0xbc1218ca	-0.008917043
52	0xbbd60310	-0.006531127
53	0xbc0e9c5f	-0.008704274
54	0x3c7b81d7	0.01535078
55	0xbc9a6047	-0.018844737
56	0x3a9cb462	0.0011955614
57	0x3b57987a	0.003289728
58	0x3b28dca3	0.0025766275
59	0xbbb08c65	-0.00538783
60	0x3c0ce1b7	0.0085987365
61	0xbb8d7d57	-0.00431792
62	0x3b95a28a	0.0045664953
63	0xbbfb2cbe	-0.007665246

actor.2.weight f4 [64, 64]
0	0xbc7c1c92	-0.015387671
1	0x3e67da1b	0.22641794
2	0x3eb98dd1	0.3624101
3	0x3d69a0d0	0.05703813
4	0xbe3ed3ca	-0.18635479
5	0x3e65c06d	0.22436686
6	0xbec67f7c	-0.38769138
7	0x3e490d6e	0.1963403
8	0x3ee03572	0.43790776
9	0x3e379ade	0.17930171
10	0xbe291c88	-0.1651479
11	0xbd56f294	-0.052477434
12	0x3e9f7d0a	0.31150085
13	0xbe9985ce	-0.29984897
14	0x3ea2dd6a	0.3180955
15	0xbd0fb88b	-0.035088103
16	0xbd09daa1	-0.033655766
17	0x3de56c36	0.1120228
18	0xbea6b782	-0.3256188
19	0xbe1f268c	-0.15542048
20	0x3e1c7745	0.15279873
21	0xbef527e0	-0.47881985
22	0xbdad86ca	-0.084729746
23	0x3d2a75a8	0.041616112
24	0xbdb2cb40	-0.08730173
25	0x3efbdd6c	0.4919237
26	0xbd542d51	-0.05180103
27	0x3db74d9e	0.08950351
28	0xbe3507be	-0.17678735
29	0x3cd86558	0.026415512
30	0x3e47f531	0.19527127
31	0xbdbf2712	-0.09333624
32	0xbde76af0	-0.112996936
33	0xbd5bb585	-0.053639907
34	0x3e0e8124	0.1391645
35	0x3dfc2d78	0.1231336
36	0xbd109255	-0.035295803
37	0x3e66d8ca	0.22543636
38	0x3ea78b96	0.32723683
39	0xbd569184	-0.05238487
40	0xbe7dedbb	-0.24797718
41	0x3ea4aed9	0.32164648
42	0x3d47965c	0.04872738
43	0xbe1cf982	-0.15329555
44	0xbdc52d10	-0.096277356
45	0xbe007c64	-0.12547451
46	0xbe212e2b	-0.15740268
47	0xbdd8df9e	-0.105895266
48	0xbe3c090e	-0.18362829
49	0x3e49d24e	0.19709131
50	0x3dc0e7eb	0.09419235
51	0xbe89bb6e	-0.2690081
52	0x3d5c801d	0.053833116
53	0x3da60600	0.08106613
54	0xbdabcdf3	-0.08388891
55	0x3bebad2a	0.0071922736
56	0xbe106b4b	-0.14103429
57	0x3dbe00a3	0.09277465
58	0xbe6802a9	-0.22657265
59	0x3e13db1f	0.14439057
60	0x3d0817d0	0.033225834
61	0x3e24404b	0.16040151
62	0xbe04b9ff	-0.12961577
63	0x3e3b72da	0.18305531
64	0xbc29d352	-0.010365324
65	0x3e7b9006	0.2456666
66	0x3e85c3d6	0.26125973
67	0x3eb0122f	0.34388873
68	0xbe88b172	-0.2669788
69	0xbdf9dbe8	-0.12200147
70	0xbe250330	-0.16114497
71	0xbe3a2a1b	-0.18180124
72	0x3e1aeb1b	0.15128748
73	0xbe9ca2b8	-0.30592895
74	0x3d82526c	0.06363377
75	0x3d6c7931	0.057732765
76	0x3daf3007	0.08554082
77	0x3cbe803f	0.023254512
78	0xbe19535f	-0.1497321
79	0xbdca5db4	-0.09881154
80	0xbe73969f	-0.23787926
81	0x3d99d3a9	0.07511074
82	0x3d060011	0.032714907
83	0xbe318335	-0.17335208
84	0x3e10886f	0.14114545
85	0xbc7c87df	-0.015413254
86	0xbd37101a	-0.04469309
87	0x3bc3d75b	0.0059766
88	0x3e69ff89	0.22851385
89	0x3e14f54d	0.145467
90	0x3d59bbc0	0.053157568
91	0x3f39b2bb	0.72538346
92	0xbde6e8cb	-0.112748705
93	0x3d2ae161	0.041718844
94	0x3d36e5b0	0.04465264
95	0xbe096622	-0.13417867
96	0x3ec10a1b	0.37703022
97	0x3d8015ef	0.062541835
98	0x3eac057e	0.3359794
99	0xbc5ca2eb	-0.013466577
100	0x3e25b49c	0.16182178
101	0xbde33c4f	-0.11095487
102	0x3e062568	0.13100207
103	0x3ce2978a	0.02766015
104	0x3c58b920	0.013227731
105	0x3e8b2280	0.2717476
106	0x3e64ca11	0.22342707
107	0xbdc90994	-0.0981628
108	0xbe08a34d	-0.13343544
109	0xbe3eff57	-0.18652092
110	0x3e1c9204	0.15290076
111	0xbe078a4d	-0.13236351
112	0xbde1e1f5	-0.11029426
113	0xbe40d174	-0.188299
114	0x3e285ff5	0.16442855
115	0x3b8ea6bc	0.0043533724
116	0xbea0489d	-0.313054
117	0x3dd02b56	0.10164516
118	0x3de7c5f5	0.11317054
119	0xbde85de7	-0.113460355
120	0x3da04304	0.07825282
121	0xbe5dbfda	-0.21655217
122	0x3ca1cab0	0.01974997
123	0xbe9c2a45	-0.30501
124	0xbe7f325d	-0.24921556
125	0x3d2a6c7a	0.041607358
126	0xbe16a1c3	-0.14710145
127	0xbe23f579	-0.16011609
128	0xbd7d4fc8	-0.061843663
129	0xbe04961a	-0.12947884
130	0x3e966665	0.29374996
131	0x3e6f34c4	0.23359972
132	0xbe86cd68	-0.26328588
133	0x3e9ada4b	0.3024467
134	0xbf239f21	-0.63914686
135	0xbe0ad35a	-0.13557187
136	0xbe86d95d	-0.2633771
137	0x3e27dae1	0.1639209
138	0x3e26b6f9	0.16280736
139	0xbd056210	-0.032564223
140	0xbe8ca745	-0.27471367
141	0xbe894350	-0.26809168
142	0x3e70ef57	0.23528801
143	0x3e2dae92	0.16961125
144	0xbb04ee73	-0.0020283728
145	0x3e0834fa	0.13301459
146	0xbe086351	-0.13319136
147	0xbe4b48a6	-0.19851932
148	0x3e652dff	0.22380827
149	0xbd8538f9	-0.06505007
150	0x3bdf5f64	0.0068167914
151	0xbe072299	-0.13196792
152	0xbd8de72b	-0.069288574
153	0x3e3f511a	0.18683282
154	0x3e3309fc	0.17484277
155	0x3de983b3	0.11402073
156	0xbe38f15e	-0.18060824
157	0xbe8cdeee	-0.27513832
158	0xbcf5d263	-0.030007547
159	0x3ddf4a85	0.10902885
160	0x3e526d78	0.20549572
161	0xbe33b17a	-0.1754817
162	0x3e26c4a3	0.16285948
163	0xbe17ce9d	-0.1482491
164	0xbd2b29a8	-0.041787773
165	0xbca1ab5b	-0.019735029
166	0xbdc8fe11	-0.09814084
167	0x3ce89702	0.028392319
168	0xbe92d77d	-0.2868003
169	0x3e83711b	0.2567223
170	0xbe9d815f	-0.30762765
171	0x3db6acec	0.08919701
172	0xbe207b39	-0.15672006
173	0x3e518827	0.20462094
174	0x3e4d84b7	0.20070158
175	0xbe38f52c	-0.18062276
176	0x3e5bc4ab	0.21461742
177	0x3eaf3632	0.34221035
178	0xbdf8b4ac	-0.121438354
179	0x3eb8ab41	0.36068156
180	0xbe097168	-0.13422167
181	0x3e667e64	0.22509152
182	0xbd4bf806	-0.04979708
183	0x3e09d042	0.1345835
184	0xbd927088	-0.0715037
185	0xbd9fce9b	-0.07803079
186	0xbe189f78	-0.14904583
187	0x3d8424fe	0.06452368
188	0xbf1d67ee	-0.6148671
189	0x3c7b96aa	0.015355745
190	0xbe13e5ac	-0.14443082
191	0x3d84b163	0.06479146
192	0x3d00de89	0.031462226
193	0x3e0fef66	0.14056167
194	0x3ea96e47	0.33091947
195	0x3deaf451	0.11472381
196	0xbe187b4e	-0.14890787
197	0x3ec58e53	0.38585147
198	0xbe19128c	-0.14948481
199	0x3e413844	0.1886912
200	0xbe98cced	-0.29843846
201	0x3dbf24bc	0.093331784
202	0xbe29ce12	-0.16582516
203	0xbcdb3053	-0.026756441
204	0xbe0f109f	-0.13971184
205	0xbe5accba	-0.2136716
206	0xbc9813a2	-0.01856405
207	0xbe300741	-0.17190267
208	0xbe54ae7d	-0.20769687
209	0x3e4405d6	0.19142851
210	0x3c1856a7	0.009298003
211	0xbd6b88b5	-0.05750342
212	0x3e57522f	0.21027444
213	0x3dafa6fa	0.0857677
214	0xbc9f400c	-0.01943972
215	0x3dc998c4	0.09843591
216	0x3e260ade	0.16215083
217	0xbdb177c1	-0.08665419
218	0x3e7da81d	0.24771161
219	0xbdb836c3	-0.0899482
220	0xbdc1178b	-0.094283186
221	0xbe83dc65	-0.25754085
222	0x3f0300a2	0.5117284
223	0x3daeb384	0.08530334
224	0xbdcaf796	-0.099105045
225	0xbceaa147	-0.028641356
226	0x3e948a04	0.29011548
227	0x3e8bff92	0.27343422
228	0xbe010ec7	-0.12603293
229	0x3dc4f4b4	0.09616986
230	0x3e351fe1	0.17687942
231	0x3ea8ac30	0.3294387
232	0x3ea97c5a	0.33102685
233	0x3e121768	0.14266741
234	0x3eb2a12d	0.34888592
235	0xbeb6d39f	-0.3570833
236	0xbeae0bd1	-0.3399339
237	0x3dfee15d	0.124453284
238	0x3e851432	0.2599197
239	0xbea5b2f2	-0.32363087
240	0xbdd4fe64	-0.10400084
241	0x3e87eff5	0.2655026
242	0x3dd00442	0.10157062
243	0x3da8acc4	0.082360774
244	0x3c2f9052	0.010715561
245	0x3e090632	0.1338127
246	0xbe100b23	-0.14066748
247	0xbe177611	-0.14791133
248	0xbe0f78c5	-0.14010914
249	0xbe06cf20	-0.1316495
250	0xbdc24da8	-0.09487468
251	0x3d5f1265	0.0544609
252	0xbb3f030e	-0.0029146108
253	0x3dcd717b	0.1003141
254	0x3ea629f7	0.32453892
255	0xbe63be30	-0.2224052

actor.2.bias f4 [64]
0	0x3bbed99f	0.0058242823
1	0x3b997346	0.004682931
2	0xbc453947	-0.012037582
3	0xbbf68fe7	-0.0075244787
4	0xba2737ea	-0.0006378876
5	0x3bb3c155	0.0054856935
6	0xbc989038	-0.018623456
7	0xbaa394de	-0.0012480279
8	0xbaf0d31a	-0.001837346
9	0xbb599d3d	-0.0033205294
10	0x3afc6983	0.0019257519
11	0xbb809e86	-0.0039251475
12	0x3b48bab7	0.003062887
13	0x39cac33c	0.00038673903
14	0xbb42ace4	-0.0029705102
15	0x3a368378	0.00069623394
16	0xbc5958bd	-0.013265786
17	0x3c32fc1d	0.010924366
18	0xbbb72d11	-0.005590089
19	0xbbc20135	-0.005920554
20	0x3c613341	0.01374513
21	0x3bbe6a6b	0.005811026
22	0x3c8e9f98	0.017410085
23	0xbaf3931f	-0.0018583274
24	0x38345622	4.299556e-05
25	0x3a14a0d3	0.00056697166
26	0x3bc6cc17	0.00606681
27	0x39c4ac39	0.0003751235
28	0xbbd3e0af	-0.0064659934
29	0x3b03813a	0.0020066039
30	0x39b6fd3a	0.00034902414
31	0xba2edb5e	-0.00066702615
32	0xbac48291	-0.0014992525
33	0xbc7638e9	-0.015028217
34	0xbcb6bd61	-0.0223071
35	0x3c00f901	0.007871867
36	0xba9dd18c	-0.0012040599
37	0xba453eb9	-0.00075243
38	0xbb31b547	-0.0027116106
39	0xbba239b7	-0.004950728
40	0xbbf73d08	-0.0075451173
41	0xba1dc655	-0.00060186285
42	0x3c21bd64	0.009871814
43	0x3bab57ab	0.0052289567
44	0xbb85f476	-0.00408798
45	0x3c2e65cc	0.010644387
46	0x3c13ac3c	0.009013232
47	0xbbdc5748	-0.006724272
48	0x3cab3e2b	0.020903667
49	0x3b68b553	0.0035508468
50	0x3c7f3083	0.015575531
51	0x3b859c2a	0.004077454
52	0xbb52fbbf	-0.003219351
53	0x3bc13d98	0.005897235
54	0x3b0a1661	0.0021070468
55	0xbd0f9135	-0.03505059
56	0xbc2b8d3c	-0.010470685
57	0xbcc81d43	-0.024428016
58	0x3b8f086d	0.004365018
59	0xb9af5891	-0.00033444588
60	0xbb83004b	-0.0039978377
61	0xbb574b2b	-0.00328512
62	0xbbcc0e88	-0.006227318
63	0x3beb70eb	0.0071850917

actor.4.weight f4 [2, 64]
0	0x3d96f66b	0.07371219
1	0x3d90c31d	0.07068465
2	0x3e3e583e	0.18588349
3	0x3da091f1	0.07840336
4	0xbe10045d	-0.14064164
5	0xbe2d4ce4	-0.16923863
6	0x3e2eb6d6	0.17061934
7	0xbdde719f	-0.10861515
8	0x3db9caa4	0.09071854
9	0x3dfce80e	0.123489484
10	0x3e073bb6	0.13206372
11	0x3df340e5	0.11877612
12	0xbe3a671b	-0.18203394
13	0xbde36078	-0.11102384
14	0xbcc4f660	-0.024043262
15	0xbd72510d	-0.059159327
16	0xbd31dcc8	-0.043423444
17	0xbd017459	-0.0316051
18	0x3e13bd42	0.14427665
19	0x3d34a904	0.0441065
20	0xbe59936b	-0.21247642
21	0xbe6dee7e	-0.23235509
22	0xbe3d06c2	-0.18459609
23	0xbdd00ea2	-0.10159041
24	0xbd3d945b	-0.04628406
25	0x3db1e6e3	0.08686616
26	0x3d3a0791	0.045417372
27	0x3e1a0736	0.15041813
28	0x3d2d88c7	0.04236677
29	0xbe081c85	-0.1329213
30	0xbe36aec9	-0.17840113
31	0x3d753010	0.05986029
32	0x3d13156f	0.035909113
33	0x3e2e2135	0.17004855
34	0x3e5033e0	0.20332289
35	0xbe10c61e	-0.14138076
36	0xbce76097	-0.0282443
37	0x3db2b24d	0.087254144
38	0x3e272e15	0.16326173
39	0x3d73728a	0.059435405
40	0x3dc9e255	0.098576225
41	0xbe12a47f	-0.14320563
42	0xbe0aa904	-0.13541037
43	0xbe4844ae	-0.19557449
44	0x3e1c7797	0.15279995
45	0x3d3409b9	0.043954585
46	0xbe005fbb	-0.12536518
47	0x3d9a80c5	0.07544092
48	0xbe52a8a3	-0.20572142
49	0x3e030c52	0.12797669
50	0xbe29699c	-0.16544193
51	0x3d9ea1bd	0.07745693
52	0x3e23cdb3	0.15996437
53	0x3d7cf18a	0.061753787
54	0xbe017d88	-0.12645543
55	0xbbb84dde	-0.005624517
56	0xbd2670a9	-0.040634785
57	0x3d26ee5c	0.04075466
58	0xbd925fb9	-0.07147164
59	0xbdd58a79	-0.10426802
60	0xbe093e8c	-0.13402766
61	0xbc418002	-0.011810305
62	0x3d38647d	0.045017708
63	0xbe208231	-0.15674664
64	0xbd943d65	-0.072382726
65	0xbd916902	-0.07100107
66	0xbe4028c0	-0.18765545
67	0xbda1b7d9	-0.07896394
68	0x3e123402	0.14277652
69	0x3e2e10ec	0.16998643
70	0xbe300e47	-0.17192946
71	0x3de4b5b7	0.11167472
72	0xbdb96fe5	-0.09054545
73	0xbdfdda35	-0.12395135
74	0xbe03ed86	-0.12883577
75	0xbdf0f605	-0.117656745
76	0x3e362023	0.17785697
77	0x3de46646	0.111523196
78	0x3cae4888	0.02127482
79	0x3d7f1db4	0.062284186
80	0x3d3bf9ca	0.045892514
81	0x3cfa77dc	0.030574732
82	0xbe125f6b	-0.14294212
83	0xbd3bf3de	-0.045886867
84	0x3e5a72d3	0.21332864
85	0x3e6b11a9	0.22955956
86	0x3e3ccd0a	0.18437591
87	0x3dd3098c	0.10304555
88	0x3d397a36	0.045282565
89	0xbdb2f259	-0.087376304
90	0xbd31c201	-0.043397907
91	0xbe1b5081	-0.15167429
92	0xbd2c2ff7	-0.04203793
93	0x3e09555a	0.13411465
94	0x3e36cbbf	0.1785116
95	0xbd82eb0f	-0.0639249
96	0xbd18d174	-0.037309125
97	0xbe2e6cfa	-0.17033759
98	0xbe4e2d8e	-0.20134565
99	0x3e112abc	0.14176458
100	0x3cd0c4c0	0.025484443
101	0xbdb2af16	-0.08724801
102	0xbe259e9b	-0.16173784
103	0xbd7a6084	-0.0611272
104	0xbdc946bb	-0.09827944
105	0x3e115877	0.14193903
106	0x3e0972e4	0.13422734
107	0x3e47930c	0.19489688
108	0xbe1dad73	-0.15398197
109	0xbd30b3b0	-0.043140113
110	0x3e016036	0.12634358
111	0xbd96b36d	-0.073584415
112	0x3e5241f6	0.20532975
113	0xbe002f85	-0.12518127
114	0x3e29a5f2	0.1656721
115	0xbd9c3040	-0.076263905
116	0xbe25252d	-0.16127463
117	0xbd814932	-0.06312789
118	0x3df8dbed	0.121513225
119	0x3bf2f76a	0.007414748
120	0x3d227ba3	0.03966869
121	0xbd2728c7	-0.040810373
122	0x3d8cf267	0.06882172
123	0x3dd680df	0.10473799
124	0x3e086c3c	0.13322538
125	0x3c2a908f	0.010410442
126	0xbd323a47	-0.04351261
127	0x3e21885d	0.15774675

actor.4.bias f4 [2]
0	0xbbb8efe8	-0.0056438334
1	0x3bb8efd5	0.0056438246

critic.0.weight f4 [64, 4]
0	0x3df3168e	0.11869536
1	0xbbf3bad9	-0.0074380455
2	0x3d91dc49	0.07122094
3	0x3e2c03a6	0.16798267
4	0x3ceb0105	0.02868701
5	0x3d8229c2	0.06355621
6	0xbd8d8fea	-0.06912215
7	0x3d8f73da	0.07004519
8	0x3e07e82d	0.13272162
9	0x3e43c9bb	0.19119923
10	0x3f24fb96	0.6444639
11	0x3e387457	0.1801313
12	0x3dc81410	0.097694516
13	0xbc5b953a	-0.013402278
14	0xbed19445	-0.40933433
15	0xbd8ec9ab	-0.06972059
16	0x3e877190	0.2645383
17	0xbcc3fb20	-0.023923457
18	0x3bbbd611	0.005732306
19	0xbc854157	-0.016266508
20	0xbda45301	-0.08023644
21	0xbdbdc0e2	-0.09265305
22	0xbe6adf6a	-0.22936788
23	0xbe6620c4	-0.22473437
24	0xbe570e4f	-0.21001552
25	0x3a3ff0bb	0.00073219434
26	0xbd6d3ad0	-0.057917416
27	0x3c822394	0.015886106
28	0xbe0ace7a	-0.13555327
29	0xbd35cc74	-0.044384435
30	0x3dc431bf	0.09579801
31	0x3df5252b	0.1196998
32	0x3d5dc219	0.054140184
33	0x3bdd2c76	0.006749685
34	0x3d796b47	0.060893323
35	0xbde9d3ab	-0.114173256
36	0x3e8ba1d5	0.27271906
37	0x3eaaac0d	0.3333439
38	0x3ed12588	0.40848947
39	0xbe8431b3	-0.25819167
40	0x3d8937e2	0.06700112
41	0x3d54fdf5	0.052000005
42	0x3e4719d0	0.1944344
43	0x3e4c5832	0.19955519
44	0x3dd9e293	0.10638919
45	0x3e3785b9	0.17922105
46	0x3e106114	0.14099532
47	0x3dd5a730	0.10432279
48	0x3cdfbfab	0.027313074
49	0xbe8cf815	-0.27533022
50	0xbd3f4f74	-0.04670663
51	0xbe8f98bb	-0.28046212
52	0xbe7b7214	-0.24555236
53	0xbe0ce5ce	-0.13759539
54	0xbda05457	-0.078285865
55	0xbd1e41f1	-0.038637105
56	0xbf1b344b	-0.6062667
57	0x3e0b77fe	0.13619992
58	0x3a5102b0	0.0007973118
59	0xbeab1e75	-0.33421674
60	0xbd8ee778	-0.06977743
61	0xbe27657c	-0.16347307
62	0x3cdaa1c8	0.026688471
63	0xbd0b0976	-0.03394457
64	0x3cc98f64	0.024604507
65	0x3e36b713	0.17843275
66	0x3ee496d0	0.4464631
67	0x3e500cfd	0.20317455
68	0xbe18361d	-0.14864393
69	0xbe10cc91	-0.14140536
70	0xbf16f52d	-0.5896786
71	0xbd93d79c	-0.072188586
72	0x3e11ac8b	0.14225976
73	0xbe4aac31	-0.19792248
74	0x3e7b2250	0.24524808
75	0xbd86a7bb	-0.06574961
76	0xbd90e7b7	-0.07075446
77	0xbdf8b470	-0.12143791
78	0xbea8e7f3	-0.32989463
79	0xbd6931ac	-0.056932136
80	0xbec9ea8a	-0.39436752
81	0xbc8cd21e	-0.017190035
82	0xbea58ea4	-0.3233539
83	0x3ab68d86	0.0013927675
84	0xbe573d04	-0.2101937
85	0xbd8170d9	-0.06320352
86	0xbd5203f0	-0.051273286
87	0xbe831cb8	-0.25607848
88	0x3e8fde99	0.28099516
89	0xbbd2c919	-0.006432664
90	0x3eb0f110	0.34558916
91	0x3e1766c5	0.14785297
92	0xbefd8eca	-0.49523002
93	0xbed4ffcd	-0.4160141
94	0xbec35d5d	-0.38157168
95	0xbef65af1	-0.48116258
96	0x3e50c1a3	0.20386367
97	0x3ec3d2cb	0.3824676
98	0x3ef280e8	0.47363973
99	0xbd310290	-0.043215334
100	0x3e8ed3bc	0.27895916
101	0x3ed1597e	0.4088859
102	0x3e26a281	0.16272928
103	0x3e6d078b	0.23147409
104	0x3e346fc4	0.1762076
105	0xbd168592	-0.036748476
106	0x3d891622	0.066936746
107	0xbe8ed451	-0.2789636
108	0x3e76a95b	0.24088041
109	0xbeb11f1d	-0.3459405
110	0xbe8abbbd	-0.27096358
111	0xbd1e5b02	-0.03866101
112	0x3ea69168	0.3253281
113	0x3f0d9920	0.55311775
114	0x3e3fcdaa	0.18730798
115	0x3ec79830	0.38983297
116	0x3ebe9d45	0.37229362
117	0x3da67c36	0.0812916
118	0x3ef0bb4c	0.47017896
119	0x3ecdbf8c	0.401852
120	0x3da36cbb	0.07979723
121	0x3e945c10	0.28976488
122	0x3dfdc352	0.1239077
123	0xbc2335ee	-0.009961588
124	0xbe443a8a	-0.19162956
125	0xbb4f33c9	-0.003161656
126	0xbedb3073	-0.428104
127	0xbebec7a4	-0.3726169
128	0xbe8a763b	-0.27043328
129	0xbe6864d8	-0.22694719
130	0xbec9f375	-0.39443555
131	0xbe89593a	-0.26825887
132	0x3dfcceb1	0.12344111
133	0xbd3bbdba	-0.045835234
134	0x3e17046f	0.14747785
135	0x3e3238f1	0.17404534
136	0xbe8e4632	-0.2778793
137	0xbeec22e5	-0.46120372
138	0xbd250654	-0.040289238
139	0xbe2a7a89	-0.16648306
140	0xbe5e1aa7	-0.21689855
141	0xbe4f753f	-0.2025957
142	0xbddcf956	-0.107897446
143	0xbe2bc5b5	-0.16774638
144	0x3ebb2b09	0.3655627
145	0xbe0d375f	-0.13790654
146	0x3e6f9924	0.23398262
147	0x3d3a21a5	0.045442242
148	0xbece544b	-0.40298685
149	0xbe154b0c	-0.1457941
150	0xbdd8d7ab	-0.105880104
151	0x3ccf7b3a	0.025327314
152	0xbe96d5fc	-0.29460132
153	0xbe46d643	-0.19417672
154	0x3c554b63	0.013018462
155	0xbe7ba485	-0.24574478
156	0xbe1bf0f2	-0.15228632
157	0x3e95f29d	0.29286662
158	0xbdc684c5	-0.096932925
159	0x3dea3a0f	0.11436855
160	0xbea5c710	-0.32378435
161	0xbe2e5136	-0.17023167
162	0xbe89dadd	-0.26924792
163	0x3d2e0e37	0.042494025
164	0x3ecbf713	0.3983694
165	0x3e9ecc25	0.31015125
166	0x3e47bae6	0.1950489
167	0xbd270f3e	-0.04078602
168	0xbd359ea0	-0.04434073
169	0xbd46123a	-0.048357226
170	0x3d66c7aa	0.05634276
171	0xbd0f0886	-0.034920238
172	0x3e1032b0	0.14081836
173	0xbe4343ea	-0.19068876
174	0x3d4c6263	0.049898516
175	0x3d2cbf32	0.042174526
176	0xbe8853a1	-0.26626304
177	0xbe80c263	-0.25148305
178	0xbebb71b8	-0.36610198
179	0xbdc5a11d	-0.096498705
180	0xbe1c827d	-0.15284152
181	0xbe7b5bb2	-0.24546698
182	0xbe62af47	-0.22137176
183	0xbe5df402	-0.21675113
184	0x3d5b1680	0.053488255
185	0x3e161fa5	0.14660509
186	0x3e46155a	0.19344082
187	0xbe2f7551	-0.17134596
188	0xbdc6c4f7	-0.09705537
189	0xbe8b07df	-0.27154443
190	0xbe5729e8	-0.2101208
191	0xbdf812ad	-0.12112937
192	0xbd84d470	-0.06485832
193	0xbd6e5301	-0.058184627
194	0x3e2d19e0	0.16904402
195	0x3e421b45	0.18955715
196	0xbe08f1ca	-0.13373485
197	0x3ee616c6	0.4493925
198	0x3e4e173a	0.20126048
199	0x3e6a398d	0.22873516
200	0x3de0a09c	0.10968134
201	0x3e02f60f	0.12789176
202	0xbc9da370	-0.019242972
203	0x3d0f334a	0.034961022
204	0xbe881eb7	-0.26585934
205	0xbdb465e3	-0.08808496
206	0xbdbf6d7e	-0.09347056
207	0xbe502be5	-0.20329244
208	0xbcc322a6	-0.023820233
209	0xbea442dc	-0.3208226
210	0xbc8ca11c	-0.017166667
211	0x3d6b390a	0.057427444
212	0xbe4afefd	-0.19823833
213	0xbe4ce417	-0.20008884
214	0xbe47c3b6	-0.19508252
215	0xbe2e3107	-0.1701089
216	0xbb6caa61	-0.0036112296
217	0xbd9d9e1e	-0.07696174
218	0xbdeb5a8c	-0.1149188
219	0x3e008749	0.12551607
220	0x3e8ef0c5	0.27918068
221	0xbe4431e3	-0.19159655
222	0xbd9bbb4f	-0.07604086
223	0xbe198b37	-0.14994512
224	0x3ed863b2	0.4226356
225	0x3e917d2c	0.2841581
226	0x3daf920a	0.085727766
227	0x3e519d76	0.20470223
228	0x3e0bffa3	0.13671736
229	0x3e81e035	0.2536637
230	0x3d07b121	0.033127908
231	0x3f163012	0.586671
232	0xbe1848d4	-0.14871532
233	0xbe59bb8a	-0.21262947
234	0xbe6d014a	-0.23145023
235	0xbe29ee9b	-0.16594927
236	0x3d8e8640	0.069592
237	0x3db768f5	0.08955566
238	0x3e656bf4	0.22404462
239	0x3d85c808	0.065322936
240	0x3ea6b139	0.32557085
241	0xbdef5ba4	-0.11687401
242	0x3ee63359	0.4496105
243	0xbdff99cf	-0.124805085
244	0xbe5f4195	-0.21802361
245	0xbdb69f2a	-0.08917077
246	0xbe33765d	-0.17525621
247	0x3ca3e215	0.020005265
248	0xbef0c700	-0.47026825
249	0x3a186c71	0.0005814499
250	0xbf08b6b7	-0.534038
251	0xbe4aafd4	-0.19793636
252	0x3ef7362a	0.4828351
253	0x3e98b2ef	0.29824015
254	0x3ee7417a	0.45167142
255	0xbd268fd6	-0.040664516

critic.0.bias f4 [64]
0	0xbe8320e0	-0.2561102
1	0x3e495aeb	0.19663589
2	0xbe6167bd	-0.2201223
3	0xbe7b2f95	-0.2452987
4	0xbe912be6	-0.28353804
5	0xbe8eae22	-0.27867228
6	0xbe64a841	-0.22329809
7	0x3e9f5e47	0.31126615
8	0x3e8c17d5	0.27361932
9	0x3e824074	0.254398
10	0xbe8a197f	-0.26972577
11	0xbe6ee1d3	-0.23328333
12	0x3e75cf3e	0.24004838
13	0x3e95f746	0.29290217
14	0xbe5464aa	-0.20741525
15	0xbe7c378c	-0.24630564
16	0x3e92c40e	0.28665203
17	0x3e57db95	0.21079858
18	0xbe593f4a	-0.21215549
19	0x3e77bc96	0.24193034
20	0xbe847367	-0.25869295
21	0xbe9d581f	-0.30731294
22	0x3e80cbd9	0.25155523
23	0x3ee6cd96	0.45078725
24	0xbe8fee2b	-0.28111395
25	0xbe85483c	-0.26031673
26	0x3e462fa4	0.19354111
27	0x3e430640	0.19045353
28	0xbe9e6762	-0.3093825
29	0xbe883eab	-0.26610312
30	0xbe2491bf	-0.16071223
31	0x3e2fc43e	0.17164704
32	0xbe9766e4	-0.29570687
33	0xbe80497c	-0.25056064
34	0x3e9df454	0.3085047
35	0x3e76eefb	0.24114601
36	0x3e3be56b	0.18349235
37	0xbe68938e	-0.22712538
38	0xbe900dd3	-0.28135547
39	0xbe59e22b	-0.21277682
40	0xbe7d4782	-0.2473431
41	0xbec8e975	-0.39240614
42	0x3e730865	0.23733671
43	0xbe6e6776	-0.23281655
44	0xbe87f2a3	-0.26552305
45	0xbe8afccf	-0.27146003
46	0xbe500cf8	-0.20317447
47	0x3e78203b	0.24231045
48	0xbe91a802	-0.28448492
49	0x3e75b02f	0.2399299
50	0x3e84ae2c	0.25914133
51	0xbe731f89	-0.23742498
52	0x3e5cbb2b	0.21555774
53	0xbe86f2c2	-0.26357085
54	0xbe89add1	-0.26890424
55	0x3e76863e	0.24074647
56	0xbea4ef49	-0.3221381
57	0xbe6ee7de	-0.23330638
58	0xbe84db42	-0.2594853
59	0x3e65f7d6	0.22457823
60	0xbe7ae53c	-0.24501508
61	0xbe58177b	-0.21102707
62	0xbe86ac51	-0.26303342
63	0x3e5407cf	0.20706104

critic.2.weight f4 [64, 64]
0	0x3e9ec26c	0.31007707
1	0xbeb54c1e	-0.35409635
2	0xbd467d04	-0.048459068
3	0x3e8cfd49	0.2753699
4	0x3cacfc50	0.021116406
5	0x3f08caf5	0.5343469
6	0x3ec58b00	0.3858261
7	0xbe61ddbf	-0.22057246
8	0xbeae0187	-0.3398554
9	0xbe8342de	-0.25636953
10	0x3e69fa57	0.22849403
11	0x3ea2d13a	0.31800252
12	0xbe33bae6	-0.17551765
13	0xbebe5491	-0.37173894
14	0x3e5ff6ff	0.21871565
15	0x3eca5096	0.39514607
16	0xbe16a049	-0.14709581
17	0xbe7b6c1d	-0.2455296
18	0x3e980b1f	0.29695985
19	0xbe2d9513	-0.16951399
20	0x3f055c85	0.520943
21	0x3f289b5d	0.65862066
22	0xbe486580	-0.19569969
23	0xbc59acdb	-0.013285841
24	0x3e7bd27c	0.24592012
25	0x3e0625e1	0.13100387
26	0x3d33cbb6	0.043895446
27	0xbef7d3b9	-0.4840372
28	0x3f0a70c8	0.5407834
29	0x3ec4d0c2	0.3844052
30	0xbe2bd907	-0.16782008
31	0xbea09551	-0.3136392
32	0x3ed30804	0.41217053
33	0xbc4ff38c	-0.012692343
34	0xbe3f1297	-0.18659435
35	0xbe24c580	-0.16090965
36	0xbf376e15	-0.71652347
37	0x3c0e5e2f	0.008689447
38	0x3e9aacb6	0.30209893
39	0x3e9b8808	0.3037722
40	0x3e38c9f4	0.18045789
41	0xbdc05e51	-0.093929894
42	0xbe99b982	-0.30024344
43	0x3ed00d1f	0.4063501
44	0x3c4c2386	0.012459641
45	0x3e024e64	0.12725216
46	0x3edd3038	0.4320085
47	0xbeebe97d	-0.46076575
48	0x3db7bf70	0.08972061
49	0xbec4ed2c	-0.38462198
50	0xbe4cfa55	-0.20017369
51	0x3e87c66d	0.26518574
52	0xbefc0300	-0.4922104
53	0x3ea8daea	0.32979518
54	0x3eaf82e1	0.3427954
55	0xbf0855ac	-0.53255725
56	0x3e3bcd46	0.18340024
57	0x3e0d0058	0.13769662
58	0x3edc898e	0.43073696
59	0xbea47e0f	-0.32127425
60	0x3e96776e	0.29387993
61	0x3ebb2595	0.3655211
62	0x3ee8599a	0.4538086
63	0xbf095d5f	-0.536581
64	0x3ea975b5	0.33097616
65	0xbf21ca97	-0.6319975
66	0x3c14bf17	0.0090787625
67	0x3edd772d	0.43254986
68	0x3df94244	0.12170842
69	0xbd2dfaa4	-0.042475358
70	0x3e233368	0.15937579
71	0xbe2b2bfd	-0.16715999
72	0xbd408857	-0.047005024
73	0xbcc06d8a	-0.023489732
74	0xbe2390b5	-0.1597317
75	0x3ece5311	0.4029775
76	0xbdbe0eca	-0.092801645
77	0xbe9b56fb	-0.30339798
78	0x3eebe88e	0.46075863
79	0x3e9270c4	0.28601658
80	0xbf1850fa	-0.5949856
81	0x3e2fa9cb	0.17154615
82	0x3f01efbf	0.5075645
83	0xbe097a84	-0.13425642
84	0x3edcf96b	0.4315904
85	0x3e8f7cd9	0.2802494
86	0xbed8e933	-0.42365417
87	0xbd7ce3d3	-0.061740708
88	0x3e96238c	0.29323995
89	0x3df9ef6c	0.12203869
90	0xbeb824b7	-0.3596551
91	0xbe84575d	-0.25847903
92	0x3ec83e19	0.39109877
93	0x3e0bda11	0.13657404
94	0x3d7e8476	0.062138043
95	0xbeafa8ae	-0.3430838
96	0x3e273c1b	0.16331522
97	0x3ece8e28	0.40342832
98	0xbd99d3e5	-0.07511119
99	0xbd6eb2fc	-0.05827616
100	0xbdea52a1	-0.114415415
101	0x3ed88104	0.4228593
102	0x3ed2c1af	0.41163394
103	0x3eed2391	0.46316198
104	0x3f068fa5	0.52562934
105	0x3e862f37	0.26207897
106	0xbe5bb0b1	-0.21454121
107	0x3e4d0aac	0.20023602
108	0x3e9a7df7	0.3017423
109	0x3ed19a45	0.4093801
110	0x3e343400	0.17597961
111	0xbcd83d6c	-0.026396476
112	0x3e41a35a	0.1890997
113	0xbec737f5	-0.3890988
114	0xbe9ca37e	-0.30593485
115	0x3f0fe104	0.5620272
116	0xbe00626c	-0.12537545
117	0x3effa5e8	0.49931264
118	0x3ebeede5	0.37290874
119	0xbf01e268	-0.50736094
120	0xbcbb3b10	-0.022855312
121	0xbe0cd550	-0.13753247
122	0x3ed311af	0.4122443
123	0xbf5aab4b	-0.8541762
124	0x3eb9d930	0.36298513
125	0x3e7ff4f4	0.24995786
126	0x3f0db461	0.5535336
127	0xbe4741b2	-0.19458655
128	0xbf0ce780	-0.5504074
129	0x3db305d8	0.08741349
130	0xbef607f4	-0.48052943
131	0xbecc7972	-0.39936405
132	0xbeb76542	-0.3581944
133	0xbe787929	-0.24264969
134	0xbea40087	-0.32031652
135	0x3efdc96c	0.49567735
136	0x3f37fa1a	0.71866
137	0xbdf22b7f	-0.118247025
138	0xbdfa43aa	-0.12219937
139	0xbe2fbe8d	-0.17162533
140	0x3b206610	0.0024474896
141	0x3eef5e1a	0.4675148
142	0xbe812f3d	-0.25231352
143	0xbe3e71b5	-0.18598063
144	0x3ee7d78f	0.45281646
145	0x3f262f0a	0.64915526
146	0xbed211ef	-0.41029307
147	0x3e9c5ede	0.30541128
148	0xbe464940	-0.1936388
149	0xbe7befab	-0.24603145
150	0x3dc04515	0.09388176
151	0x3ea934db	0.33048138
152	0xbe97dde2	-0.2966147
153	0xbf02ad56	-0.5104574
154	0x3eb273c6	0.34853953
155	0x3eb24887	0.3482096
156	0xbee82edc	-0.4534825
157	0xbeaccf5e	-0.3375196
158	0xbeb1aff5	-0.34704557
159	0x3e61b6a5	0.2204233
160	0xbc825b43	-0.015912658
161	0xbe6bc4f9	-0.23024358
162	0x3e9c160f	0.3048558
163	0x3f110ec8	0.5666318
164	0x3e127f56	0.14306387
165	0xbe96eb1d	-0.29476252
166	0xbe2f32df	-0.1710925
167	0xbe74f4ef	-0.2392156
168	0xbe1e6cf8	-0.15471256
169	0xbf1b1a9c	-0.6058748
170	0x3ec49271	0.38392976
171	0x3d89bd37	0.06725543
172	0x3c0ccfc5	0.008594458
173	0xbee0ee2a	-0.43931705
174	0xbe752b51	-0.23942305
175	0x3f02e02a	0.511233
176	0x3bc314d3	0.00595341
177	0x3e740b19	0.23832358
178	0xbe4d5efe	-0.20055768
179	0x3e628a16	0.22122988
180	0x3d874ef6	0.066068575
181	0x3b591f7c	0.0033130338
182	0xbe0102bc	-0.125987
183	0x3d6c0660	0.057623267
184	0xbf0175b6	-0.5057024
185	0xbeda3d9d	-0.42625132
186	0xbea11b2a	-0.31466037
187	0x3e43335c	0.19062561
188	0xbe194285	-0.14966781
189	0xbe4241ac	-0.18970364
190	0xbe791765	-0.2432533
191	0x3e33c702	0.17556384
192	0x3ec503d6	0.3847949
193	0xbef6bd21	-0.4819117
194	0x3eff1378	0.4981954
195	0xbe16e9ec	-0.14737672
196	0x3e8ad412	0.27114922
197	0x3e088221	0.1333089
198	0x3e8bb7c1	0.2728863
199	0xbd91c565	-0.07117728
200	0xbdf8a3f7	-0.12140649
201	0xbc70562a	-0.014668981
202	0x3e65c8d4	0.22439891
203	0x3f303053	0.68823737
204	0xbee4ce71	-0.44688752
205	0xbea2fe1d	-0.31834498
206	0xbdba4cff	-0.09096717
207	0x3e4e793f	0.20163439
208	0xbdb6fc06	-0.089347884
209	0xbed77d5d	-0.42087832
210	0x3e1f1d02	0.1553841
211	0xbe2a36f3	-0.16622524
212	0x3e3f8ea2	0.18706754
213	0x3e08e5c3	0.13368897
214	0xbf003618	-0.5008254
215	0xbda14d4e	-0.07876073
216	0x3df875f2	0.12131871
217	0x3f6927ad	0.91076165
218	0xbe59e61a	-0.21279183
219	0xbeda0b73	-0.4258686
220	0x3e8c17d4	0.2736193
221	0x3e98d23b	0.29847893
222	0x3ea2a3a9	0.31765488
223	0xbf022a58	-0.5084586
224	0x3ecb4ad5	0.3970553
225	0x3e96dac3	0.29463777
226	0xbec6b9e6	-0.38813704
227	0xbf28ab69	-0.6588655
228	0xbd890290	-0.06689942
229	0xbe358850	-0.1772778
230	0x3e5c9625	0.2154165
231	0x3e89d752	0.2692209
232	0xbe44ec87	-0.19230853
233	0x3f1b4d1a	0.6066452
234	0xbedfdb06	-0.4372179
235	0x3e94f285	0.29091278
236	0xbd207800	-0.03917694
237	0x3eafe09b	0.34351048
238	0x3e67134e	0.22565958
239	0xbec1332e	-0.3773436
240	0x3ed2bd2a	0.41159946
241	0x3d050aa8	0.032480866
242	0x3db52940	0.088457584
243	0x3dfc93b1	0.123328574
244	0xbe99e73c	-0.3005923
245	0x3eb1132d	0.34584942
246	0x3e589fa7	0.21154653
247	0xbdabbba4	-0.08385399
248	0x3f212b9f	0.62957186
249	0x3f010308	0.5039525
250	0xbe035c15	-0.12828095
251	0xbe715cd0	-0.23570561
252	0x3ec93946	0.3930151
253	0xbc38f420	-0.011288673
254	0x3e42e838	0.19033897
255	0xbd2a1ae6	-0.04152956

critic.2.bias f4 [64]
0	0xbe2c54d5	-0.16829236
1	0xbe0881cc	-0.13330764
2	0x3ddf96cb	0.10917433
3	0xbdb229b3	-0.0869936
4	0x3df2a92b	0.118486725
5	0x3dd89a68	0.10576326
6	0xbe1744ee	-0.14772388
7	0xbdbb55b8	-0.09147209
8	0xbde5b0ec	-0.11215386
9	0xbdc185e1	-0.094493635
10	0x3e0cb561	0.13741066
11	0xbd65f4eb	-0.056141775
12	0x3e0ccd92	0.13750294
13	0xbdfd2270	-0.12360084
14	0xbdf1ddf5	-0.11809913
15	0x3e5d7ed3	0.21630411
16	0x3ddcc101	0.10779
17	0x3e0e44d2	0.1389344
18	0x3e21a057	0.15783821
19	0x3d84a9c2	0.06477691
20	0xbdbfb946	-0.0936151
21	0xbe1f748c	-0.15571803
22	0xbe310630	-0.17287517
23	0xbdd79172	-0.10525788
24	0x3db5ee8b	0.08883389
25	0x3e29b953	0.16574602
26	0xbe6b3ca5	-0.22972353
27	0x3e6d593b	0.2317857
28	0x3dc43eeb	0.09582313
29	0x3de86509	0.11347396
30	0x3e1ee9c2	0.15518859
31	0x3e30eff5	0.17279036
32	0x3dce0fa9	0.10061581
33	0x3deca70f	0.115553014
34	0x3e22527d	0.1585178
35	0x3dc4d488	0.096108496
36	0x3e18fb91	0.14939715
37	0xbe129ecf	-0.14318393
38	0x3e0551ef	0.13019536
39	0x3e2d8160	0.16943884
40	0x3e0838ba	0.1330289
41	0xbe06004f	-0.13086055
42	0x3e002dc2	0.12517455
43	0x3e7f529b	0.24933855
44	0x3e0e2715	0.13882096
45	0xbe41d952	-0.18930557
46	0xbe1ff8eb	-0.15622298
47	0x3de309e4	0.11085871
48	0x3e299cf2	0.16563776
49	0x3e023eff	0.12719344
50	0xbde4277d	-0.11140344
51	0x3da53558	0.08066815
52	0x3e2bb5d9	0.16768588
53	0xbdd6898b	-0.10475453
54	0xbdc2e903	-0.095171
55	0x3e39a59e	0.18129584
56	0xbd80c686	-0.06287865
57	0x3df6be87	0.12048059
58	0xbe33b1f0	-0.17548347
59	0x3dd88916	0.10573022
60	0xbe776b26	-0.24161968
61	0xbe6ca3e5	-0.23109396
62	0x3df0e8f5	0.11763183
63	0xbe3cdf99	-0.1844467

critic.4.weight f4 [1, 64]
0	0xbfbf8583	-1.496262
1	0xbfcaabcd	-1.583368
2	0x3fcef116	1.6167324
3	0xbfd50945	-1.6643454
4	0x3fca19a7	1.5789078
5	0x3fc0d09e	1.5063665
6	0xbfcc0ca6	-1.594136
7	0xbfc3255f	-1.524578
8	0xbfe34870	-1.7756481
9	0xbfcd7f19	-1.6054412
10	0x3fc4fa67	1.5388917
11	0xbfc3678e	-1.5265977
12	0x3fc6c493	1.552874
13	0xbfc262c0	-1.5186386
14	0xbfbe76ef	-1.4880046
15	0x3fbcd7af	1.4753321
16	0x3fb936f8	1.44699
17	0x3fca73f3	1.5816635
18	0x3fcfbd73	1.622969
19	0x3fccbb13	1.599459
20	0xbfb968b2	-1.4485075
21	0xbfc5b310	-1.544527
22	0xbfbbf020	-1.4682655
23	0xbfc272e6	-1.5191314
24	0x3fc22298	1.5166807
25	0x3fc55b95	1.5418574
26	0xbfb8d4c2	-1.4439929
27	0x3fb99dcc	1.4501281
28	0x3fbf224c	1.4932342
29	0x3fb380b9	1.4023658
30	0x3fc05841	1.5026933
31	0x3fbdc67d	1.4826199
32	0x3fca22c4	1.579186
33	0x3fbe147f	1.4850005
34	0x3fc6b7c7	1.5524834
35	0x3fdca05a	1.7236435
36	0x3fb72d07	1.4310616
37	0xbfc93cdb	-1.5721697
38	0x3fd03a9e	1.6267889
39	0x3fc6c28e	1.5528123
40	0x3fc28cef	1.519926
41	0xbfc1f3be	-1.5152509
42	0x3fc0fc1b	1.5076936
43	0x3fb55b94	1.4168572
44	0x3fc38b31	1.5276853
45	0xbfc361f9	-1.5264274
46	0xbfc7c6fe	-1.5607603
47	0x3fcbb328	1.5914049
48	0x3fbfc650	1.4982395
49	0x3fcb10ce	1.5864503
50	0xbfd4288e	-1.6574876
51	0x3fb9c0e5	1.4511992
52	0x3fb93f56	1.4472454
53	0xbfd3324a	-1.6499722
54	0xbfc09a1d	-1.5047032
55	0x3fbb2856	1.4621685
56	0xbfc2d578	-1.5221395
57	0x3fd7ca1b	1.6858553
58	0xbfc815d6	-1.5631664
59	0x3fcf6c51	1.620493
60	0xbfbaa8e7	-1.4582795
61	0xbfb9561e	-1.4479406
62	0x3fcee535	1.6163698
63	0xbfbf2f6c	-1.4936347

exp_avg f4 [64, 4]
0	0x382205ab	3.862909e-05
1	0x3a647432	0.0008714824
2	0xb8ccab6d	-9.7594086e-05
3	0xbaa719fb	-0.0012748832
4	0x385b12ad	5.2231062e-05
5	0x3a9307b2	0.0011217503
6	0xb90ab9fb	-0.00013229989
7	0xbad6accd	-0.0016378403
8	0x38b03ef9	8.4040636e-05
9	0x3af46266	0.0018645048
10	0xb95f27ff	-0.00021281837
11	0xbb32ac36	-0.002726329
12	0x386b492c	5.6096513e-05
13	0x3a9d581b	0.0012004407
14	0xb90f2b19	-0.00013653598
15	0xbae59da6	-0.0017518296
16	0xb8d10862	-9.967458e-05
17	0xbb0f37cc	-0.0021853326
18	0x3981ae97	0.00024734877
19	0x3b512eb0	0.0031918697
20	0x387be9f2	6.0060942e-05
21	0x3aaaf917	0.0013044205
22	0xb91e814f	-0.00015116225
23	0xbaf9c53c	-0.0019055973
24	0xb90ba340	-0.00013316888
25	0xbb43cbbd	-0.0029876076
26	0x39b24485	0.00034001857
27	0x3b8f042a	0.00436451
28	0x38aca547	8.2323844e-05
29	0x3aea9132	0.0017896055
30	0xb95670fd	-0.00020450722
31	0xbb2b44ff	-0.0026133654
32	0x386055c8	5.348565e-05
33	0x3a9c7113	0.0011935554
34	0xb90da124	-0.00013506837
35	0xbae4e3b1	-0.0017462877
36	0xb78d76a3	-1.6863754e-05
37	0xb9d57233	-0.0004071161
38	0x384505f8	4.697402e-05
39	0x3a1cd893	0.00059832
40	0xb887a48c	-6.467951e-05
41	0xbabd97ea	-0.001446483
42	0x392bba0c	0.00016377139
43	0x3b0a7907	0.0021129267
44	0xb7b40e20	-2.146425e-05
45	0xba03302f	-0.00050044333
46	0x3870f644	5.744981e-05
47	0x3a402869	0.00073302403
48	0xb91be5f3	-0.00014867615
49	0xbb582171	-0.0032978917
50	0x39c56c08	0.00037655258
51	0x3b9e065b	0.004822535
52	0xb8bdd5fa	-9.0520785e-05
53	0xbb036bb7	-0.0020053217
54	0x396d36ec	0.00022622541
55	0x3b400565	0.002930009
56	0x38d575f0	0.00010178599
57	0x3b11766d	0.0022195831
58	0xb9859ecc	-0.0002548605
59	0xbb547a71	-0.0032421614
60	0x37d01524	2.4805377e-05
61	0x3a1199a9	0.0005554208
62	0xb881374e	-6.161501e-05
63	0xba54e3e4	-0.00081211166
64	0x379a4be4	1.839357e-05
65	0x39c537f7	0.00037616465
66	0xb83dd203	-4.52567e-05
67	0xba0fa5a1	-0.0005479698
68	0x38703aa2	5.7275065e-05
69	0x3aa1c875	0.0012343066
70	0xb914b77b	-0.00014182732
71	0xbaec3281	-0.0018020422
72	0x380e3b7e	3.3910845e-05
73	0x3a4e088a	0.0007859549
74	0xb8c1d8a2	-9.243308e-05
75	0xba96b583	-0.0011498187
76	0xb80ae91c	-3.3118864e-05
77	0xba47d5eb	-0.0007623124
78	0x38b370cb	8.5563945e-05
79	0x3a92212f	0.0011148805
80	0x39253b12	0.00015757632
81	0x3b626595	0.003454541
82	0xb9ce51e1	-0.00039352386
83	0xbba5553a	-0.00504556
84	0xb81974ef	-3.6586945e-05
85	0xba58e2a6	-0.00082735193
86	0x38c0231e	9.1618145e-05
87	0x3a9e4d5c	0.0012077498
88	0xb7ad1e45	-2.0637302e-05
89	0xb9f62fc1	-0.00046956356
90	0x385ad07d	5.216942e-05
91	0x3a34540b	0.00068789785
92	0xb7a7947e	-1.9977098e-05
93	0xb9ecb798	-0.00045150216
94	0x384f2106	4.93834e-05
95	0x3a2d2f56	0.000660648
96	0x380af128	3.3126358e-05
97	0x3a3b33a5	0.00071411795
98	0xb8affa41	-8.391264e-05
99	0xba889d3a	-0.0010422834
100	0x38aa64f1	8.1250335e-05
101	0x3af0f413	0.0018383287
102	0xb95de6ce	-0.00021162184
103	0xbb304b6d	-0.0026900426
104	0xb68f5fc8	-4.2728825e-06
105	0xb8b95fd2	-8.839335e-05
106	0x373ad640	1.1136348e-05
107	0x3906d7d8	0.00012859644
108	0x381a8aa1	3.684557e-05
109	0x3a4e2bd9	0.000786481
110	0xb8c0289c	-9.1628375e-05
111	0xba965da4	-0.0011471999
112	0xb8c1c70f	-9.240035e-05
113	0xbb082222	-0.0020772298
114	0x3978cb78	0.00023726921
115	0x3b4700f8	0.0030365568
116	0xb8d11e52	-9.971544e-05
117	0xbb11a542	-0.0022223745
118	0x3984ce26	0.00025330595
119	0x3b54f43c	0.0032494208
120	0x38f6e8cd	0.000117735566
121	0x3b2b3c7b	0.0026128578
122	0xb99b7ad1	-0.0002965541
123	0xbb7a1d72	-0.0038164523
124	0xb69c44dc	-4.6571786e-06
125	0xb8d93d30	-0.000103587634
126	0x3757aef5	1.2855734e-05
127	0x391f1bb4	0.00015173742
128	0x38548a0f	5.0673316e-05
129	0x3a9322b3	0.0011225551
130	0xb9051496	-0.00012691537
131	0xbad6ff17	-0.0016402927
132	0x3645522b	2.9403116e-06
133	0x3884a8d3	6.3256964e-05
134	0xb725d19f	-9.883573e-06
135	0xb8c20e9c	-9.253362e-05
136	0x3815fe31	3.5761102e-05
137	0x3a46a3af	0.00075774913
138	0xb8b77685	-8.748196e-05
139	0xba90eb4e	-0.0011056454
140	0x375834ec	1.2886925e-05
141	0x39945630	0.00028292974
142	0xb8176305	-3.6093425e-05
143	0xb9d95e7a	-0.00041459856
144	0x3809e211	3.2873886e-05
145	0x3a3835be	0.0007027051
146	0xb8ad9d45	-8.2785766e-05
147	0xba866f02	-0.0010256472
148	0x3868a86c	5.5469965e-05
149	0x3aa40c76	0.0012515921
150	0xb9163d46	-0.00014327941
151	0xbaf021dc	-0.0018320638
152	0x38129398	3.494657e-05
153	0x3a53ec04	0.00080841803
154	0xb8bf49b9	-9.121322e-05
155	0xba9add70	-0.0011815261
156	0xb838c6da	-4.4054214e-05
157	0xba86cb36	-0.001028395
158	0x3900b053	0.00012272717
159	0x3ac577e2	0.0015065635
160	0x3788ebd3	1.6322278e-05
161	0x39b605c4	0.0003471804
162	0xb825b0cc	-3.950372e-05
163	0xba051e68	-0.0005078078
164	0x39381225	0.00017554367
165	0x3b7d7908	0.0038676877
166	0xb9e637e2	-0.00043910654
167	0xbbb93404	-0.0056519527
168	0x38d4dd61	0.00010150183
169	0x3b134d35	0.002247644
170	0xb98574ae	-0.0002545467
171	0xbb575727	-0.0032858343
172	0xb8558d7d	-5.091493e-05
173	0xba90626c	-0.001101566
174	0x39061b30	0.00012789364
175	0x3ad2dbdb	0.001608725
176	0xb8842bca	-6.302407e-05
177	0xbab9283a	-0.0014126368
178	0x39279a11	0.00015983755
179	0x3b07455b	0.0020640704
180	0xb76fd855	-1.4295879e-05
181	0xb9bd1977	-0.00036067862
182	0x3830262d	4.1997224e-05
183	0x3a0acb78	0.00052946014
184	0x37c8aff1	2.3923787e-05
185	0x3a0e2351	0.00054221327
186	0xb8832a25	-6.254417e-05
187	0xba4f9081	-0.0007917956
188	0xb8a232c3	-7.734217e-05
189	0xbae23d0c	-0.0017260625
190	0x394cdcce	0.00019537212
191	0x3b2561a8	0.002523521
192	0xb695f1fe	-4.4687176e-06
193	0xb8b59c10	-8.6598215e-05
194	0x3744304e	1.1693757e-05
195	0x3903d6f7	0.00012573214
196	0x3860bcae	5.3581483e-05
197	0x3a9bdb8d	0.0011890993
198	0xb90e105e	-0.00013548273
199	0xbae3c735	-0.0017378094
200	0x389ad10b	7.3822295e-05
201	0x3ad66f68	0.0016360106
202	0xb942d883	-0.00018581939
203	0xbb1c9606	-0.0023893132
204	0x39110eca	0.00013833787
205	0x3b48f8fe	0.003066599
206	0xb9b699eb	-0.00034828423
207	0xbb92cf1a	-0.004480255
208	0xb83a8284	-4.4467408e-05
209	0xba833515	-0.0010010327
210	0x38ee6299	0.000113670896
211	0x3abfe367	0.0014639915
212	0x3913a8a2	0.00014081833
213	0x3b4b93b5	0.0031063382
214	0xb9ba1acc	-0.0003549665
215	0xbb94ab13	-0.004536995
216	0x3705a01a	7.964694e-06
217	0x39522866	0.0002004221
218	0xb7a1259a	-1.9210205e-05
219	0xb999af7a	-0.00029313174
220	0xb804770d	-3.1582127e-05
221	0xba3713b6	-0.0006983833
222	0x38a53ba1	7.87892e-05
223	0x3a85a481	0.0010196121
224	0x35d7eb06	1.6087149e-06
225	0x37cac99b	2.4174156e-05
226	0xb62b0130	-2.5481677e-06
227	0xb80bf4f7	-3.3368324e-05
228	0xb80f9941	-3.4236586e-05
229	0xba4eed2e	-0.0007893619
230	0x38bad407	8.908664e-05
231	0x3a975ac0	0.0011547431
232	0xb84b7877	-4.8511163e-05
233	0xba91bc14	-0.0011118674
234	0x39081bb4	0.00012980291
235	0x3ad5c77a	0.0016310059
236	0x38b8d0bf	8.812686e-05
237	0x3b014bb5	0.0019728963
238	0xb96b97d8	-0.00022467913
239	0xbb3ce0db	-0.0028820548
240	0xb8cb800a	-9.7036434e-05
241	0xbb0ebdfc	-0.002178072
242	0x3982e459	0.00024965664
243	0x3b509ff9	0.0031833632
244	0x3892a5f4	6.992734e-05
245	0x3acb4b55	0.0015510122
246	0xb938d4b8	-0.00017626851
247	0xbb149e5d	-0.00226774
248	0xb9026722	-0.00012436186
249	0xbb333a23	-0.0027347885
250	0x39a4262c	0.00031308958
251	0x3b82e4e5	0.0039945715
252	0xb4a8ec94	-3.1464572e-07
253	0xb8275719	-3.989702e-05
254	0x3683de45	3.92998e-06
255	0x387b28d1	5.9881077e-05
