models/ppo_Acrobot-v1.pth (torch, 132237 bytes, 33 tensors)

actor.0.weight f4 [64, 6]
0	0xbe9637c8	-0.29339433
1	0x3e2f4b00	0.17118454
2	0xbe80a7c8	-0.25128007
3	0x3d9336fc	0.07188222
4	0xbde1f73c	-0.11033484
5	0xbe7bb532	-0.2458084
6	0xbe36db53	-0.17857103
7	0x3e06fd8d	0.1318266
8	0x3e9ba5d9	0.3039997
9	0x3cdd79dc	0.027035646
10	0xbe1d1285	-0.15339096
11	0x3db15525	0.08658818
12	0x3c2c6709	0.010522612
13	0xbe58732f	-0.21137689
14	0xbe89b933	-0.26899108
15	0x3e2a5237	0.16632925
16	0x3e990104	0.29883587
17	0xbdff4ec2	-0.12466194
18	0xbdf957ee	-0.121749744
19	0x3cde8aad	0.027165735
20	0xbd54ceca	-0.051955022
21	0x3e779cda	0.24180928
22	0xbe6d9c00	-0.2320404
23	0xbe8a249e	-0.26981062
24	0xbe207357	-0.15668999
25	0xbaf07c9f	-0.0018347687
26	0x3e224b0d	0.15848942
27	0xbe16ba34	-0.14719468
28	0x3efb609f	0.49097154
29	0x3e7d310d	0.24725743
30	0x3edd589f	0.43231675
31	0xbdc80162	-0.09765889
32	0x3e853e2a	0.2602399
33	0x3dc52b82	0.09627439
34	0xbd5c8fc5	-0.053848047
35	0xbd8de0f9	-0.06927676
36	0xbdbef81a	-0.09324665
37	0xbe156f78	-0.14593303
38	0xbe841ec0	-0.2580471
39	0xbe1fc6c1	-0.15603162
40	0x3d4dd8db	0.050255638
41	0xbdb9f1eb	-0.09079345
42	0xbde5f538	-0.112284124
43	0xbe7c8a78	-0.24662197
44	0xbd817456	-0.063210174
45	0xbd67f1e9	-0.056627188
46	0x3e482318	0.19544637
47	0xbdb4ecea	-0.0883425
48	0x3e8deac7	0.27718183
49	0x3d9dcc92	0.07705034
50	0x3e42c018	0.1901859
51	0xbdc3f945	-0.09569029
52	0xbe817b75	-0.25289503
53	0xbcf302fa	-0.029664505
54	0xbe2ac48b	-0.16676538
55	0x3e60738b	0.21919076
56	0xbe73622f	-0.23767923
57	0xbebd31d0	-0.36952066
58	0x3cd88436	0.02643023
59	0x3d0b681e	0.03403484
60	0x3e4c08a5	0.19925173
61	0x3e37ed8e	0.17961714
62	0xbafd03f0	-0.0019303542
63	0xbdb1cd11	-0.086816914
64	0xbeb27dcb	-0.34861597
65	0x3d96f3aa	0.07370694
66	0xbe1ca5c4	-0.1529761
67	0x3d291a3d	0.04128479
68	0x3e8661eb	0.2624658
69	0x3db83693	0.08994784
70	0xbe6640f7	-0.2248572
71	0xbe839483	-0.25699243
72	0x3dcabdea	0.098995045
73	0x3c59e5d4	0.013299424
74	0x3d9749d8	0.073871315
75	0xbdd1c8c6	-0.102433726
76	0xbeb59099	-0.35461882
77	0x3dd04b1f	0.10170578
78	0xbef30fac	-0.47472894
79	0xbdc18ecf	-0.09451067
80	0x3e7c959c	0.24666446
81	0xbe3ccfa8	-0.1843859
82	0x3e332eee	0.17498371
83	0x3ce4a98e	0.027912881
84	0x3d932bae	0.071860656
85	0xbeb9b4cb	-0.36270747
86	0xbe2ed71e	-0.17074248
87	0xbea30c8b	-0.31845507
88	0x3d897896	0.06712453
89	0x3cacf60b	0.021113416
90	0x3e8362e0	0.25661373
91	0xbd2d6123	-0.042328965
92	0x3e2e605a	0.17028943
93	0xbc157bf8	-0.009123795
94	0x3e476915	0.1947368
95	0xbb1b45db	-0.002369276
96	0xbeeba0c3	-0.4602109
97	0x3d393618	0.045217603
98	0xbec783d5	-0.38967767
99	0x3e1c8ceb	0.15288131
100	0xbe0dfc6b	-0.13865821
101	0xbe522aeb	-0.20524184
102	0x3d27e55f	0.04099023
103	0x3e047741	0.12936117
104	0x3f0c76a2	0.5486852
105	0xbe27a7b7	-0.16372572
106	0x3e808ea2	0.2510882
107	0x3e840387	0.2578394
108	0xbe858849	-0.2608054
109	0xbe70863c	-0.23488706
110	0x3d107a21	0.03527272
111	0xbc7d6814	-0.015466709
112	0x3eb96783	0.36211786
113	0x3ecea847	0.4036276
114	0x3e33ca38	0.17557609
115	0x3cb12a36	0.021626573
116	0x3d6877c2	0.056754835
117	0xbd46996a	-0.04848615
118	0x3dc782d7	0.097417526
119	0xbd5353bf	-0.05159354
120	0x3de73093	0.11288562
121	0x3e59f405	0.21284492
122	0x3e84999f	0.25898454
123	0xbe1e6f6c	-0.15472192
124	0xbe19f99d	-0.15036626
125	0x3c13fab1	0.009031937
126	0xbde4a21b	-0.11163732
127	0x3d1564c7	0.036473062
128	0xbdc18be7	-0.094505124
129	0xbe0bcb7b	-0.1365184
130	0x3e951a39	0.2912157
131	0xbdbd31bc	-0.09238002
132	0xbee2dfcc	-0.44311368
133	0xbd016c09	-0.03159717
134	0xbe1ad8c9	-0.1512176
135	0x3ee35762	0.44402605
136	0xbe269788	-0.16268742
137	0xbe806423	-0.25076398
138	0x3e24533c	0.16047376
139	0x3e23f64a	0.1601192
140	0xbba29803	-0.004961969
141	0xbd44a98f	-0.048013266
142	0xbe9e6c93	-0.3094221
143	0xbcca6960	-0.02470845
144	0xbc6d15ab	-0.014470498
145	0x3d372f14	0.04472263
146	0x3e2a76e1	0.16646911
147	0xbdbb22a9	-0.0913747
148	0xbe506d55	-0.20354207
149	0x3e04d9b6	0.12973675
150	0x3e679fd9	0.22619571
151	0xbe1676dd	-0.1469378
152	0x3e6c24c1	0.23060896
153	0xbe876a75	-0.26448408
154	0x3d8863fe	0.06659697
155	0x3e345024	0.17608696
156	0x3e414ffa	0.18878165
157	0x3df63b72	0.12023057
158	0x3eee9af8	0.46602607
159	0xbc7a724c	-0.01528604
160	0xbef1ab71	-0.47201112
161	0x3eb77687	0.35832617
162	0xbe33eaba	-0.1757001
163	0x3cefb241	0.029259803
164	0xbd9af368	-0.07565957
165	0xbe7e6c0c	-0.24845904
166	0x3ea73b34	0.32662356
167	0xbd4e08fa	-0.05030153
168	0xbdc1dd21	-0.09466005
169	0x3e16843e	0.14698884
170	0x3ee807e1	0.4531851
171	0x3d2b6949	0.041848455
172	0x3cb986da	0.02264731
173	0x3dee18b8	0.116258085
174	0x3e5b1adf	0.2139697
175	0x3e7499b9	0.23886766
176	0xbdbcdccf	-0.092218034
177	0x3e277586	0.16353425
178	0xbe4086d8	-0.18801439
179	0xbd32bafe	-0.04363536
180	0xbd2e18f4	-0.042504266
181	0x3dda5d11	0.10662282
182	0x3d971c99	0.073785014
183	0xbe0b9160	-0.13629675
184	0xbe72df0e	-0.23717901
185	0x3d2ab224	0.041673794
186	0x3e256b03	0.16154103
187	0x3e1b41d9	0.15161838
188	0xbd92b131	-0.07162703
189	0x3ed7d70b	0.42156252
190	0x3e29d8dc	0.16586632
191	0x3c28481b	0.0102710975
192	0xbe9fccba	-0.3121088
193	0xbdc8f436	-0.098122045
194	0x3ec76b6a	0.38949138
195	0x3e63a6a6	0.2223154
196	0x3d9479e0	0.07249808
197	0xbe7a90e7	-0.24469338
198	0xbe5bcf3c	-0.21465772
199	0x3df2f165	0.118624486
200	0x3e34d966	0.17661056
201	0x3cc30de7	0.02381034
202	0xbea32a29	-0.31868103
203	0x3e80f50f	0.25186965
204	0x3df6dac3	0.12053444
205	0x3b875d3b	0.004130987
206	0xbdc227ea	-0.09480269
207	0xbe5a9fe5	-0.21350057
208	0xbe250111	-0.16113688
209	0xbe0c7a05	-0.13718422
210	0xbd4e238a	-0.05032686
211	0xbeaa0966	-0.33210295
212	0x3d48115f	0.04884469
213	0x3d67c610	0.05658537
214	0xbc4aa461	-0.012368293
215	0xbd9a6e69	-0.0754059
216	0xbe89fb18	-0.26949382
217	0xbc9281fa	-0.017884243
218	0xbe47a069	-0.19494785
219	0xbcd887a1	-0.02643186
220	0xbd163721	-0.03667367
221	0x3db5722c	0.08859667
222	0x3d5d4ebc	0.054030165
223	0xbe035581	-0.12825586
224	0x3f256ba2	0.6461736
225	0xbeda54d3	-0.4264284
226	0xbe4dd78c	-0.20101756
227	0xbda7423a	-0.081669286
228	0xbdbf46c6	-0.09339671
229	0x3e46259c	0.19350284
230	0x3db7146f	0.08939444
231	0xbd9d5640	-0.076824665
232	0xbeea5767	-0.45769808
233	0x3d0e85b7	0.03479549
234	0xbd01c162	-0.031678565
235	0xbe0e4ea9	-0.13897194
236	0x3e117b35	0.14207156
237	0xbd9ffcdb	-0.078119
238	0x3db3c73d	0.08778236
239	0x3e29faa4	0.16599518
240	0xbd68bf1d	-0.056822885
241	0x3d1ae396	0.0378147
242	0xbe0faab9	-0.1402997
243	0x3f0c2351	0.5474139
244	0x3dfcfb4a	0.12352617
245	0xbdbba83d	-0.09162948
246	0x3cbdc0d4	0.023163237
247	0x3e72df9f	0.23718117
248	0xbdb469da	-0.08809252
249	0xbd61d27a	-0.055132367
250	0x3e906df8	0.282089
251	0xbe55ad0a	-0.2086679
252	0xbe6dd5ff	-0.23226164
253	0x3eab24bf	0.33426473
254	0x3e5bb3c5	0.21455295
255	0x3ed48f60	0.41515636

actor.0.bias f4 [64]
0	0xbcf438d4	-0.029812254
1	0xbe372a54	-0.1788724
2	0x3deafe8c	0.11474332
3	0xbdfa74c6	-0.12229304
4	0x3b028ee5	0.0019921598
5	0x3e1ceb12	0.15324047
6	0x3d022211	0.03177077
7	0x3dad9f51	0.08477653
8	0x39f01d2c	0.00045798102
9	0x3dd64a1d	0.10463355
10	0xbd99941b	-0.07498952
11	0xbd976497	-0.07392233
12	0xbe048bc3	-0.1294394
13	0xbe1a3c2b	-0.15062015
14	0x3d911b40	0.07085276
15	0x3e2980ea	0.16553083
16	0xbdbe4527	-0.092905335
17	0xbd150e10	-0.036390364
18	0x3d0a9684	0.03383495
19	0x3e5cbe5f	0.21556996
20	0x3d2babd2	0.041911907
21	0xbddcf324	-0.10788563
22	0xbda53beb	-0.08068069
23	0xbdae2247	-0.08502632
24	0xbe1d21b2	-0.15344885
25	0x3c870f0f	0.016486673
26	0xbd14d6bb	-0.036337595
27	0x3e03e253	0.12879305
28	0x3c9b2f18	0.018943354
29	0x3dba6a14	0.09102264
30	0xbe1519d4	-0.14560634
31	0x3d935587	0.071940474
32	0xbe18733d	-0.1488771
33	0xbddbd409	-0.10733802
34	0x3e33c9d7	0.17557465
35	0xbbeb9458	-0.007189315
36	0xbe57227e	-0.21009251
37	0xbd09bc2e	-0.033626728
38	0xbe27f91e	-0.16403624
39	0xbe4e1de9	-0.20128597
40	0xbcda727c	-0.026665919
41	0x3e0a1ed0	0.13488317
42	0x3cce2f82	0.025169138
43	0x3e18073f	0.14846514
44	0xbe71d48a	-0.23616233
45	0x3d2de545	0.042454977
46	0x3dd327cc	0.10310325
47	0xbe252448	-0.16127121
48	0x3de763cd	0.11298332
49	0xbbb40be1	-0.00549458
50	0x3e5ecbca	0.21757427
51	0xbd39e7e2	-0.045387156
52	0xbe6ae2ef	-0.22938131
53	0xbd741d86	-0.05959847
54	0x3d10257b	0.035191994
55	0xbde3c8a3	-0.11122253
56	0xbda0c769	-0.078505345
57	0xbdb1f909	-0.08690078
58	0x3e52a4d6	0.20570692
59	0x3d2a58aa	0.041588463
60	0xbdea723e	-0.11447571
61	0xbd0d51de	-0.034501903
62	0x3dbd75c4	0.09250978
63	0x3da2b71c	0.079450816

actor.2.weight f4 [64, 64]
0	0x3e3c1429	0.18367065
1	0xbd53d123	-0.05171312
2	0x3d91553d	0.07096336
3	0xbebb7006	-0.36608905
4	0x3d82be63	0.0638397
5	0xbe8661d3	-0.2624651
6	0x3eaea737	0.3411195
7	0x3eba911e	0.3643884
8	0xbeb56952	-0.35431916
9	0x3e9a33bc	0.30117595
10	0xbeab3901	-0.33441928
11	0x3ddc8f4a	0.10769518
12	0xbd58fd7b	-0.052976113
13	0xbc2c5e1f	-0.010520487
14	0x3d1a3c69	0.037655268
15	0xbe02b322	-0.12763646
16	0x3ea364a0	0.31912708
17	0xbe22fbc7	-0.15916358
18	0xbe18c49e	-0.14918754
19	0x3de505d2	0.11182751
20	0x3dbe3779	0.09287924
21	0x3e8e8f5a	0.27843744
22	0x3ea9be86	0.3315317
23	0xbec6a394	-0.38796675
24	0xbe6275e2	-0.22115281
25	0xbdb18935	-0.08668748
26	0xbd3a6998	-0.04551086
27	0xbe72aebd	-0.2369947
28	0xbce3dc75	-0.027815083
29	0xbeb126a9	-0.34599808
30	0xbe618538	-0.22023475
31	0x3b7921c1	0.0038014504
32	0xbe09e1e3	-0.13465075
33	0xbe8bbfd6	-0.27294797
34	0x3e8e00cc	0.27734983
35	0x3df99045	0.1218572
36	0xbdd7ef48	-0.10543686
37	0xbdfa4679	-0.12220473
38	0xbe1170a0	-0.1420312
39	0x3e39168a	0.18075004
40	0xbe7fdf5a	-0.24987546
41	0x3e0596e9	0.13045849
42	0xbe415efc	-0.1888389
43	0xbe2e1f68	-0.17004168
44	0xbdf75249	-0.120762415
45	0xbe17cab2	-0.14823416
46	0x3ea491c8	0.32142472
47	0x3d4caf4e	0.04997187
48	0x3c8b74d5	0.017023483
49	0xbb96ef01	-0.004606128
50	0xbdf72c81	-0.12069035
51	0x3d2268fb	0.0396509
52	0x3d4a4ea5	0.049391408
53	0xbeb676c7	-0.35637495
54	0xbe1d2a0b	-0.1534807
55	0xbe409a7c	-0.18808931
56	0xbd131718	-0.035910696
57	0xbcb2fa35	-0.021847824
58	0xbcb4f6fd	-0.02209043
59	0xbe2d42d5	-0.16920026
60	0xbe1b05d0	-0.15138936
61	0x3dd6c03c	0.104858845
62	0xbd08c8a2	-0.033394463
63	0xbd5d7363	-0.05406512
64	0xbdebc193	-0.11511531
65	0xbcceffe1	-0.025268497
66	0xbebdda52	-0.37080628
67	0xbd5a69c5	-0.053323526
68	0x3d80e8b4	0.062943846
69	0xbe93f4c2	-0.28897673
70	0xbd9f8286	-0.07788567
71	0x3eb6b618	0.35685802
72	0x3e22e9bb	0.15909474
73	0xbde69148	-0.11258179
74	0x3dd98ab0	0.10622156
75	0x3e812c38	0.2522905
76	0x3deb9112	0.11502279
77	0xbdd55253	-0.10416093
78	0xbd46b798	-0.048514932
79	0x3d181afb	0.037135106
80	0xbe505e94	-0.20348579
81	0x3da2ca86	0.079487845
82	0xbd94ba4e	-0.07262097
83	0xbdd3b36a	-0.10336955
84	0xbeb44a64	-0.35213006
85	0x3e3ee656	0.18642554
86	0x3dd9543b	0.10611769
87	0xbcdc9c3a	-0.026929963
88	0x3cda35e7	0.02663703
89	0x3ddf69b9	0.10908837
90	0x3e98fcd0	0.2988038
91	0x3c95887c	0.018253557
92	0xbce292fd	-0.02765798
93	0x3ed11a91	0.4084058
94	0x3e35b537	0.17744909
95	0xbe9b8d10	-0.3038106
96	0x3da6c7ac	0.08143553
97	0x3e012f35	0.12615664
98	0x3e06f404	0.13179022
99	0xbd00c1f9	-0.031434987
100	0xbd9220cd	-0.071351625
101	0xbd3ba8cd	-0.045815278
102	0x3e9b0ab9	0.30281618
103	0x3e280f1a	0.16412011
104	0x3d4ac7b7	0.04950687
105	0xbd66c178	-0.05633685
106	0xbe382a9f	-0.17985009
107	0x3dc2a6c5	0.09504465
108	0x3e08bb67	0.13352738
109	0x3d3123c6	0.043247007
110	0x3eab1e38	0.33421493
111	0x3d7d23b2	0.06180162
112	0xbda96049	-0.08270318
113	0xbddfafc2	-0.10922195
114	0x3d8c1da6	0.068415925
115	0x3e83976f	0.25701472
116	0xbe21b2e5	-0.15790899
117	0x3ea2731a	0.3172844
118	0xbc24dae5	-0.010061954
119	0xbca20d21	-0.019781651
120	0xbed013f1	-0.40640214
121	0x3ece8c4f	0.40341422
122	0x3e198c99	0.1499504
123	0x3d5ec939	0.05439112
124	0x3ecb420c	0.39698827
125	0x3dd1773a	0.10227819
126	0x3dfa6622	0.122265115
127	0x3e24c96b	0.1609246
128	0x3dd0ae46	0.1018949
129	0x3da384fd	0.0798435
130	0xbdcd3ff5	-0.100219645
131	0x3e18d2d9	0.14924182
132	0xbeb19f36	-0.3469178
133	0x3dcb79cc	0.0993534
134	0x3e0ab014	0.13543731
135	0xbc8d1623	-0.01722247
136	0x3e533d44	0.2062884
137	0xbdd929dc	-0.10603687
138	0x3c93f713	0.01806215
139	0x3e7983fc	0.24366754
140	0xbca4dcda	-0.020124841
141	0x3e2998b7	0.16562162
142	0xbdc21ce9	-0.094781704
143	0xbeab136b	-0.33413252
144	0xbe7d7449	-0.2475139
145	0xbe1468cf	-0.14493106
146	0x3e66fcbf	0.22557352
147	0xbedc6685	-0.43046966
148	0x3da62bfe	0.081138596
149	0xbe228d08	-0.15874112
150	0x3eb0a3c6	0.3449995
151	0x3eb74276	0.35792893
152	0x3ecff2b0	0.40614843
153	0x3e79e90b	0.24405305
154	0xbda752a5	-0.0817006
155	0xbe35d540	-0.1775713
156	0xbd9ca306	-0.07648282
157	0xbe6dc21d	-0.2321858
158	0xbd136741	-0.035987142
159	0x3dbc70d1	0.092012055
160	0xbdd6bc18	-0.10485095
161	0x3d92d608	0.071697295
162	0xbad3eb1b	-0.0016168089
163	0xbe0fcc2b	-0.14042728
164	0xbd13bb0d	-0.036067057
165	0x3e3ea1bb	0.18616383
166	0x3e405de3	0.18785815
167	0x3de899fb	0.113574944
168	0x3d24361a	0.040090658
169	0x3db5a31b	0.088690005
170	0xbd50a0fd	-0.05093478
171	0xbce3f77b	-0.027827969
172	0xbe4c8bf3	-0.19975261
173	0xbe0c3ef7	-0.13695894
174	0x3e7cd06e	0.24688885
175	0x3d9046a5	0.070447244
176	0x3e8ae9ac	0.27131402
177	0xbd0ac1fe	-0.03387641
178	0x3ea9ab96	0.33138722
179	0x3cb4f803	0.022090917
180	0x3c85dc35	0.016340354
181	0xbd5bf1fe	-0.05369758
182	0xbbf9ffcf	-0.0076293717
183	0xbde36339	-0.111029096
184	0xbeb4e9f2	-0.35334736
185	0x3e89a383	0.26882562
186	0xbdc3bece	-0.095578775
187	0xbde47b5f	-0.11156344
188	0x3d914112	0.07092489
189	0x3da12de6	0.078700826
190	0xbd3cb1d0	-0.046068013
191	0xbdb132f1	-0.086522944
192	0xbe8e195a	-0.27753717
193	0x3cd36926	0.025806975
194	0x3ba028fe	0.004887699
195	0xbe9c81bc	-0.3056773
196	0x3d02b2fe	0.03190898
197	0x3dfc4041	0.12316943
198	0xbdbd489c	-0.09242365
199	0x3db29a1b	0.087207995
200	0x3d34b8d8	0.044121593
201	0xbd9cfe4e	-0.07665692
202	0x3e5802c0	0.21094799
203	0xbe91e6ff	-0.2849655
204	0xbe29119a	-0.1651062
205	0xbed9fbd4	-0.42574942
206	0x3e037875	0.1283892
207	0xbe1cd746	-0.15316495
208	0x3ca8c427	0.020601345
209	0xbe3478fa	-0.17624274
210	0x3e945c38	0.28976607
211	0xbda9a16b	-0.08282741
212	0x3e6590ac	0.22418469
213	0xbd5eab80	-0.054362774
214	0xbdf0ea18	-0.117634
215	0xbd3ea115	-0.04654034
216	0x3d1b8724	0.037970677
217	0x3ec21fad	0.37914792
218	0xbe891862	-0.26776415
219	0xbd9c6a35	-0.07637445
220	0x3c5309c8	0.01288075
221	0xbcdad1d5	-0.026711384
222	0xbeb5146e	-0.3536715
223	0x3d27b12b	0.040940445
224	0xbe0274c1	-0.1273985
225	0xbdeb2501	-0.11481667
226	0xbe2e91df	-0.17047833
227	0x3e375d8d	0.1790678
228	0x3e5f57d1	0.21810843
229	0x3b7f6f7e	0.0038976367
230	0x3ea00906	0.31256884
231	0xbdc3c353	-0.095587395
232	0x3dcaea35	0.09907953
233	0xbea5df14	-0.32396758
234	0xbdd893a9	-0.10575039
235	0x3da7f3fa	0.08200832
236	0x3c7574ba	0.014981443
237	0x3e9f863f	0.3115711
238	0x3ec358a3	0.38153562
239	0x3dd0f257	0.10202473
240	0x3e86ab33	0.2630249
241	0xbca3ead6	-0.02000944
242	0xbe79052a	-0.24318376
243	0xbdf1f840	-0.11814928
244	0x3d4eea10	0.05051619
245	0x3e08d9d8	0.13364351
246	0x3e470f9f	0.19439553
247	0xbe96840c	-0.2939762
248	0x3e9563bd	0.29177657
249	0x3dfa4faf	0.1222223
250	0x3e99eb30	0.30062246
251	0xbe2cd357	-0.16877495
252	0xbc922869	-0.017841535
253	0x3e66795d	0.22507234
254	0xbc1e16ec	-0.00964902
255	0xbe5d8816	-0.21633944

actor.2.bias f4 [64]
0	0x3dc4152f	0.09574353
1	0xbdb67b15	-0.08910195
2	0xbd883829	-0.06651337
3	0x3daba74f	0.08381521
4	0x3e23113c	0.15924543
5	0xbe49c34b	-0.19703405
6	0x3e6bd48f	0.23030303
7	0xbe1d7210	-0.15375543
8	0xbe428341	-0.18995382
9	0x3e0fe6ed	0.14052935
10	0xbd1bcbee	-0.03803628
11	0x3e5d27cf	0.21597217
12	0xbd2062d5	-0.039156754
13	0xbddb2d78	-0.10702032
14	0x3e6c5152	0.23077896
15	0xbcdb6ee4	-0.026786275
16	0xbe66e9d2	-0.22550133
17	0xbd19c566	-0.03754177
18	0xbe5c8de9	-0.2153851
19	0xbe067c58	-0.13133371
20	0x3de99dc2	0.11407043
21	0x3c7ca30d	0.015419734
22	0xbd8522e7	-0.06500798
23	0x3e22a51d	0.15883298
24	0x3d28e198	0.041230768
25	0xbd5c53ea	-0.053790964
26	0xbe0a4434	-0.1350258
27	0x3e1831c1	0.1486273
28	0x3e23cf9b	0.15997164
29	0x3c6f8c0f	0.014620795
30	0xbdbb8662	-0.09156491
31	0x3e09b941	0.13449575
32	0x3e93f660	0.28898907
33	0x3ce65df3	0.02812097
34	0x3dfd277c	0.12361047
35	0x3da6c9cd	0.08143959
36	0xbdf7e772	-0.121046916
37	0x3d5f2e73	0.054487657
38	0x3e0c4014	0.13696319
39	0xbdb9b907	-0.09068494
40	0xbdb843b1	-0.08997286
41	0xbda1ecc3	-0.07906487
42	0x3e6a9b7b	0.22910874
43	0xbe17c2ad	-0.14820357
44	0xbe1c0e00	-0.15239716
45	0x3e206366	0.15662917
46	0xbe22e371	-0.15907075
47	0xbe37909b	-0.17926256
48	0x3e155a14	0.14585143
49	0x3df99a0e	0.12187587
50	0xbdce43a8	-0.10071498
51	0xbe090573	-0.13380985
52	0xbe51ab81	-0.2047558
53	0x3dcdc1b5	0.10046712
54	0x3d883454	0.06650606
55	0xbd870e9a	-0.06594582
56	0x3d1dbab5	0.038508136
57	0x3d0e3a48	0.03472355
58	0x3d5d62b0	0.054049194
59	0xbd01a055	-0.031647045
60	0xbda7af19	-0.08187694
61	0xbca00f95	-0.01953868
62	0x3d2f4f6f	0.042800363
63	0x3d9f1626	0.07767896

actor.4.weight f4 [3, 64]
0	0x3d2b9ff7	0.0419006
1	0xbd883b23	-0.066519044
2	0xbc14a970	-0.0090736
3	0x3d0b2c9b	0.033978086
4	0x3d784396	0.06061133
5	0xbd9b1a98	-0.07573432
6	0x3e3bde96	0.18346629
7	0xbddb545f	-0.10709452
8	0xbe6061e8	-0.21912348
9	0x3deb2b37	0.11482852
10	0x3cad65b0	0.021166652
11	0x3d6d0de3	0.05787457
12	0x3de611d2	0.11233868
13	0xbd2d0e1a	-0.042249776
14	0x3dda619c	0.10663149
15	0x3e001b6e	0.12510464
16	0xbd876e79	-0.06612868
17	0xbb0fdb8d	-0.002195093
18	0xbda526de	-0.08064054
19	0xbcf22747	-0.029559745
20	0x3e0e6172	0.1390436
21	0x3c51f7c9	0.012815424
22	0xbca08282	-0.019593481
23	0x3d32cc4a	0.043651856
24	0xbd01b837	-0.03166982
25	0xbd79dcae	-0.061001472
26	0xbd64e295	-0.055880148
27	0x3dfc925c	0.12332603
28	0x3e092c63	0.13395838
29	0x3d7e065a	0.062017776
30	0xbe2f0274	-0.1709078
31	0x3e087ab2	0.13328055
32	0x3dfab9b0	0.12242448
33	0x3c72c5f4	0.0148177035
34	0x3db27651	0.08713973
35	0x3ddab390	0.1067878
36	0xbe1a2991	-0.15054919
37	0x3d210154	0.039307907
38	0x3e1c9cc4	0.15294176
39	0xbd08bc1f	-0.03338253
40	0xbdef2173	-0.11676302
41	0x3b9dbf8b	0.0048140935
42	0x3de074b1	0.10959757
43	0xbe130cf3	-0.14360408
44	0xbd65c9cf	-0.056100663
45	0x3e1ecf70	0.15508819
46	0xbdb8db48	-0.090261996
47	0xbe0591b1	-0.13043858
48	0x3d962165	0.07330588
49	0x3e264c00	0.16239929
50	0xbcf002cf	-0.029298214
51	0xbe71ee0a	-0.23625961
52	0xbde57120	-0.112032175
53	0x3b95416b	0.0045549176
54	0x3de28e22	0.11062266
55	0xbd8794ec	-0.066202015
56	0x3c8be8d3	0.017078793
57	0x3d8d4715	0.068983234
58	0x3e202dfd	0.15642543
59	0xbda97753	-0.082747124
60	0xbd870d69	-0.06594355
61	0xba23dea4	-0.00062511326
62	0x3df493a8	0.11942226
63	0xbe30ede7	-0.17278253
64	0x3982c536	0.00024942466
65	0xbd88d005	-0.066803016
66	0xbd4f7ca7	-0.050655987
67	0xbd998bf2	-0.074973956
68	0xbdb5170f	-0.08842289
69	0x3c146a66	0.0090585705
70	0xbe633c44	-0.22190958
71	0x3d4a44ed	0.04938214
72	0xbc36ec15	-0.011164685
73	0xbcbda895	-0.023151675
74	0xbaa741fb	-0.0012760753
75	0xbd2b6df0	-0.04185289
76	0xbc339fd0	-0.010963395
77	0xbd3163b9	-0.043307994
78	0xbdf19c19	-0.117973514
79	0xbbf803e4	-0.007568823
80	0x3d5af1f6	0.05345341
81	0x3dcc5775	0.099776186
82	0x3d96fecc	0.073728174
83	0x3dd0e0c2	0.10199119
84	0x3dc99e73	0.09844675
85	0x3dd2e15c	0.1029689
86	0xbc38c0bf	-0.011276423
87	0xbd85a4a2	-0.06525542
88	0xbdf949cc	-0.12172279
89	0xbd9a8afe	-0.07546042
90	0x3c8aa0d9	0.016922401
91	0xbd3a2da3	-0.04545368
92	0xbd98fdd7	-0.07470291
93	0x3e2cde64	0.1688171
94	0x3ca004ab	0.019533476
95	0xbdb83bbd	-0.08995769
96	0xbe2865b9	-0.16445054
97	0x3d5fbec2	0.05462528
98	0xbd3886cb	-0.045050424
99	0x3c16ea24	0.009211097
100	0x3d9bc60e	0.07606135
101	0xbdc4c5a9	-0.09608013
102	0xbd9ef138	-0.077608526
103	0x3d2a1f64	0.041533843
104	0x3bd61d3a	0.006534246
105	0x3ce92946	0.028462064
106	0xbe06b9f1	-0.13156869
107	0xbdb5616e	-0.08856474
108	0x3e32a234	0.17444688
109	0xbd45d4d1	-0.04829866
110	0x3d5d37eb	0.054008406
111	0x3dcc640a	0.099800184
112	0xbc1d7077	-0.009609333
113	0x3cd1bb60	0.025602043
114	0x3dec7366	0.11545448
115	0xbcbfa345	-0.023393283
116	0x3e253b55	0.16135915
117	0xbe189ccb	-0.14903562
118	0x3d6d8936	0.057992183
119	0xbd008938	-0.031380862
120	0x3db30f45	0.08743147
121	0x3ae0bc3c	0.0017145942
122	0x3c0e2aaf	0.008677169
123	0xbd39695c	-0.045266494
124	0xbc84808d	-0.016174579
125	0x3dc86f0a	0.09786804
126	0x3cebbba4	0.028775997
127	0x3d26ef2f	0.040755447
128	0xbd32403e	-0.043518297
129	0x3e01a1c1	0.1265936
130	0x3d880305	0.06641201
131	0x3c8ef346	0.017449986
132	0x3cf34089	0.029693859
133	0x3d5f2eb9	0.054487918
134	0xbc03e611	-0.008050458
135	0x3d4d4c50	0.050121605
136	0x3e551f20	0.20812654
137	0xbd908d4e	-0.07058202
138	0xbc67e934	-0.014154721
139	0xbcd4a1eb	-0.025956115
140	0xbdcbd497	-0.09952658
141	0x3da97172	0.08273591
142	0x3b01f49b	0.0019829634
143	0xbde1abd3	-0.11019101
144	0x3c571360	0.013127178
145	0xbdb2357a	-0.08701606
146	0x3b1fde67	0.0024394037
147	0xbd7d5a88	-0.061853915
148	0xbe473565	-0.19453962
149	0xbdf82a97	-0.12117498
150	0x3c81111c	0.015755229
151	0x3c99b5fa	0.018763531
152	0x3e1217c5	0.1426688
153	0x3e090bf2	0.13383463
154	0x3d2767ba	0.040870406
155	0xbd90b5eb	-0.07065948
156	0xbd403ad8	-0.046931118
157	0xbe5f0db0	-0.21782565
158	0x3e07814c	0.13232917
159	0xbd21ece8	-0.039532572
160	0x3d23ae38	0.03996107
161	0xbda6eeeb	-0.08151039
162	0xbd244cb6	-0.04011222
163	0xbdd06d85	-0.10177139
164	0x3d80c606	0.0628777
165	0x3d7a8121	0.061158303
166	0xbd8a88ba	-0.0676436
167	0xbc4707fc	-0.0121479
168	0x3dd0cfb4	0.10195866
169	0xbd23ba77	-0.03997275
170	0x3c9f5c5a	0.019453216
171	0x3e4e6560	0.20155859
172	0xbdd315e2	-0.10306908
173	0xbdbbb058	-0.09164494
174	0x3ce3a454	0.027788319
175	0x3cd6a6f4	0.026202656
176	0xbd80f085	-0.062958755
177	0xbe1db5ac	-0.15401334
178	0xbdbf52e9	-0.09341986
179	0x3e68ede2	0.22746995
180	0xbcd99c78	-0.026563868
181	0x3e09ff3b	0.13476269
182	0xbe24c3ff	-0.16090392
183	0x3dc896aa	0.09794362
184	0xbde0750d	-0.10959826
185	0xbd98882c	-0.07447848
186	0xbe1b219f	-0.15149544
187	0x3df02576	0.11725895
188	0x3da6f6b6	0.08152525
189	0xbdd421ca	-0.10358007
190	0xbe1464d1	-0.14491583
191	0x3dfe76ef	0.124250285

actor.4.bias f4 [3]
0	0x3e1b1416	0.15144381
1	0xbdc069bc	-0.09395167
2	0xbd3c0ab1	-0.045908634

critic.0.weight f4 [64, 6]
0	0x3c1f421b	0.009720351
1	0xbee319ea	-0.44355708
2	0x3d70d440	0.058796167
3	0x3ec82eed	0.39098302
4	0xbe31d36e	-0.1736581
5	0x3e5960f1	0.21228386
6	0x3dc5e985	0.09663681
7	0xbe4a731e	-0.19770476
8	0x3e0acb6b	0.1355416
9	0xbe8d04d7	-0.27542755
10	0x3da668b2	0.08125438
11	0x3e09ab5a	0.13444272
12	0x3ecd1bcc	0.4006027
13	0xbccfaaa3	-0.02534992
14	0xbdde4774	-0.10853472
15	0x3e0aa927	0.13541089
16	0xbe4edcde	-0.20201442
17	0xbe51b30a	-0.20478454
18	0xbd63e249	-0.055635724
19	0xbe821a90	-0.2541089
20	0xbe0f1aae	-0.13975021
21	0xbe2b961e	-0.16756484
22	0x3dcd1797	0.10014265
23	0xbd7a5809	-0.061119113
24	0x3dec0a10	0.11525357
25	0xbcc8968b	-0.024485847
26	0x3e64bb26	0.22337016
27	0x3df2012e	0.11816631
28	0xbe67d6fd	-0.22640605
29	0xbe0b2cd5	-0.13591321
30	0xbdb78ccf	-0.08962404
31	0x3d46859a	0.048467256
32	0xbe5064a3	-0.2035089
33	0x3d940011	0.07226575
34	0x3d897108	0.06711012
35	0xbde6d4d0	-0.112710595
36	0xbea0fb12	-0.3144155
37	0x3e1a01cd	0.1503975
38	0x3ea87934	0.3290497
39	0x3d50bf2c	0.050963566
40	0x3e6a9a4a	0.22910419
41	0xbd8c2990	-0.06843865
42	0x3ec5738f	0.38564727
43	0xbe4ec542	-0.20192435
44	0x3ceebf04	0.029143818
45	0xbc8d50a5	-0.017250368
46	0xbd8de992	-0.069293156
47	0x3d9a0003	0.075195335
48	0x3e97209e	0.29517072
49	0xbd9f3801	-0.07774354
50	0x3d707834	0.058708385
51	0x3ddb6202	0.10712053
52	0xbabea021	-0.0014543572
53	0xbe28cc7d	-0.16484256
54	0x3e2d8495	0.16945107
55	0x3e39cfdd	0.181457
56	0x3afafb8f	0.0019148457
57	0xbe72dd38	-0.23717201
58	0x3d9b60c7	0.07586818
59	0xbe640f02	-0.2227135
60	0xbad7b174	-0.0016456083
61	0x3dc3dffc	0.09564206
62	0xbe6f0dc8	-0.23345101
63	0xbd164243	-0.036684286
64	0xbdbfbc11	-0.09362043
65	0x3d50a7a8	0.05094114
66	0xbe2762d5	-0.16346295
67	0x3ea38aea	0.3194192
68	0xbdf88fe5	-0.12136821
69	0x3e1bfb43	0.15232567
70	0x3e8ec606	0.27885455
71	0x3e0eea22	0.13956502
72	0xbd7d54dd	-0.06184851
73	0xbe722d2b	-0.23650043
74	0x3e4c102c	0.19928044
75	0xbda149e2	-0.0787542
76	0x3e4233c1	0.18965055
77	0xbe065480	-0.13118172
78	0x3e371549	0.17879213
79	0x3eeb196d	0.45917836
80	0x3cb02df2	0.021506283
81	0x3e98fb9b	0.2987946
82	0x3dcf78be	0.101304516
83	0x3df1100c	0.11770639
84	0x3ea04bac	0.31307733
85	0xbe9c79d2	-0.30561692
86	0x3e0a05be	0.13478753
87	0x3d25604e	0.040375046
88	0xbe39d4aa	-0.18147531
89	0xbe46f4b1	-0.1942928
90	0x3e35e0fa	0.17761603
91	0xbe072cde	-0.13200709
92	0x3efe854c	0.49711072
93	0xbdabd16a	-0.08389552
94	0x3ee7900c	0.45227087
95	0x3e823784	0.2543298
96	0x3efbc7d4	0.49175894
97	0xbdbe92d3	-0.09305348
98	0xbe362b2e	-0.17789909
99	0x3c7b471f	0.015336781
100	0xbeb58d26	-0.3545925
101	0xbe414152	-0.18872574
102	0xbe8fc38e	-0.28078884
103	0xbedabd6b	-0.4272264
104	0xbd3040f1	-0.043030683
105	0x3ee1109d	0.43957987
106	0x3ec82dd4	0.39097464
107	0x3e3985ef	0.18117498
108	0xbe8b7868	-0.272403
109	0xbe825325	-0.2545406
110	0x3e3f5682	0.18685344
111	0x3e4fcb0f	0.20292304
112	0xbdecb754	-0.115584046
113	0x3e87035c	0.2636975
114	0x3e2fe1a9	0.17175926
115	0x3e619815	0.22030671
116	0x3db26e31	0.087124236
117	0x3e37a724	0.17934853
118	0xbcdd9478	-0.027048334
119	0x3e022a4f	0.12711452
120	0xbe2ff3cf	-0.1718285
121	0xbd5d1d4b	-0.053983014
122	0xbe6d744e	-0.23188898
123	0x3e988e26	0.2979595
124	0x3ebca528	0.36844754
125	0x3e332567	0.17494737
126	0x3d68e82e	0.05686205
127	0x3e090265	0.1337982
128	0xbe06f56e	-0.13179561
129	0xbe03d1ea	-0.12873045
130	0xbd45f206	-0.048326515
131	0xbde7b43a	-0.11313672
132	0xbe7c029f	-0.24610375
133	0xbea66ae7	-0.32503435
134	0xbe8c09e2	-0.2735129
135	0x3d898c2c	0.06716189
136	0xbe91a9a6	-0.28449744
137	0xbda1b243	-0.07895329
138	0xbe8515b5	-0.25993124
139	0x3e9c6bf8	0.30551124
140	0x3de7653b	0.11298605
141	0x3b264801	0.0025372508
142	0xbec7cfa6	-0.3902561
143	0xbdd2060d	-0.1025506
144	0x3e6e502c	0.2327277
145	0xbe0cf005	-0.13763435
146	0x3d2965fe	0.041357033
147	0x3dd7c5ff	0.10535812
148	0x3e5348b9	0.2063321
149	0xbc32fc18	-0.010924362
150	0xbeedb6ab	-0.46428427
151	0xbe3e97dd	-0.18612619
152	0x3e1cbdc5	0.15306766
153	0x3e841caa	0.2580312
154	0xbe051e1c	-0.12999767
155	0x3e3c9fde	0.1842036
156	0x3dc144d3	0.09436955
157	0x3e2741b9	0.16333665
158	0xbec28987	-0.3799555
159	0xbd7f21ae	-0.06228798
160	0xbe0e0691	-0.13869692
161	0xbe197915	-0.14987595
162	0xbdac849a	-0.08423729
163	0xbeb9ec5b	-0.36313137
164	0xbe7156be	-0.23568246
165	0x3d3f00e5	0.046631712
166	0x3e825b73	0.25460395
167	0x3e01d481	0.1267872
168	0xbdec0d87	-0.11526018
169	0x3e2d6c12	0.16935757
170	0xbd37d31a	-0.044879057
171	0x3e80ad56	0.25132245
172	0xbe8af5a4	-0.27140534
173	0xbe1eb8b6	-0.15500149
174	0x3b9ea623	0.0048415824
175	0x3cc7d125	0.02439172
176	0x3d018d16	0.03162869
177	0xbe1901ea	-0.14942136
178	0xbdc0350c	-0.09385118
179	0xbdfdc3b8	-0.12390846
180	0x3ea561ae	0.32301086
181	0x3e7c86a6	0.2466074
182	0x3e3094ac	0.17244214
183	0x3de1bad7	0.11021965
184	0xbeadc711	-0.33940938
185	0xbe2a7823	-0.16647391
186	0xbcdfbc63	-0.02731151
187	0xbd036154	-0.03207524
188	0x3ea11ba7	0.3146641
189	0x3db73fa3	0.089476846
190	0xbd54aaa9	-0.051920567
191	0xbe2e0ba7	-0.16996633
192	0xbe092ace	-0.13395235
193	0xbe9d233a	-0.30690938
194	0xbdc84b85	-0.09780029
195	0x3ec54f1c	0.38536918
196	0xbead6e8d	-0.33873406
197	0xbe32e962	-0.17471841
198	0x3e811c0e	0.25216717
199	0xbe47089e	-0.19436881
200	0x3d19a73d	0.037513006
201	0xbec945eb	-0.39311156
202	0xbe0a1256	-0.13483557
203	0xbe0d1576	-0.13777718
204	0xbdb1255a	-0.08649702
205	0xbe9cd9a9	-0.30634812
206	0x3d078fb7	0.03309604
207	0xbc8b2c16	-0.016988795
208	0xbdae1617	-0.08500307
209	0xbe68a0ca	-0.22717586
210	0xbeb8f6c3	-0.36125764
211	0xbc9f345c	-0.019434147
212	0x3d47fac5	0.048823137
213	0x3e2a9df5	0.16661818
214	0x3e8e9405	0.27847305
215	0x3d1f9778	0.03896281
216	0xbea07132	-0.3133636
217	0x3d9796bc	0.07401797
218	0xbe069b83	-0.1314526
219	0x3c586fbb	0.013210232
220	0x3e9291a4	0.2862674
221	0x3de44e5e	0.1114776
222	0x3d62f0a5	0.055405278
223	0x3dbf60b3	0.09344616
224	0x3deae921	0.11470247
225	0xbdfdc518	-0.12391108
226	0xbe3c701d	-0.18402143
227	0x3dce3039	0.100677915
228	0xbf0d6f64	-0.55248094
229	0x3e2983cd	0.16554184
230	0xbc8dd102	-0.017311577
231	0x3d937a29	0.072010346
232	0x3d3442fe	0.0440092
233	0xbe60aa86	-0.2194005
234	0xbd27501a	-0.040847875
235	0xbea9c6b6	-0.33159417
236	0x3e8e54a2	0.27798945
237	0x3e348bf9	0.1763152
238	0x3dbfda59	0.093678184
239	0x3e22acd7	0.15886246
240	0x3f084be2	0.5324079
241	0x3d78ad84	0.060712352
242	0x3b7ac303	0.0038263209
243	0x3d64354e	0.055714898
244	0xbcd3f8db	-0.0258755
245	0xbe571f85	-0.21008117
246	0xbe35d2a9	-0.17756142
247	0xbd657636	-0.056020938
248	0xbe29aad2	-0.16569069
249	0xbdddc105	-0.10827831
250	0xbeadf476	-0.3397557
251	0xbdff2041	-0.12457324
252	0x3d5c8e21	0.053846482
253	0xbe2a3a61	-0.16623832
254	0xbe7f993d	-0.249608
255	0xbd87938d	-0.0661994

critic.0.bias f4 [64]
0	0xbd724498	-0.059147447
1	0x3e2cc066	0.16870269
2	0x3e92cab4	0.28670275
3	0xbe5bd320	-0.21467257
4	0xbd5d0ad2	-0.053965397
5	0xbe3ac0ef	-0.18237661
6	0xbe1c10c9	-0.15240778
7	0x3e5fb294	0.21845466
8	0x3eac961b	0.3370827
9	0x3e219eda	0.15783253
10	0xbe0276fc	-0.12740701
11	0xbea4b9e2	-0.32173067
12	0xbe51c840	-0.20486546
13	0x3e8495f9	0.2589567
14	0x3e3b5260	0.18293142
15	0x3e014ac1	0.12626173
16	0x3e516fb1	0.20452763
17	0x3ca19444	0.019724019
18	0xbc0558dc	-0.0081388615
19	0x3e700e5a	0.23442975
20	0xbe467f53	-0.19384508
21	0xbe11eaf2	-0.14249781
22	0xbe9433b5	-0.289457
23	0xbe9202c8	-0.28517747
24	0x3e4c20f8	0.19934452
25	0xbe306acf	-0.17228244
26	0xbe3ac931	-0.18240811
27	0xbe0d378b	-0.13790719
28	0xbe8059fd	-0.25068656
29	0xbe4a9754	-0.1978429
30	0x3e131454	0.14363223
31	0x3e423eae	0.18969223
32	0xbeb00f54	-0.34386694
33	0x3e1fef8d	0.15618725
34	0xbe89bc87	-0.26901647
35	0xbdf300a8	-0.118653595
36	0xbde73563	-0.112894796
37	0xbe2ac836	-0.16677937
38	0xbe9e2b5e	-0.30892462
39	0x3e3624e7	0.17787515
40	0x3ea6405b	0.32470974
41	0xbe8112f6	-0.2520978
42	0x3e010f0d	0.12603398
43	0x3e82d32d	0.2555174
44	0x3e81ef72	0.25377995
45	0x3e5daf6f	0.21648954
46	0xbcdae02b	-0.02671822
47	0x3e9e325b	0.30897793
48	0xbe4e1773	-0.20126133
49	0x3e3b916f	0.18317197
50	0x3e161680	0.1465702
51	0x3e8002ac	0.25002038
52	0xbe654ead	-0.22393294
53	0x3eaa90c1	0.33313563
54	0xbe4637b2	-0.19357184
55	0x3e9ce57f	0.30643842
56	0xbe54a70d	-0.2076685
57	0xbc0fd5a0	-0.0087789595
58	0x3e5ffd69	0.21874012
59	0x3e8d985a	0.27655298
60	0xbe7b3b55	-0.24534352
61	0x3dfb5312	0.12271704
62	0xbe3a9324	-0.18220192
63	0x3eaa0374	0.3320576

critic.2.weight f4 [64, 64]
0	0xbd3da57e	-0.046300404
1	0xbee3b0c8	-0.4447081
2	0x3e473237	0.19452749
3	0x3e75bc75	0.23997672
4	0x3d305a93	0.04305513
5	0x3e5ee871	0.21768357
6	0x3d848322	0.06470324
7	0xbd92f6ad	-0.07175956
8	0x3e02953d	0.12752242
9	0x3e6058b3	0.21908836
10	0xbdb9cfc6	-0.09072833
11	0x3e70d21e	0.23517653
12	0xbd8a238b	-0.067450605
13	0xbf41eb60	-0.7574978
14	0x3e349eaf	0.17638658
15	0xbdd3eb06	-0.103475615
16	0xbe0ea5c3	-0.1393042
17	0x3cbd28db	0.02309077
18	0x3e1ed909	0.1551248
19	0xbd99e4e2	-0.07514359
20	0x3df8ee45	0.12154821
21	0x3e8d0fb2	0.27551037
22	0xbc6ccf5e	-0.014453737
23	0x3e5ca501	0.21547319
24	0x3e112886	0.14175615
25	0x3e0b45f9	0.13600911
26	0x3dab103e	0.08352707
27	0xbe0ba51c	-0.13637203
28	0x3e3ba13f	0.18323229
29	0xbdcef7e1	-0.10105873
30	0x3e3033be	0.17207238
31	0xbc9f1df7	-0.019423468
32	0xbcb7b5b2	-0.022425506
33	0x3e00b796	0.12570032
34	0x3e5d2393	0.21595602
35	0xbda3d022	-0.079986826
36	0x3e32a14b	0.17444341
37	0x3e5c81f6	0.21533951
38	0xbd4967fb	-0.04917143
39	0xbe50775c	-0.20358032
40	0xbd79f717	-0.06102666
41	0x3e381307	0.17976008
42	0x3e9fca4d	0.3120903
43	0x3e5e3146	0.21698484
44	0xbeb1e23d	-0.3474292
45	0xbe82c99f	-0.2554445
46	0xbdb77ccf	-0.08959352
47	0xbe8b10b0	-0.2716117
48	0xbcf52033	-0.02992258
49	0xbf07d8b0	-0.53065014
50	0xbef8697a	-0.48517972
51	0x3d182dc7	0.03715303
52	0xbe6f8da9	-0.23393883
53	0xbe84b81b	-0.2592171
54	0x3e669b62	0.22520211
55	0xbad1fa5f	-0.0016020051
56	0xbe091a0f	-0.13388847
57	0x3e09a3bc	0.13441366
58	0xbde10beb	-0.10988601
59	0xbe0e90aa	-0.13922372
60	0xbdaa54af	-0.08316933
61	0xbdd30dce	-0.103053674
62	0xbe635a62	-0.22202447
63	0x3d744d81	0.059644226
64	0x3e458200	0.19287872
65	0x3e3058f1	0.17221428
66	0xbe298bf4	-0.16557294
67	0x3e126279	0.14295377
68	0xbec2b1cf	-0.38026282
69	0x3d01ab38	0.031657428
70	0xbbd11637	-0.006380822
71	0x3ed6cd96	0.41953725
72	0x3d6a4b36	0.057200633
73	0xbe83297e	-0.25617594
74	0x3e155692	0.14583805
75	0xbe9eeb70	-0.31039
76	0xbe0e7445	-0.13911541
77	0x3e5064a6	0.20350894
78	0xbe064c13	-0.13114958
79	0xbcca0db2	-0.024664734
80	0xbeba1aab	-0.3634847
81	0x3eece8f4	0.4627148
82	0x3ea00451	0.31253293
83	0xbc66d542	-0.014088931
84	0x3e782aee	0.24235126
85	0xbe052e0b	-0.13005845
86	0xbc0102b8	-0.007874183
87	0xbe435c67	-0.19078217
88	0x3eb3a7a1	0.35088828
89	0x3eacbdf6	0.3373868
90	0x3e5bef24	0.21477944
91	0x3eaa8275	0.33302656
92	0xbe9dfb26	-0.30855674
93	0xbe700410	-0.2343905
94	0xbea83aa7	-0.32857248
95	0xbeabde89	-0.33568218
96	0x3ba4c1e7	0.005027998
97	0xbf16d17f	-0.58913416
98	0xbe5994b5	-0.21248133
99	0x3ed6e748	0.4197333
100	0x3de87e04	0.113521606
101	0xbbca6dbd	-0.0061776326
102	0x3e350b94	0.17680198
103	0x3e764d9f	0.24053048
104	0x3dde4baf	0.10854279
105	0x3ea5628a	0.32301742
106	0x3d50f337	0.051013198
107	0xbe4437ff	-0.19161986
108	0xbbc50cdd	-0.0060134963
109	0xbed3fdf0	-0.41404676
110	0x3d5fd2e1	0.05464447
111	0xbecc48ce	-0.39899296
112	0x3d8dea4c	0.06929454
113	0x3e67aae0	0.22623777
114	0xbeade975	-0.33967176
115	0xbeacea32	-0.33772427
116	0x3d10f53f	0.035390135
117	0x3e8751ea	0.26429683
118	0xbe0ec968	-0.13944018
119	0x3c8830e5	0.016624877
120	0xbe1b5e58	-0.15172708
121	0x3e66e663	0.22548823
122	0x3e60c712	0.2195094
123	0xbdafcec8	-0.08584362
124	0x3d3f04e6	0.04663553
125	0xbdb6be93	-0.08923068
126	0xbd730ffa	-0.05934141
127	0xbe385af7	-0.1800345
128	0x3e521d6a	0.20519033
129	0xbb2a79bc	-0.00260125
130	0xbb672949	-0.003527241
131	0xbe3c21b1	-0.18372227
132	0x3cd969df	0.026539741
133	0xbe09227e	-0.13392064
134	0xbe998eff	-0.2999191
135	0x3e17aae8	0.1481129
136	0xbdb38adf	-0.08766722
137	0x3d8dbee7	0.06921177
138	0x3dca2c95	0.098717846
139	0x3e08f154	0.1337331
140	0xbe3d4c31	-0.18486096
141	0x3dbd8cde	0.09255384
142	0x3da51e32	0.080624
143	0xbe2d0642	-0.16896918
144	0x3dfef51b	0.12449094
145	0xbef244a1	-0.47317985
146	0x3e38a91b	0.18033259
147	0x3e30eab7	0.17277037
148	0xbea1836f	-0.31545588
149	0x3ca32ced	0.019918883
150	0x3e82390d	0.2543415
151	0x3ed32286	0.41237277
152	0xbf05033b	-0.51958054
153	0xbe1fb622	-0.15596822
154	0x3e9d7500	0.30753326
155	0xbe44dced	-0.19224901
156	0x3ee60940	0.44928932
157	0xbd90889f	-0.070573084
158	0x3e84892b	0.258859
159	0xbed46531	-0.41483453
160	0x3e6ac4a2	0.22926572
161	0xbe69a538	-0.22816932
162	0x3e155c87	0.14586078
163	0xbd8a5bdc	-0.06755802
164	0x3e1b46c3	0.15163712
165	0x3e2a44eb	0.16627853
166	0xbe9034cd	-0.28165284
167	0xbd8db759	-0.069197364
168	0x3d5e16c1	0.05422092
169	0x3f389525	0.72102576
170	0xbd0deac3	-0.034647714
171	0x3df8c849	0.12147576
172	0x3d4bff2f	0.04980391
173	0x3e6dfaef	0.23240255
174	0x3d6d5f5a	0.057952262
175	0x3db2fc55	0.08739535
176	0x3e8526cc	0.26006162
177	0x3e2e5876	0.17025933
178	0x3ecb126b	0.3966249
179	0x3f13b7c4	0.5770228
180	0xbe4c6b57	-0.19962822
181	0x3e95e73d	0.29277983
182	0x3e383870	0.17990279
183	0x3dae755d	0.08518479
184	0x3efc7809	0.4931033
185	0xbe277632	-0.16353682
186	0xbdfc8eef	-0.1233195
187	0xbe17b73f	-0.14815997
188	0xbe1a0ed5	-0.1504472
189	0x3e350553	0.17677812
190	0x3eac7b83	0.33687982
191	0xbe5e168e	-0.21688291
192	0xbe095b60	-0.13413763
193	0xbd37ea82	-0.04490138
194	0x3e42ec21	0.19035389
195	0x3ea2ef22	0.3182307
196	0xbe14e1a5	-0.14539202
197	0x3c02e122	0.007988246
198	0x3df90325	0.12158803
199	0x3c0198fe	0.007910011
200	0xbe0af2ee	-0.13569233
201	0x3db59fae	0.08868347
202	0x3eb5e5c4	0.3552686
203	0xbe15d59f	-0.14632271
204	0xbe4999df	-0.19687603
205	0xbe86ba30	-0.26313925
206	0x3c87d382	0.016580347
207	0xbef5389e	-0.47894758
208	0xbd60f4ec	-0.054921076
209	0xbe91b1ef	-0.28456065
210	0xbed1624a	-0.408953
211	0xbd37b691	-0.044851843
212	0xbe6d8a3e	-0.23197266
213	0x3e89851d	0.2685937
214	0x3e8775b9	0.26457003
215	0x3c673b37	0.014113239
216	0xbd97775c	-0.07395813
217	0xbe11f824	-0.14254814
218	0x3df4ac8d	0.11946974
219	0xbce35fd6	-0.02775566
220	0x3e07b35c	0.13252014
221	0x3f00db81	0.50334936
222	0xbd591a53	-0.05300362
223	0xbe337c46	-0.17527875
224	0x3e0b9361	0.1363044
225	0x3cd96328	0.02653654
226	0x3e344a31	0.17606427
227	0xbdf7105a	-0.12063666
228	0xbed6a8eb	-0.4192575
229	0x3ec4cc06	0.38436908
230	0xbf0496cf	-0.51792616
231	0xbe8f27c8	-0.27960038
232	0x3e41c64a	0.18923298
233	0x3ead8e55	0.33897653
234	0x3e224f0f	0.15850471
235	0xbe354743	-0.17702965
236	0x3cf0eff1	0.029411288
237	0xbc0fe727	-0.008783138
238	0x3df9e7e1	0.122024305
239	0xbc8c2f96	-0.017112534
240	0x3cac99f3	0.021069502
241	0xbe6851b6	-0.2268742
242	0xbd634b58	-0.055491775
243	0x3f12a7fe	0.57287586
244	0xbd3e8a3b	-0.046518546
245	0xbde00256	-0.109379455
246	0xbd09f250	-0.033678353
247	0xbeab4f4a	-0.3345893
248	0x3ef1295a	0.4710186
249	0xbe6d6608	-0.23183453
250	0xbddfb966	-0.10924034
251	0xbd7f1bc4	-0.06228234
252	0x3c6a2731	0.0142915705
253	0x3dce4c9d	0.100732066
254	0x3de49ae0	0.111623526
255	0x3e1c9500	0.15291214

critic.2.bias f4 [64]
0	0x3c17836d	0.009247643
1	0xbc9265cd	-0.017870808
2	0x3e5d792c	0.21628255
3	0x3aa652a4	0.0012689424
4	0x3e700386	0.23438844
5	0xbd5d13dc	-0.053974018
6	0x3dcf69fb	0.10127636
7	0x3df51e47	0.119686656
8	0xbdca0f5d	-0.098662116
9	0xbe198aa7	-0.14994298
10	0x3d672869	0.056435023
11	0x3e7e3d43	0.24828057
12	0x3e105beb	0.14097564
13	0xbdc86055	-0.09783999
14	0xbe571760	-0.2100501
15	0xbde61aae	-0.112355575
16	0x3dfa4535	0.122202314
17	0xbe374f1c	-0.17901272
18	0xbd62b8f3	-0.055352163
19	0x3e3933ad	0.18086119
20	0x3c319f4a	0.0108412
21	0x3e07ff99	0.13281097
22	0x3e826efb	0.25475296
23	0xbce315bb	-0.027720323
24	0xbdbd3648	-0.09238869
25	0xbe1a46da	-0.1506609
26	0xbdd62166	-0.10455589
27	0x3e3529ae	0.17691681
28	0xbc8f6274	-0.017503
29	0x3e91a084	0.28442776
30	0x3d45e25a	0.04831157
31	0xba6fbcf2	-0.00091452815
32	0x3d58b569	0.05290738
33	0x3d110ced	0.035412718
34	0xbe7017ec	-0.23446625
35	0xbd1447db	-0.03620134
36	0x3dd1a2e2	0.102361456
37	0x3dfee321	0.12445665
38	0x3da3b366	0.07993202
39	0xbe839787	-0.25701544
40	0x3e7bf2b5	0.24604304
41	0xbd8ffd27	-0.07030707
42	0xbe67fa5e	-0.22654101
43	0xbd6439e3	-0.055719268
44	0x3e7439db	0.23850195
45	0xbd1a6954	-0.037698105
46	0x3bed2b27	0.00723781
47	0xbe2027c4	-0.1564017
48	0xbe0f94c2	-0.1402159
49	0xbd8366cf	-0.064160936
50	0xbe1e6724	-0.15469033
51	0xbd8c70ff	-0.0685749
52	0xbddf6a48	-0.109089434
53	0x3d954543	0.07288601
54	0xbd65367d	-0.055960167
55	0x3e482a05	0.19547279
56	0xbd875c5d	-0.06609414
57	0x3de42147	0.1113916
58	0x3d99dd52	0.075129166
59	0xbe96402f	-0.29345843
60	0x3dfe325c	0.12411949
61	0xbda74f84	-0.08169463
62	0x3d535c17	0.051601496
63	0xbc621f98	-0.013801478

critic.4.weight f4 [1, 64]
0	0x3f7294ca	0.94758284
1	0x3f7dd134	0.99147344
2	0x3f6b1e44	0.91843057
3	0x3f8366e7	1.0265778
4	0xbf6830d4	-0.90699506
5	0x3f6abaa8	0.91691065
6	0xbf8d9551	-1.1061193
7	0xbf6fd517	-0.93684524
8	0x3f5a6df8	0.8532405
9	0x3f6730a4	0.90308595
10	0xbf8914b5	-1.0709444
11	0xbf648188	-0.8926015
12	0xbf688f4a	-0.9084364
13	0xbf7d15a3	-0.9886114
14	0x3f61fad9	0.8827339
15	0xbf8dec60	-1.1087761
16	0xbf74ca32	-0.95621026
17	0x3f8427b8	1.0324621
18	0x3f67ce4d	0.90549165
19	0xbf7b592a	-0.9818293
20	0xbf8b3e81	-1.087845
21	0xbf663d2b	-0.89937085
22	0xbf689741	-0.90855795
23	0x3f6ffa6d	0.93741494
24	0x3f91d06d	1.1391732
25	0x3f553847	0.83289
26	0x3f927744	1.1442647
27	0xbf7bf160	-0.98415184
28	0x3f72949d	0.94758016
29	0xbf644fcc	-0.8918426
30	0x3f826d21	1.0189553
31	0x3f8831d2	1.0640204
32	0x3f7ff9a4	0.99990296
33	0xbf88a698	-1.067584
34	0x3f6f4872	0.9346992
35	0x3f6d9409	0.9280401
36	0x3fa17ef5	1.2616869
37	0xbf859550	-1.0436192
38	0x3f773e4c	0.9657943
39	0x3f7fd4fd	0.9993437
40	0xbf68b64b	-0.90903157
41	0x3f6d5940	0.9271431
42	0x3f6a9c0f	0.91644377
43	0xbf6b2237	-0.9184908
44	0xbf721658	-0.94565344
45	0xbf7a8121	-0.97853285
46	0xbf7a0bbe	-0.9767417
47	0x3f73038f	0.94927305
48	0x3f857aac	1.0428061
49	0x3f95adcc	1.1693664
50	0x3f60e7e5	0.8785384
51	0x3f6ea6d7	0.9322333
52	0x3f8ca714	1.0988488
53	0xbf6df0d7	-0.9294562
54	0xbf898858	-1.0744734
55	0xbf7a6219	-0.97805935
56	0xbf82c7fd	-1.0217282
57	0xbf9f4e42	-1.2445757
58	0xbf5d810c	-0.86525035
59	0x3f5ffdfc	0.87496924
60	0xbf7fb4e3	-0.99885386
61	0x3f8a97ec	1.0827613
62	0xbf8390bb	-1.0278543
63	0xbf857ce5	-1.042874

exp_avg f4 [64, 6]
0	0x3b160aac	0.0022894545
1	0x3b43f9cb	0.0029903527
2	0x38c6d80e	9.481619e-05
3	0x3a9387de	0.0011255702
4	0x3b96b471	0.004599147
5	0xbc065c9b	-0.00820079
6	0x3aa781cd	0.0012779773
7	0x3b36b302	0.0027877693
8	0x3b2b6dae	0.0026157903
9	0x3a09d2a5	0.0005257524
10	0xbb18ab67	-0.0023295523
11	0xbc0d7755	-0.008634408
12	0x3ace34b8	0.0015732264
13	0x3abc9745	0.0014388344
14	0x399651ef	0.00028671275
15	0xbb1f3c75	-0.002429751
16	0x3ab0b79f	0.0013482458
17	0xbbf7fcc8	-0.0075679757
18	0x3b162650	0.002291102
19	0x3b3b8e14	0.002861862
20	0x39ebaf97	0.00044953517
21	0x3a431dba	0.0007443089
22	0x3b897a02	0.0041954527
23	0xbc106f40	-0.008815587
24	0x3ae9c127	0.0017834053
25	0x3b518aa3	0.0031973503
26	0x3a8c8234	0.0010719956
27	0x39ec3d2d	0.00045059007
28	0x3b7a6ce6	0.0038211881
29	0xbc32de88	-0.010917313
30	0xbb002868	-0.0019555334
31	0xbb4931a7	-0.003069976
32	0xbac1d964	-0.0014789519
33	0xba2831d2	-0.0006416115
34	0xb989275c	-0.0002616
35	0x3c00b861	0.007856459
36	0x3b0e73cb	0.0021736498
37	0x3b605594	0.0034230696
38	0xb8640330	-5.4362405e-05
39	0x3ac6f8e3	0.0015180375
40	0x3bfd6d23	0.0077339574
41	0xbc30da10	-0.010794178
42	0x3b2e5b89	0.0026604852
43	0x3b636857	0.0034699643
44	0x3adfe960	0.0017083101
45	0xbb0d62ef	-0.0021573862
46	0x3ab61eee	0.0013894716
47	0xbc6d8bf5	-0.0144987
48	0xbb4595ce	-0.0030149105
49	0xbb98be8b	-0.0046613864
50	0xbab988a1	-0.0014155098
51	0x399f8003	0.0003042222
52	0xbbae7581	-0.005324066
53	0x3c8a781f	0.016902981
54	0xba8d4703	-0.001077861
55	0xba820f0c	-0.0009922697
56	0xbab117a8	-0.0013511078
57	0x3abf9f4a	0.0014619615
58	0x3b185deb	0.002324934
59	0x3b913e0a	0.0044324445
60	0xbb10e275	-0.0022107635
61	0xbb2bef16	-0.0026235036
62	0xba7633fd	-0.0009391902
63	0x3b08d170	0.0020876788
64	0xbb19f881	-0.0023494067
65	0x3c391801	0.011297227
66	0x38dc46a1	0.00010503573
67	0xb967194d	-0.00022039302
68	0xb8c171bb	-9.224141e-05
69	0x398301cc	0.00024987606
70	0x39cb2566	0.0003874704
71	0x3a1419da	0.0005649604
72	0xbac75f6f	-0.0015210937
73	0xbab49ebb	-0.0013780216
74	0xba274ca1	-0.0006381963
75	0x3b1bd93b	0.0023780602
76	0xb9a1101e	-0.0003072032
77	0x3be3d943	0.00695339
78	0x3b9a3fdd	0.00470732
79	0x3c1011f8	0.008793347
80	0x3a86fb59	0.0010298296
81	0x3b76bb63	0.0037648312
82	0x3c4ead4f	0.012614562
83	0xbccada69	-0.02476235
84	0x38be50e6	9.0749745e-05
85	0x3a679df8	0.000883549
86	0xba2354bb	-0.00062305824
87	0x3a90408a	0.0011005562
88	0x3b945b95	0.004527519
89	0xbb2938dd	-0.0025821247
90	0xb901b859	-0.00012371074
91	0xb9a8c1cb	-0.00032187844
92	0xba19d0d6	-0.0005867606
93	0xb980ee41	-0.00024591575
94	0x3ac36e73	0.0014910236
95	0x38d30bda	0.000100634716
96	0x3b794b73	0.0038039356
97	0x3bb981d8	0.0056612305
98	0x3ab8d650	0.0014101956
99	0x3a8f1729	0.0010916936
100	0x3b1dc1cf	0.0024071818
101	0xbc51d6b7	-0.01280754
102	0xbb33913e	-0.0027399804
103	0xbb277950	-0.0025554486
104	0xba551f96	-0.0008130012
105	0x3a898fca	0.0010495123
106	0x3849b34c	4.8089118e-05
107	0x3be5970c	0.0070065316
108	0xba2082eb	-0.0006123024
109	0xb9ba1941	-0.000354955
110	0x3987f01e	0.00025928108
111	0xba18741d	-0.0005815642
112	0xba57f63f	-0.00082382926
113	0x381cc0b0	3.7372753e-05
114	0xbb0c7164	-0.002142989
115	0xbb6faaf1	-0.0036570395
116	0xbb272e71	-0.002550986
117	0xb95d7aa4	-0.0002112189
118	0x3abf5685	0.0014597928
119	0x3c2d956c	0.010594707
120	0xbb67cbbf	-0.0035369245
121	0xbbb5e123	-0.00555052
122	0xbaca8ec7	-0.0015453928
123	0xb95658f5	-0.0002044177
124	0xbbbbd755	-0.0057324567
125	0x3c9a7ec5	0.018859277
126	0x3b0ef276	0.0021811998
127	0x3b5c0c27	0.003357658
128	0x3b1fb154	0.002436717
129	0xbaaeccae	-0.0013336146
130	0xbac5c208	-0.0015087733
131	0xbc45e41b	-0.01207831
132	0x3bacce69	0.0052736294
133	0x3bee1e81	0.00726682
134	0x3b338c00	0.002739668
135	0x373b16b4	1.1151355e-05
136	0x3baaab29	0.005208392
137	0xbcbeef9c	-0.023307614
138	0xbb016ddf	-0.0019749326
139	0xbb2a8a60	-0.002602242
140	0xbac53f34	-0.0015048743
141	0x3ac3cee4	0.0014938978
142	0xba1bba54	-0.0005940546
143	0x3c27e299	0.010246896
144	0x398b0a1a	0.00026519672
145	0x3a8548ba	0.0010168769
146	0x3b0a1252	0.0021068049
147	0x3a842519	0.0010081857
148	0xbb613cff	-0.0034368632
149	0xbad97039	-0.0016589231
150	0xbb77d598	-0.003781652
151	0xbb93a35b	-0.0045055575
152	0xbaf31239	-0.001854486
153	0x3a1ffb37	0.00061028026
154	0xbb22d08e	-0.0024843547
155	0x3c73b207	0.014873988
156	0x3ab59d72	0.0013856126
157	0x3adb7c9f	0.0016745514
158	0x3b56debe	0.0032786573
159	0x39027144	0.00012439961
160	0xbb8e7381	-0.004347265
161	0xbbac3545	-0.0052553737
162	0x3a222ff9	0.0006186958
163	0x3a1aadf3	0.0005900554
164	0x39dc3b45	0.0004200583
165	0xbac2b141	-0.0014853851
166	0xba2b291e	-0.0006529259
167	0xbb595ec9	-0.0033168069
168	0xbb2ecdfe	-0.0026673074
169	0xbb9359db	-0.0044967956
170	0x3a017b63	0.00049393455
171	0xbb1dcb21	-0.0024077373
172	0xbc2b6a17	-0.0104623055
173	0x3c5922c1	0.013252915
174	0xbba2accb	-0.004964446
175	0xbc0ad467	-0.008473492
176	0xbb160e48	-0.0022896696
177	0xbb065bde	-0.0020501534
178	0xbc1df0b0	-0.009639904
179	0x3cd7fbef	0.026365248
180	0xbb13bca8	-0.0022542868
181	0xbb1f52fb	-0.0024310935
182	0xbab7331c	-0.0013977024
183	0x3b2b5aac	0.0026146574
184	0xb7e3acf2	-2.7141043e-05
185	0x3c346d2f	0.0110123595
186	0x3b156102	0.0022793417
187	0x3b308bc7	0.0026938783
188	0x3acbe076	0.0015554565
189	0xbac766af	-0.0015213097
190	0x39d8b91b	0.00041336645
191	0xbc2e34e4	-0.010632727
192	0x3b45f07a	0.003020315
193	0x3b857601	0.004072905
194	0x3a5dd861	0.0008462724
195	0x3a8c2d50	0.0010694657
196	0x3bf2c5d8	0.0074088387
197	0xbc760738	-0.0150163695
198	0x39aa1559	0.00032440832
199	0x3a753604	0.0009354057
200	0x3b033924	0.0020023072
201	0x3a025587	0.0004971851
202	0xbb464b57	-0.0030257308
203	0xbaf37a23	-0.0018575828
204	0xbb6eebf2	-0.0036456552
205	0xbbd189f7	-0.0063946205
206	0xbb281328	-0.0025646184
207	0xba840feb	-0.0010075545
208	0xbb4de0c0	-0.003141448
209	0x3c969d96	0.01838569
210	0x392b0f86	0.00016313614
211	0xb929b756	-0.00016185394
212	0x37c0be20	2.2976717e-05
213	0xb952697f	-0.00020066461
214	0xbabc9c72	-0.0014389886
215	0x3ae4418e	0.0017414556
216	0x3b290d7f	0.0025795398
217	0x3b93cf23	0.0045107766
218	0x3b07cdc7	0.0020722018
219	0x3ac7b820	0.0015237369
220	0x3ac3300d	0.001489164
221	0xbc3f2fe3	-0.011669132
222	0xbb04b675	-0.0020250354
223	0xbb54ad54	-0.0032451944
224	0xba668535	-0.0008793653
225	0xb88502db	-6.342466e-05
226	0x3ab27387	0.0013614752
227	0x3bca82d9	0.006180149
228	0xbad74e81	-0.0016426594
229	0xbacd7edb	-0.0015678065
230	0xba6cc0eb	-0.00090314326
231	0x3b0b0885	0.0021214795
232	0xb9ce0e2c	-0.0003930194
233	0x3bf43946	0.0074531166
234	0x3aed822e	0.0018120462
235	0x3b4dd0ce	0.0031404975
236	0x3ad92199	0.0016565799
237	0x3a3a310b	0.0007102645
238	0x3a2d67f6	0.00066149177
239	0xbc0fe136	-0.008781722
240	0x3b934a92	0.0044949735
241	0x3bc2731e	0.005934133
242	0x3b4fc31d	0.003170199
243	0xbb205ecc	-0.0024470566
244	0x3a566a20	0.0008179266
245	0xbcb4b6c2	-0.022059802
246	0xba26be06	-0.0006360713
247	0xba969cec	-0.0011490858
248	0xbad97937	-0.0016591911
249	0x37e794b3	2.760659e-05
250	0x3b125d3f	0.002233341
251	0x3b5ad0d5	0.0033388634
252	0x3b898cff	0.0041977162
253	0x3bba8317	0.0056918967
254	0x3b65a37e	0.0035040076
255	0xbaf4f6c2	-0.0018689262
