models/sac_MountainCar-v0.pth (torch, 213522 bytes, 18 tensors)

fc1.weight f4 [128, 2]
00000000: 25a0 f73e 241f 0b3f a4a1 29be 5149 263f
00000010: 61f9 5fbe af4f d83d e765 d5be 037e c43e
00000020: cb42 083f 1150 0dbf 6157 1d3f 9084 073e
00000030: 771c ec3e 7a3a 513d 1a92 ae3e 6877 ccbd
00000040: 649a b13e 5562 093e d198 c8be 0260 0c3e
00000050: 3bc2 d2be cc0d d2bd 0c01 b9be cfc0 df3e
00000060: b3d8 1dbf 0003 bebe 0c76 4cbe 13af d9be
00000070: aec1 853c fb1e 3cbf ef7a 233f 2ac5 19bf
00000080: 301d fb3e 4037 153e 4193 97be 455b ce3e
00000090: 924d 273d d802 073f d04f 9e3d c65a 64be
000000a0: 388c 423e d85a 44be 3b3f 233e c43f 2b3f
000000b0: 40df bb3e cf47 a6be fefd d03e 708e 013e
000000c0: 1edb b73e 16aa dcbe e55e 6bbf 7e89 b1be
000000d0: 2c52 1bbf 3fa3 083f 948e 503e 18f6 953e
000000e0: 60ff 643e 4089 49bc cfaa 0d3f e09d 00bf
000000f0: c05c 363d 1e1b f7be 45f7 0c3e 6a42 8cbe
00000100: 9db1 213e 9a3a f4bd cf22 163f bd94 d6be
00000110: cc9a d7be 26d6 e1be 09d1 223f b04c 713e
00000120: 9d2f 2e3f 1664 15bf 7b8c 33bf 7b9f 0dbf
00000130: 1247 0dbf 94dc 773e 26a3 813e d369 163f
00000140: 49f7 babe 58ce f6be fe16 c03e 7056 92be
00000150: daba db3e f4d2 2bbe 4e1a cf3e 6fa5 0cbf
00000160: 4b3b c4be 0b13 683e 5013 193e 209c 38be
00000170: dacc d73e 021e f63e fece 47bf 792a eebe
00000180: a5c0 253f c653 74be 64f5 90be 860d 3abf
00000190: 0e2c 30bf 215d b13d 0f2c 27be 13de f7be
000001a0: 20e0 873c 4a4d f7be 32d6 2dbf ed00 ddbe
000001b0: 0ed5 2ebf 0ede f9be b354 fb3e 7283 2e3e
000001c0: a821 5f3e 7ad5 28bf 1295 0cbf c546 89be
000001d0: f4a5 113d e4c6 26bf b90f b6be a0dd efbe
000001e0: 0beb 8fbd e08d 9bbe c81e acbd 3294 03bf
000001f0: 11d8 0dbf 7860 e1be c4d4 a7be e9e3 15bf
00000200: 7dc7 173f 0cb4 0fbe 9bbf 1b3f 089c 613e
00000210: 1f24 2dbf c238 eb3e 0c49 8ebe 9f09 9abe
00000220: 6a28 14bf 27f1 33bf 8c2a 4f3e 942b 1ebe
00000230: 34f3 8c3e 538e 14bf df64 063f bfe0 04bf
00000240: c80e fabd e03c 173e 32e7 ba3e 8723 123f
00000250: 3979 113f fba4 18bf 496f e13d bac9 b1be
00000260: 20b2 9ebd be7d 07bf 0de2 243f f6db 04bf
00000270: cbd7 863e b15e 5d3e 104b 6b3e 1ebc c3be
00000280: ad89 243f c41d 1f3e 1606 1abb 0632 2abf
00000290: cafa 973e c840 d9bd 69bb c9be 71df 123f
000002a0: a46e 213e b54e c8be f8da f1be a95a b7bd
000002b0: fe25 ca3e b806 39be f791 cebe 82f4 77be
000002c0: 283c 07bf 601d 813e c31d 0c3f 3d6b 2abf
000002d0: a961 a33d 9158 a43e e84b 033e 4fee 80be
000002e0: 96f6 bc3e 8e41 be3e 3b05 3a3e 27d6 26be
000002f0: 5b4b 91be 573f 573d 9ee9 58be 3c99 77be
00000300: d23c b73e 5882 153f ea43 aebd a4be 1abe
00000310: 000e 293c 00ef 2cbd 23e8 3d3e 519e 493e
00000320: 4a35 35bf 8461 73be 1571 183f b208 8d3e
00000330: 300e 10bd 7346 dabe 2a92 00bf 5056 29bf
00000340: a205 6cbe 2086 743e fad7 e63e fe26 a73e
00000350: ce02 20bf 6ab7 d9be dda0 22be 43e2 233f
00000360: 5535 773d 5728 62be 547c 553e 3f40 9bbe
00000370: f335 ffbe 49f4 f33e a09e a4be 4827 11be
00000380: 2d14 34bf 464d f23e 8325 093f c0f1 833e
00000390: 634c 09bf 0b09 2bbf 5707 21bf e79c fe3e
000003a0: 1ed1 ad3e 1d54 183f 42a9 bd3e 2042 373e
000003b0: 80e6 e2bb 92aa 09bf 00f5 42bf 2bcb 34bf
000003c0: 1559 af3d 279a c4be 0cf8 76be 5da3 e4be
000003d0: a6db 4dbe d461 0bbf ce8f ecbe 2c2f 703e
000003e0: 373f 85be 2fdb e33e 544a 68be 34ca 04bf
000003f0: 918e 57be 599c a7be a01c 94be 8325 36bf
0.48364368 0.5434439 -0.16565567 0.6495562 -0.21872474 0.105620734 -0.41679308 0.3837739
0.5322692 -0.55200297 0.61461455 0.13234162 0.46115467 0.05108116 0.34095842 -0.099837124
0.34688103 0.13416417 -0.3917909 0.13708499 -0.4116381 -0.10256538 -0.3613361 0.4370179
-0.6165878 -0.37111664 -0.19966906 -0.42516384 0.016327705 -0.7348477 0.63859457 -0.60066473
0.49045706 0.14571857 -0.29604533 0.40304008 0.04084546 0.52738714 0.07730067 -0.22300252
0.18998802 -0.19175279 0.1594209 0.66894174 0.36693764 -0.3247666 0.4081878 0.12651992
0.3590936 -0.43098515 -0.9194167 -0.3467521 -0.6067226 0.53374094 0.20366889 0.29289317
0.22363043 -0.012300789 0.5533876 -0.502409 0.044522047 -0.48262876 0.13766201 -0.2739442
0.1579041 -0.1192524 0.58646864 -0.41910353 -0.42110288 -0.44108695 0.6360021 0.2356441
0.680414 -0.58355844 -0.7013623 -0.5532147 -0.5518657 0.24205238 0.25319785 0.58755225
-0.3651679 -0.48204303 0.37517542 -0.28581572 0.42915994 -0.16779691 0.40449756 -0.5493993
-0.38326487 0.22663514 0.14948773 -0.18028307 0.42148477 0.4806977 -0.7805022 -0.4651678
0.6474708 -0.23860082 -0.28312218 -0.72676885 -0.6881722 0.08660341 -0.16325401 -0.48411617
0.016586363 -0.48301154 -0.6790496 -0.4316477 -0.68293846 -0.48802227 0.49088058 0.1704233
0.21790183 -0.6595074 -0.54914963 -0.26811805 0.035558656 -0.65147233 -0.3555887 -0.46848774
-0.07027253 -0.3038168 -0.084043086 -0.51398003 -0.55407816 -0.44018912 -0.32779515 -0.5855089
0.5928877 -0.14033526 0.6083924 0.22032177 -0.6763324 0.4594174 -0.27790105 -0.30085465
-0.57874167 -0.70289844 0.20231074 -0.15446311 0.275293 -0.5802967 0.5249767 -0.51905435
-0.122098505 0.14769316 0.36504513 0.5708546 0.56825596 -0.5962674 0.11007554 -0.34724218
-0.077488184 -0.5292624 0.64407426 -0.51898134 0.26336512 0.21618153 0.22977853 -0.3822946
0.64272577 0.15538698 -0.0023502163 -0.6648258 0.29683524 -0.10608059 -0.39400795 0.57372195
0.15764862 -0.3912255 -0.47237372 -0.08952839 0.3948211 -0.18068969 -0.40345737 -0.24214366
-0.52826166 0.25217724 0.5473291 -0.6656988 0.079776116 0.3209882 0.12821925 -0.25181815
0.3690688 0.3715939 0.18166058 -0.1629263 -0.28377804 0.05255064 -0.21182868 -0.24179548
0.3578859 0.58402014 -0.08509047 -0.15111786 0.010318279 -0.042220116 0.18545584 0.19689299
-0.7078444 -0.23767668 0.5954755 0.27545696 -0.03516978 -0.42631873 -0.5022303 -0.6614733
-0.23049024 0.2387929 0.45086652 0.32646936 -0.6250428 -0.42522746 -0.15881677 0.64017123
0.060353596 -0.22085701 0.20848209 -0.30322453 -0.49845847 0.47647312 -0.3215227 -0.14175141
-0.70343286 0.4732458 0.53572863 0.25770378 -0.5363218 -0.66810673 -0.62901825 0.49729082
0.33948606 0.59503347 0.37043196 0.17896318 -0.0069244504 -0.53775895 -0.7615509 -0.7062251
0.08561913 -0.3839886 -0.2411806 -0.44655886 -0.2010332 -0.5444615 -0.46203464 0.23455495
-0.26024792 0.4450316 -0.22684604 -0.5187104 -0.21050479 -0.3273647 -0.2892809 -0.7115099

fc1.bias f4 [128]
00000000: b000 ff3e 8f0d fcbe 8346 ef3e 45a7 e33e
00000010: e1fe 253f ecd9 0abf 812a 1e3f 8427 abbe
00000020: 2547 073f 3d81 463f 7ee4 fa3c ed67 f83d
00000030: 0f68 9abd fa25 17bf 352d e13e 7db3 33bf
00000040: 82be 0b3f c157 263f 8a41 4b3f 88cb 2abe
00000050: abbb 14bf 2f8e b73e 45d0 f53e 8d2b 34bf
00000060: 8c5a 24be 5fd0 2ebe 592b 2f3d 4833 b2be
00000070: 5bfd 93be 62dd 65be fe05 2cbf 7846 373f
00000080: 699d 343f b02b e3bd c8de 96bd 54c1 93be
00000090: ca78 23bf 7028 30bf cb24 c93e a4c6 c6be
000000a0: 0fbf e8be b0fa 61bd 3620 71be 0a41 6abe
000000b0: 8b5c b63d f895 19be 104f 79be f308 8d3a
000000c0: 8951 13bf 3830 2c3f 547a a73d 25e9 a03e
000000d0: ec3a 7bbe 01b7 423e 764c 473f 1473 1c3f
000000e0: 0ddf 1cbf 2113 d63e d0d1 4b3f fbca 8c3e
000000f0: 0dcd 183f a76a 473f 1977 dd3a 6ddb 913e
00000100: 2ca1 fbbe 3c37 15be 2a31 273f d503 fe3e
00000110: 3242 eabe 1d28 11bf 7267 f7be d9a4 32bf
00000120: 7cae 0bbf fc0f 33be 5d21 1a3f 40f3 703e
00000130: 2eaf 09bf d237 11bf ab21 033f 50a6 06bf
00000140: c04e b2bd 4f98 fc3e 4d8e a7be bc30 0c3d
00000150: 901b 7cbd 22ff 0ebc b490 b7be 1a5e 21bf
00000160: 0854 12bf 9bdb c1be 8482 523f b8de aebe
00000170: 7d1e f3be 4ab9 993e 8fe5 ae3e d33d 073f
00000180: 16c2 2f3f 9ff7 e63e 197b 33bf 638d 243d
00000190: 4b94 0b3f a8d8 85bd 8357 d5be 1560 4d3f
000001a0: 9c69 87be ee1f cebe eb32 23bf 9881 f73d
000001b0: 5779 cb3e b800 983e e6e4 683e 6548 09bf
000001c0: 390d 29bf 4002 4c3c dacb 3d3f 5884 043f
000001d0: 94ca d2be a0fb bbbd c971 05bf 5295 23be
000001e0: 9ecd cc3e fe8f 0a3f f37f 363f e831 26bf
000001f0: 7fba 123f d057 ffbe 6c27 cd3e e5bb 383f
0.49805212 -0.49229094 0.46733484 0.44463554 0.6484204 -0.5423877 0.61783606 -0.33428586
0.5284293 0.7754095 0.030626532 0.12129197 -0.07539379 -0.5904232 0.43979803 -0.7019575
0.54587567 0.6497765 0.7939688 -0.16679204 -0.5809886 0.35850665 0.4801046 -0.70378953
-0.16050166 -0.17071675 0.04276595 -0.3480475 -0.28904232 -0.22447732 -0.67196643 0.715919
0.7055269 -0.11092317 -0.07366711 -0.28858435 -0.63856184 -0.688117 0.39285883 -0.38823426
-0.45458266 -0.055170715 -0.23547444 -0.22876373 0.0890437 -0.14998615 -0.24346566 0.0010760113
-0.5754629 0.67261076 0.08177629 0.31427875 -0.24534196 0.19015123 0.77851045 0.61113095
-0.6127785 0.4181147 0.79617023 0.27498612 0.5968788 0.77897114 0.0016896456 0.2848772
-0.49146402 -0.14571851 0.65309393 0.496123 -0.45753628 -0.56701833 -0.4832111 -0.6978279
-0.5456312 -0.17486566 0.6020716 0.23530293 -0.5378293 -0.567258 0.5122325 -0.5259752
-0.087064266 0.49334952 -0.32725754 0.034226164 -0.061549723 -0.008727821 -0.35852587 -0.6303421
-0.5715947 -0.37862858 0.822304 -0.34154296 -0.47484198 0.30024177 0.34159514 0.5282871
0.68655527 0.45110795 -0.7010971 0.0401739 0.5452315 -0.065354645 -0.4166833 0.80224735
-0.2644776 -0.40258735 -0.6374957 0.12085265 0.39741012 0.29688048 0.22743568 -0.5362609
-0.660358 0.012451708 0.7413918 0.5176444 -0.4117018 -0.09178853 -0.5212675 -0.1597493
0.40000623 0.54125965 0.71288985 -0.649199 0.5731582 -0.49871683 0.4006914 0.72161704

fc2.weight f4 [128, 128]
00000000: 40af a23a 69b1 a43d e03c 9abd b448 0abd
00000010: fe28 533d d0c0 9dbc 0438 94bc 0be5 16bd
00000020: 328e 793d c694 313d d807 e83c dc73 4bbd
00000030: 3ff1 92bd 20a2 1c3c 6087 d63c 5528 27bd
00000040: 5c98 cabc 5e82 743d 20b8 e63b 40ad 823b
00000050: 2032 b2bc e3ed a3bd 6c34 aabd 580f 2dbd
00000060: 3108 38bd c096 e13c 64c9 d2bc 35a3 0dbd
00000070: d796 ac3d 7436 fc3c 910c 813d 7d44 2fbd
00000080: 7be1 13bd 5a10 053d a537 71bd 88aa 6cbd
00000090: 10e4 8bbb 656b 04bd ddb3 87bd 1abf 563d
000000a0: ab91 913d a8ec 6a3c 9824 7cbc 5fac a7bd
000000b0: 56de 03bd f456 b83c 62b6 2a3d 7812 37bc
000000c0: 0d22 0fbd c6bc 493d eb29 90bd a2d0 643d
000000d0: 6474 0cbd 0051 b13a d416 8fbc a092 2f3c
000000e0: a6d0 dabc c19f 833d 8097 16bb b94d 8d3d
000000f0: eb0b ae3d c961 30bd 250e 84bd 6f3b 913d
00000100: 69d9 8d3d 8237 8abd f0e4 dfbb 0782 b2bd
00000110: a92e 94bd a4d9 8b3c 30a1 c03c 9c7d 993c
00000120: 7c11 c5bc 2101 a73d e00d 4f3c 2ea2 55bd
00000130: a0f8 a3bb 3ce2 ad3c 0c91 fd3c 98fd 7fbd
00000140: 36b0 073d 7bf5 38bd 916a 96bd 8bbf 45bd
00000150: a593 ae3d edbe 9a3d 9919 a23d 5285 543d
00000160: 3fc0 883d c8d5 41bc 2a34 47bd 1ee5 343d
00000170: 299a 3bbd d953 74bd f838 e7bc 50f4 973c
00000180: 5260 3a3d 7c9e 0cbd 7115 55bd 9858 433c
00000190: ca65 55bd 9cb5 6bbd 9eb6 3c3d 8844 73bc
000001a0: a969 a53d ab17 b03d 5493 d83c 6032 f93c
000001b0: 44be a63c 406f b53a e0a7 d2bb 803a 9f3a
000001c0: b831 073d 774e a83d b8a6 bbbc 1a0a 19bd
000001d0: 9858 afbc e0e8 2ebd 083e 763c 211f 873d
000001e0: 938d 8d3d 9e38 263d c437 85bd d14e 42bd
000001f0: 8c16 9fbc 0477 85bc 0037 ee3b ac2b a6bd
00000200: 805d e13c 3818 8abd fa13 65bd 0e7f 96bd
00000210: c7b9 9d3d 176a abbd 138e 883d e0ba 42bb
00000220: 306b 28bc 8a72 623d 78d9 05bc d60d 633d
00000230: 33e1 823d ae29 9dbd 824e 0b3d ccb0 883c
00000240: 64af 9b3c 106b 533c bc0e c63c 302a 2ebd
00000250: 5047 39bc 77fd ab3d 4a3c 733d a09e 59bb
00000260: 1841 aabd a0e0 7d3b ec89 76bd 1134 933d
00000270: 03ca 5bbd 401e d1bb 24b4 a0bc 34da 803c
00000280: 1d58 aa3d 409a 093c 06ae 513d d982 8c3d
00000290: 9123 923d a80f fabc d8f1 a1bc ea7a 2e3d
000002a0: cc93 c5bc 9a87 293d 0030 9ebc b78d 75bd
000002b0: 8c5d 133d 3807 5e3c 126a 213d 17d7 b33d
000002c0: fe2c 773d 599a ab3d c004 9b3b 11b7 9bbd
000002d0: e0fa 7dbd 90e3 60bd e385 9fbd 9278 35bd
000002e0: fca3 a6bd de02 a7bd 7e56 58bd 7a74 b2bd
000002f0: 4e39 5ebd 6a0c 0a3d cdfa 963d d662 d7bc
00000300: 649e d2bc ce4f 413d 8d9e 32bd 052f 2bbd
00000310: 0e10 5f3d f2b8 9dbd a012 313c c3e8 9f3d
00000320: c856 783c 88e8 c43c 1ed9 52bd 40d6 9fba
00000330: 8040 9f3b a0b6 b13c 2eab 0c3d f14a 9d3d
00000340: 062c 8abd a0a2 2d3b 3de3 34bd a732 8fbd
00000350: 00ee e7bb 0357 9fbd 9eaa 7c3d c0b7 273c
00000360: a81f 43bd 9e31 3d3d 5e52 abbd 4909 0cbd
00000370: 5810 8dbc 3cd2 99bd 5737 66bd a85d 6cbc
00000380: df59 893d 55cd ae3d 025a 663d 962e 58bd
00000390: 76da 6cbd 6ff9 9d3d 340f 003d 80e5 193b
000003a0: 58fb 433c 127c 91bd 46c2 f1bc a340 ae3d
000003b0: b094 b2bc 704a 91bb 554e 96bd ea86 4abd
000003c0: c090 ecba 3ce2 60bd c895 33bc c055 133d
000003d0: aa11 b1bd 480f d73c 0762 6fbd 80b1 30bd
000003e0: 7afd 0a3d a1ee 8f3d 88e5 c5bc 52a4 14bd
000003f0: 26af a3bd 22b0 3abd d981 9ebd 50b8 a5bc
0.0012411848 0.08041651 -0.07531142 -0.03376074 0.051552765 -0.01925698 -0.018093117 -0.036839526
0.060926624 0.043354772 0.028324053 -0.04967104 -0.0717492 0.009560138 0.026187599 -0.040809948
-0.024730854 0.05969464 0.0070409924 0.003987938 -0.021752417 -0.08004358 -0.0831078 -0.04225096
-0.044929687 0.027537704 -0.025730796 -0.034579474 0.08427208 0.030787684 0.06301225 -0.042789925
-0.036103707 0.032486297 -0.058890957 -0.05777982 -0.0042691305 -0.032328982 -0.06626103 0.052428342
0.07107862 0.01433865 -0.015389584 -0.08187174 -0.032194458 0.0225024 0.04167784 -0.011173837
-0.034944583 0.049252294 -0.07039245 0.05586303 -0.034290686 0.0013528168 -0.01746694 0.0107161105
-0.02671082 0.06426955 -0.0022978485 0.0689959 0.08498367 -0.043062005 -0.0644801 0.07091414
0.06926233 -0.067488685 -0.0068327114 -0.08716207 -0.07235462 0.017071553 0.02351436 0.018736653
-0.024056189 0.08154512 0.012637585 -0.05215662 -0.0050040036 0.021226041 0.030952953 -0.062497705
0.033127032 -0.045155983 -0.07344545 -0.048278373 0.08524255 0.075559475 0.079150386 0.051884957
0.06677293 -0.011830755 -0.048633732 0.044163816 -0.045801315 -0.059650276 -0.028225407 0.018549114
0.045502014 -0.03433083 -0.0520224 0.011922978 -0.052099027 -0.057546243 0.046072595 -0.014847882
0.08076794 0.08598264 0.026437439 0.030419528 0.020354398 0.0013842359 -0.0064287037 0.0012148172
0.0330064 0.08218091 -0.022906646 -0.03736315 -0.02140455 -0.042702556 0.015029438 0.06597734
0.06911769 0.040581338 -0.06504777 -0.047438446 -0.01941993 -0.016292103 0.00726974 -0.081137985
0.027510405 -0.067429006 -0.055927254 -0.073484525 0.0770145 -0.083698444 0.066677235 -0.0029713437
-0.010279462 0.055285014 -0.008169524 0.055433117 0.063906096 -0.076739654 0.034010418 0.016685866
0.019004531 0.012903944 0.024176948 -0.042520702 -0.011308506 0.08397954 0.059383668 -0.003320612
-0.08313197 0.0038738623 -0.060190126 0.07187665 -0.05365945 -0.00638178 -0.019617148 0.015729047
0.083175875 0.0083985925 0.051191352 0.06860895 0.0713569 -0.030525044 -0.01976864 0.04259769
-0.024118327 0.041389085 -0.019309998 -0.059949603 0.035977885 0.013551526 0.039407797 0.087812595
0.060345642 0.08379049 0.004730791 -0.076032765 -0.06200683 -0.05490452 -0.07789209 -0.044304438
-0.08136746 -0.08154844 -0.05281686 -0.087136224 -0.05425387 0.033703245 0.07372055 -0.026292246
-0.025710292 0.04719525 -0.043608237 -0.04179289 0.05445867 -0.07701291 0.010807663 0.07808068
0.015157409 0.02403666 -0.05147659 -0.0012194589 0.004859984 0.021693528 0.034342937 0.076803096
-0.06746678 0.0026494637 -0.044162024 -0.06992083 -0.0070779324 -0.07780268 0.06168615 0.0102366805
-0.04763761 0.046189897 -0.0836532 -0.034188543 -0.017219707 -0.07510802 -0.05620512 -0.014426626
0.06706595 0.08535258 0.056238182 -0.052778803 -0.057825528 0.07713591 0.0312645 0.002348274
0.0119617805 -0.07103743 -0.029511582 0.08508422 -0.021799415 -0.0044339225 -0.073391594 -0.04944507
-0.001804851 -0.054903254 -0.010961004 0.03597045 -0.08645947 0.026252404 -0.058443096 -0.043138027
0.03393314 0.07027937 -0.0241573 -0.03628952 -0.07992391 -0.04557813 -0.0773961 -0.020229489

fc2.bias f4 [128]
00000000: 743f a9bd 69bf a93d 75aa 503e 6a90 013e
00000010: aa27 2a3d c881 023e 7d73 263d 7451 5c3c
00000020: 4f3b 28bd ee65 0f3e 17f0 943d 7775 583d
00000030: 5b64 82bd 95e6 90bc 535f a13d 3a79 54bd
00000040: a662 9b3b 9b22 a6bd d51f d3bc 3ece eb3d
00000050: e352 d73d 359d 863d 1480 34bd 190e 8a3d
00000060: 2563 aa3d 2935 433c 4595 c43c 608e 473b
00000070: 978d 073d 7873 d33c 8de4 a23d 6704 a33d
00000080: 1d2a 943d aecc 7bbd e090 9cbb b7a4 b33b
00000090: a398 32bd 2e93 7a3c da42 243d 698a 64bd
000000a0: 9ccd 13bd d3b1 89bd f483 8d3c d11d 383d
000000b0: 2da6 933d 10dd 973b fb0b 343d 5fdb c23c
000000c0: 90c5 80bc 4d13 ec3c 8eb8 26bd c793 a73d
000000d0: 4fb5 4e3d 44da 96bd d462 a4bd 6372 5ebd
000000e0: e0b4 ae3c 1ac3 2b3d 266a 3b3d 3bef 8b3d
000000f0: 8b57 83bd d028 f43b f556 21bd 6203 923d
00000100: a9e1 0fbc 2b3b 3bbc 88ff 90bd 4ea6 b0bc
00000110: 5376 e03c 915f 923d 3f28 ffbc 72df 2d3d
00000120: a0c4 8a3c 7428 85bd 6b92 9c3d 7424 abbc
00000130: 303d a8bc 1802 75bc fd27 a33d a99d 1abd
00000140: 4047 c0bc ac64 c9bb a316 80bd cc47 c03c
00000150: 9967 983d 3d55 0d3f d3e7 05bd 6203 223e
00000160: 016a b1bd ecba 35bd 847f c6bc ceb1 483d
00000170: b97a 6b3e 30f7 cabb d8f1 0abc 7eb4 773d
00000180: 68bc f1bc 9c9d 89bd 6323 203d b788 103d
00000190: 50ea 80bd 807a 473a 1adf 70bd b7b0 a0bd
000001a0: f38c 313c dab8 b1bc bd27 c03c 9401 16bd
000001b0: d51e adbd f5cf 2ebd b75f a83d e14d eebc
000001c0: e527 84bd 73f3 893d c67a 213e 60f7 663c
000001d0: 5db4 98bc f317 b13d b863 e43c d04d 5c3c
000001e0: a767 b23d 68a9 14bc df38 f13d 2842 673d
000001f0: f688 783d 53fa 7dbd 1067 483d 0a20 0bbd
-0.08264056 0.08288462 0.20377524 0.12652746 0.041541733 0.1274482 0.040637482 0.013447154
-0.041072186 0.14003727 0.07272356 0.0528464 -0.063667975 -0.017688075 0.0787951 -0.051873423
0.0047419844 -0.08112069 -0.025772015 0.11513947 0.10513856 0.065729536 -0.044067457 0.0674097
0.083196916 0.01191453 0.023996959 0.0030449852 0.033094015 0.025811896 0.07953749 0.07959824
0.07234595 -0.061474495 -0.0047780126 0.005482282 -0.043602597 0.015293879 0.040102817 -0.05579606
-0.036084756 -0.067233704 0.017274834 0.04495031 0.0720943 0.004634507 0.043956738 0.023786245
-0.015719205 0.028817797 -0.04070335 0.08182483 0.050465878 -0.073658496 -0.080266625 -0.054308306
0.021326482 0.04193411 0.045755528 0.06832739 -0.06413182 0.0074511543 -0.03938957 0.071295515
-0.008781829 -0.011427681 -0.07079989 -0.021563675 0.027400171 0.07147134 -0.03114712 0.042449422
0.016939461 -0.065018564 0.076451145 -0.020891406 -0.020536989 -0.0149541125 0.079666115 -0.037748013
-0.023471475 -0.006146034 -0.062543176 0.023471735 0.07441635 0.5520819 -0.032691788 0.15821603
-0.08662797 -0.044367716 -0.024230726 0.048997693 0.22996034 -0.006194018 -0.008480512 0.060474865
-0.029508784 -0.06719515 0.039096247 0.03528663 -0.062946916 0.00076095015 -0.058806516 -0.07846206
0.010836828 -0.02169459 0.023456449 -0.0366226 -0.08453146 -0.042678792 0.08221381 -0.02908987
-0.06452922 0.067358874 0.1576949 0.014097065 -0.018640691 0.08647146 0.02787958 0.013446286
0.08711176 -0.009073593 0.117784254 0.056459576 0.06067749 -0.062006306 0.048926413 -0.0339661

logits.weight f4 [3, 128]
00000000: 344a 9abd 19fe 9f3d c6b6 433e 9d12 193e
00000010: e0d8 66bc 3778 f13d ce2b 103e fca9 863d
00000020: 3326 913d ba7b f3bb 77ef c33c 3a26 b1bd
00000030: 4ba5 963d 93c6 a53d 7b34 33bd c8d8 6ebd
00000040: e319 443c 442a cf3c 7d4e d53d 78a2 103e
00000050: 6981 413e c451 973d 1016 99bb d92f 66bd
00000060: f5a0 02bd b4d3 f73b 3bf4 4f3e bb85 22bd
00000070: 0384 26bd d0d4 bfbc c4a9 153d 800d 213b
00000080: 33ea 043e 4bf0 a2bd 2e96 033d 27d1 9b3d
00000090: 18f9 853d 89d7 89bd 6b1c 19bd 83c6 fd3b
000000a0: fa7b 143c 26ac 573d 4e22 e33d b25c 8e3a
000000b0: 823a a0bc 5262 453d 2a59 3ebd d4b1 2c3e
000000c0: 1823 aa3c 66b7 da3d 26d7 5a3d 0492 8fbc
000000d0: 1ac1 e93b 74ac cd3c e0a1 f7bb b7d4 9cbc
000000e0: 9821 7e3d 22c2 493d 4016 5dbc 7acc 67bd
000000f0: ae07 b9bc 7e72 7a3d 42e1 533d 3d67 293e
00000100: c820 703d deba 1cbc 63ee b8bb cb6b dbbc
00000110: e89b 503c 241f 46bc 4a98 e83c 4dec 93bd
00000120: d999 b83d e68b 8dbd 0733 a8bd d579 b3bd
00000130: 38c2 68bc a84b 873c 483a 173c 7074 aa3c
00000140: d97f 1bbd 0b7b 4bbd eb23 97bc a122 67bd
00000150: 089a 34bc 345b 31be 4fb0 ab3c fc5f 523d
00000160: 01e7 ab3d 2788 033e 0d2c 22bd 6c2f 9abd
00000170: 380c 5a3e 205d a33c fc97 c1bc 5d51 26bd
00000180: dc64 773c 6c3d 43bd 238b 16bd 605f 3a3e
00000190: 38c3 233c c214 123d 8d16 993d d15c e03b
000001a0: d9ed 223e e1ee 943d a177 4dbd f22b 713d
000001b0: a625 783d fd27 c4bc 897c 8d3d cc56 09bd
000001c0: 83c4 2cbd 14bd 763e b537 373e e0ae d0bb
000001d0: b556 84bd 4e82 4e3d a9eb a73d 0a21 58bd
000001e0: 4063 57bb 83c7 823d 523e 833e bf5f f2bc
000001f0: 47e7 b63d 94ec ffbc 5779 843d 45ad 293d
00000200: 5871 56bc e0bc 29bc 04c7 c1bd b381 43bd
00000210: 9a7c 313d db84 f1bd f4f2 a6bc b43a ac3d
00000220: ff9f a13c 78e1 35be b823 70be 8045 f4bb
00000230: 4c92 9abd ea0a 97bd 64ee b53c 6c2c f73c
00000240: ac5b 553d c3f6 4bbd d0dc 4ebc 3428 b3bd
00000250: 0340 d0bd 4b1a 8bbd db38 76bd 684e 893c
00000260: d80b 643c e781 533d b717 023c 2428 8d3c
00000270: 0dfa c73c f8d9 dd3c ce2c abbd d24b 27bd
00000280: a584 ddbd 7bea 51bd 5c16 913c 43ca 963d
00000290: fbc8 4f3d 8743 3ebd 3c50 6e39 dd5c 5e3d
000002a0: 1f00 183c dd09 94bd 6519 9bbc 0854 ed3c
000002b0: dad8 013c a357 a53d 2b63 7d3d 0b18 aabd
000002c0: f38f 673d c400 ecbd 7d88 4dbd 0ecb 123d
000002d0: ae3d 183b 9953 9c3d d667 573d afc7 ebbc
000002e0: a278 9e3d 40e9 81bd 14f1 863c c816 e73c
000002f0: 2c1e 803d 2b1c b13d 328b 303d 27f6 9ebd
00000300: ffd6 743d 4309 753d 4058 e4ba a115 493d
00000310: 2951 463b 5d5c 69bc ef6c ad3c 6142 4abc
00000320: 8104 7bbd b839 523c 8062 1aba 91bc 78bd
00000330: 50a5 84bd 60ed ed3c f3fa 0cbd e0ab 0d3b
00000340: c9db 9f3d b6ef 643d 2e7e 473d faf9 143d
00000350: 4a25 753d 9b3c d1be 79c6 953d 6e47 5abe
00000360: aa9a 6abd 8009 98bd f1eb b03d 2aa9 4a3d
00000370: 966c 55bc fee5 513d b8e2 acbd 41a7 acbd
00000380: 17a5 993c 8591 f8bc 76e3 023d 0389 c5bd
00000390: 8f63 ab3d 66ea 9dbd 0e84 383d 8a44 1e3d
000003a0: c812 b0bd 9eea 8a3d b544 273d d14a 25bd
000003b0: 90c9 23bd c29d 693d cc59 b2bc 3bfb abba
000003c0: 62f2 253d 4a35 a73b a5e4 acbd 3344 883d
000003d0: 1f53 b03c b020 e93c d236 95bd 2235 233d
000003e0: b0cd 33bc 115e 803d 8802 4c3c 6419 543d
000003f0: 4fcb 45bd da4c 6b3d 0737 7c3d 22ae a03c
-0.075336844 0.07812137 0.19112691 0.14948507 -0.014089793 0.11790507 0.1407921 0.06575391
0.07087364 -0.007430521 0.023917897 -0.08649869 0.07355746 0.08094516 -0.04375122 -0.058312207
0.0119690625 0.025288709 0.10415361 0.14124477 0.18897022 0.073886424 -0.0046718195 -0.056197975
-0.03189178 0.007563079 0.2030801 -0.039678317 -0.04065324 -0.023416907 0.036538854 0.0024574697
0.12979965 -0.079559885 0.032125644 0.07608252 0.065416515 -0.06730563 -0.037380617 0.0077446117
0.009062761 0.052654408 0.110905275 0.0010861366 -0.019559149 0.04818947 -0.046471752 0.16864711
0.020768687 0.10679512 0.053427838 -0.01752568 0.007133615 0.025106646 -0.007557139 -0.0191444
0.062043756 0.049257405 -0.013494074 -0.05659149 -0.02258667 0.061144345 0.051728494 0.16543289
0.058625013 -0.009566037 -0.0056436523 -0.026784798 0.012732483 -0.012092385 0.02839293 -0.07222805
0.09013719 -0.06911449 -0.08212858 -0.08763472 -0.014206462 0.016515568 0.009230204 0.020807475
-0.037963722 -0.04967789 -0.018449744 -0.05642951 -0.011023052 -0.17319947 0.020958094 0.05136107
0.0839367 0.12844907 -0.03959279 -0.07528576 0.21293724 0.019941866 -0.023632042 -0.040604938
0.01509973 -0.047666 -0.036753785 0.18200445 0.009995274 0.035664327 0.07475004 0.006847002
0.15911044 0.07272125 -0.050162915 0.0588798 0.06058278 -0.02394485 0.06908519 -0.03353004
-0.042179596 0.24095565 0.17892344 -0.006368503 -0.064618506 0.050417237 0.081992455 -0.052765884
-0.0032865554 0.0638571 0.25633484 -0.02958667 0.089308314 -0.031240739 0.06468456 0.04142501
-0.013088547 -0.010359973 -0.09461787 -0.047731113 0.04333172 -0.11792918 -0.020379521 0.08409634
0.019729612 -0.17761791 -0.23451126 -0.007454574 -0.07547435 -0.073751286 0.0222084 0.03017255
0.05208938 -0.049795877 -0.012625888 -0.087479025 -0.10168459 -0.06792124 -0.060112815 0.01676102
0.013918839 0.051637556 0.007940224 0.017231055 0.024411226 0.027081475 -0.08358155 -0.040843792
-0.108163156 -0.05124901 0.017710857 0.07362797 0.05072878 -0.046451118 0.00022727338 0.05428778
0.009277373 -0.07228444 -0.018933007 0.028970733 0.007925237 0.08073356 0.061862152 -0.08305367
0.056533765 -0.115235835 -0.050178993 0.03583818 0.0023230123 0.076331325 0.05258926 -0.02878174
0.07737853 -0.06343317 0.016472377 0.028209105 0.06255755 0.08647951 0.043101497 -0.077617936
0.05977535 0.059823286 -0.001742132 0.049092893 0.0030260778 -0.0142432125 0.021170108 -0.0123449275
-0.061283592 0.012831144 -0.00058893114 -0.060726706 -0.06476843 0.029043853 -0.03441901 0.0021617338
0.078055926 0.05589267 0.04870432 0.03637121 0.059850015 -0.4086655 0.07313246 -0.21316311
-0.057276405 -0.07423687 0.08638752 0.049477734 -0.013026377 0.05124473 -0.08441681 -0.08430339
0.018755479 -0.030342827 0.031955205 -0.096452735 0.08368599 -0.077107236 0.045047812 0.038639583
-0.08597332 0.06783031 0.04083701 -0.040354554 -0.039987147 0.057035215 -0.021771334 -0.0013121137
0.040514357 0.005102788 -0.08442048 0.06653633 0.02152401 0.02845797 -0.07285847 0.039845593
-0.010974333 0.06267942 0.012451775 0.051782027 -0.048289593 0.05744634 0.061575916 0.019614283

logits.bias f4 [3]
00000000: 686d 143e 3d0d 563d 7664 503e
0.1449486 0.05225872 0.20350823

fc1.weight f4 [128, 2]
00000000: 191c 303f dd39 44c1 9be8 1d3f 9aa8 fc3e
00000010: 4920 ea3e 4b3e 81c0 b51d 46bf 5d50 87c0
00000020: b402 6d3d 9686 08c1 718b 8a3e 6dcf fac0
00000030: 16ea 803e cb76 273f 74fb 2bbe 3ad4 9c3e
00000040: 3ec2 913e 2855 e7bd 4bf1 8a3f d946 9f40
00000050: 6d9c 213f 76aa 88be 133c 0b3f d000 3bbd
00000060: dae8 023f 595f a4c0 b652 f33e 5190 183f
00000070: 00a8 283e e0ca b13c 4cf6 3c3e 9cf8 0ebf
00000080: 9a17 31bf 6324 11c1 debd e3be 6fd7 82c0
00000090: 1b33 52be 1ec7 dec0 13be 53bd 8e96 8bc0
000000a0: 0894 e7be 82f8 a3c0 be79 86be c5c2 9dc0
000000b0: e798 f43d 1c29 62c0 1634 f9be 5be1 bdc0
000000c0: f0e5 db3d 911e 6cc0 c5e0 243f 903f bbbd
000000d0: 7302 8a3d 0d48 78c0 b1eb 983e 3812 bfc0
000000e0: 7a47 85bd 08f7 ecc0 5c4d 0b3e 8657 d83e
000000f0: 836b 91be 8430 96c0 0e63 3fbe 53ac 1c41
00000100: 4e1d c43e b89d 2fbe 0f21 d23e 8237 8ec0
00000110: 270d 503f 177a f3be 6b42 b8be c2ca 1dc1
00000120: 73b3 313f c8a0 413e 9b76 c0be 5795 19c1
00000130: 1010 1b3d a446 42be 7601 9e3e 6d8b 0c3f
00000140: 2e4b a43e 46ba 0ebf ae18 973e 0e68 dfbe
00000150: 3876 01bf b9c8 9dc0 d7ca 493f 2764 c040
00000160: 64c3 553e 6287 de3e afb8 2cbf dc4a b0be
00000170: 08a8 3ebb f880 f5c0 6269 16be 0c80 2cc1
00000180: 1400 04bf e16f 31c1 aeb6 23be 90e9 82c0
00000190: 2dba 0b3e a9df 92c0 772a 8d3f 09c4 f6c0
000001a0: 3db3 e0be 50a6 7cc0 80dc bf3c ae12 1abf
000001b0: 2457 8bbe 00d2 eebb 0be5 2fbb a757 82c0
000001c0: 2d18 843f 6790 2540 f05f f9bd aa92 d23e
000001d0: c096 3d3e f08b 763d a095 b23d bc8e 1dbf
000001e0: 5c54 a53f 2eec 713f 9a5c df3e f6b0 ab3e
000001f0: 3d12 1a3f d974 c0be f09f 6d3d e54e 05bf
00000200: 1361 2b3f 0c30 c3bf a56e 1cbf 7aaf ea3e
00000210: 92a1 1d3f 7182 0fc1 2834 503f ef59 87c0
00000220: e0ac 7fbf 76e9 96c0 8c37 9c3e 7447 afc0
00000230: 78e4 b93e 3a2f 94c0 afa8 3fbf 33af 34c0
00000240: 652c eebe 151e 2e3e d20c 9f3e f80b 31be
00000250: a686 59be 0069 753c 1f29 ddbe 2eeb d1c0
00000260: ab5d 14be dd07 b0c0 903d cc3d 311a 123f
00000270: 4fcb 193f 5c99 55c0 026e c93e e7c3 1e3f
00000280: e0ac 213e 7137 e0c0 52df fbbe fbea 8ac0
00000290: 806d d8bd ce50 87c0 439d cdbe 9217 8ac0
000002a0: 20b3 fe3d 0420 34be 9b4f 8f3f 84b2 e13d
000002b0: 127e 9d3e 2db6 06bf 3a6c 81bb 794d d3c0
000002c0: 23a6 fb3e 8cf1 a5c0 d076 abbd ef8a b7c0
000002d0: 7852 b0bd 0027 2d3d 7be4 883e 68ba 9fc0
000002e0: 8527 cabe 3ec1 ca3e f939 0dbf 206e ffbd
000002f0: 48b3 0cbf a783 25c1 b048 873e 60d2 0dbd
00000300: 73e5 173f e559 333f 13ff d8be 552a 9fc0
00000310: 8e4e 1c3f 26dd 3bbf 303b d0be 740f b1c0
00000320: e81f 2cbc 3a8e fbc0 86d1 993e 761a de3e
00000330: 82df 283e c2e7 b940 0903 093f 9f96 cfbe
00000340: ebab 543f 0c79 0ec1 d127 6240 a6df ccbf
00000350: bdc1 c8be ab6d 86c0 fc21 933f da37 09c1
00000360: 7f2b 6cbe 0513 a0c0 65fd 183e 3a2b 88c0
00000370: d842 f6bd 7ce1 41be ff8d 303f f8cc bdbd
00000380: 754c e5be e029 b0c0 a01a b7bc b23d cc3e
00000390: caed 8b3e e3bc b0c0 a05a d33d c53c 013f
000003a0: b421 773e 6148 83c0 4975 163f 1d25 183f
000003b0: c46a 143e bf1c b7c0 63c3 1abf c307 063f
000003c0: 7da8 5bbe c39d 1b3f 9cfe 343f e317 84c0
000003d0: 8436 133f 51d6 c8c0 c43a 03bf 26da fe3e
000003e0: 2c6f 4d3f 81a1 1a41 d224 a83e 9819 a93d
000003f0: 4e1f ea3e e0bc 29bf 4970 473f 8730 87c0
0.68792874 -12.264127 0.6168305 0.49347383 0.45727757 -4.038854 -0.7738908 -4.22856
0.057863906 -8.532858 0.2705951 -7.8378205 0.25178593 0.6541564 -0.1679514 0.30630666
0.28468508 -0.11295539 1.0854887 4.9773984 0.6312931 -0.2669255 0.5438854 -0.04565507
0.51136553 -5.136639 0.4752404 0.5959521 0.16470337 0.021703184 0.1845333 -0.558481
-0.6917664 -9.071383 -0.44480795 -4.088798 -0.20527308 -6.9618063 -0.05169494 -4.3621283
-0.45230126 -5.1240854 -0.26264757 -4.9300256 0.11943226 -3.533759 -0.4867255 -5.933759
0.107372165 -3.6893656 0.6440547 -0.09142983 0.067387484 -3.8793976 0.29867318 -5.970974
-0.06507774 -7.405155 0.13603729 0.42254275 -0.28402337 -4.6934223 -0.1869013 9.792071
0.38303608 -0.17150009 0.41040847 -4.444276 0.8127007 -0.47554085 -0.35988173 -9.862001
0.6941444 0.1890899 -0.3759049 -9.59896 0.037857115 -0.1897226 0.3086049 0.54900247
0.32088608 -0.5575298 0.29511017 -0.43634075 -0.5057101 -4.9307523 0.78825134 6.0122256
0.20875317 0.43462664 -0.67469305 -0.34432113 -0.0029091854 -7.6719933 -0.14688638 -10.781261
-0.5156262 -11.089814 -0.15987656 -4.091011 0.13645239 -4.5898023 1.1028584 -7.71143
-0.43886748 -3.947651 0.023420572 -0.6018475 -0.2721492 -0.0072882175 -0.00268394 -4.0731997
1.0319878 2.5869386 -0.12176502 0.4112752 0.18514538 0.06019205 0.08719945 -0.6154592
1.291637 0.94501007 0.43625337 0.33533448 0.6018408 -0.37589148 0.058013856 -0.5207351
0.66945 -1.5249038 -0.6110633 0.45837003 0.6157466 -8.969346 0.81329584 -4.229728
-0.9987316 -4.7159986 0.3051113 -5.4774723 0.3630712 -4.630765 -0.74866766 -2.8231933
-0.46518245 0.17003663 0.3106447 -0.17289722 -0.2124277 0.014978647 -0.43195435 -6.5599585
-0.14488856 -5.50096 0.099726796 0.57071215 0.6007585 -3.3374853 0.39341742 0.62017673
0.15788603 -7.0067677 -0.49193817 -4.341184 -0.105677605 -4.228614 -0.40159044 -4.315377
0.12436509 -0.17590338 1.1196169 0.11020377 0.30760247 -0.5262173 -0.003949669 -6.603207
0.4915019 -5.1857357 -0.08372271 -5.7357097 -0.0860948 0.04227352 0.26736817 -4.9915047
-0.39483276 0.39600557 -0.55166584 -0.124721766 -0.5496106 -10.344642 0.26422644 -0.034624457
0.59334487 0.70059043 -0.42382106 -4.9739175 0.61057365 -0.7338432 -0.40670156 -5.5331364
-0.010505654 -7.8611116 0.30042666 0.43379563 0.16491511 5.8095407 0.53520256 -0.40544602
0.83074826 -8.904552 3.5336802 -1.6005752 -0.3921031 -4.200887 1.1494746 -8.576136
-0.23063467 -5.0023217 0.14940412 -4.2552767 -0.12024468 -0.18933672 0.6896667 -0.0926761
-0.44784895 -5.5051117 -0.022351563 0.3989082 0.27329856 -5.5230575 0.1032002 0.5048335
0.2413395 -4.1025853 0.5877271 0.5943163 0.14493853 -5.722259 -0.60454386 0.52355593
-0.21450992 0.607876 0.70701003 -4.127916 0.5750506 -6.2761617 -0.51261544 0.4977581
0.8024776 9.66443 0.32840592 0.08256835 0.4572701 -0.66303825 0.7790571 -4.2246737

fc1.bias f4 [128]
00000000: db2b 5c3e 3e1b d3be aa86 6d3e 659a 623c
00000010: 6c7b 763c d248 8c3c 602d aabc 6377 81be
00000020: b213 2cbf 164e 9a3e c07a d1bd 8a20 58be
00000030: 4766 b23e ae05 aabe a05a c4bd 0b46 25bf
00000040: 8d57 eebe 95f8 c43e 77fc a23d 67e2 653e
00000050: c9df 0c3f 9832 b23c d91b a13e 42cc 823d
00000060: 9373 2f3e 4e42 1cbf 324f ad3e df01 1e3d
00000070: 539f 703d b98c 31bf 48de 9e3e 74f1 cabd
00000080: cc3b 08bf 83bc eb3e 48e3 083f 5db3 473e
00000090: 8c2a 66be 4bec 663e 21a7 18bf e560 21bf
000000a0: 50c9 c8bd 923b 79be ab30 0d3f fb51 1d3e
000000b0: bc55 49be a464 32bf 5608 23bc b51d 813e
000000c0: 81fd 72be 7323 0a3f 59c5 8d3e 60c7 d63e
000000d0: cc2b f33e 950b 1ebf 6e18 16bf b8e3 9bbc
000000e0: bc32 8f3e 3430 17be c40e 0abe d3a5 2fbf
000000f0: 5d1b 083f 00cb a7bc 20e6 07bf ef23 0bbf
00000100: 1dd1 f43e ac99 17bf 16ee 873e f6af 083f
00000110: c906 e6be 9f1b 8b3e ae2d 6f3e 9070 883d
00000120: 060f f8be fb81 d8be b4e8 30bf ab1c bd3d
00000130: 4188 953c 6cc1 3bbe d83e e23e c037 49bd
00000140: 3b0e cebc 3f4c 153f 37e0 123f ecc7 d13e
00000150: abe1 95be 4e7c 283e 545b 5abe ba39 e8bc
00000160: b90f b03e 6ee2 a2bd 38db 68be 4360 163e
00000170: d8e9 05bf 6d53 1ebf 125d 6b3e e064 85bd
00000180: 84ac 17be 367e 733e c23c a23e 5d52 a53c
00000190: d5f8 56bc b00f 24bd da03 24be f4c3 f7be
000001a0: 8eee ab3e 6bd5 ca3e fb87 993e 9110 f43e
000001b0: cddc 0e3f 6a94 eb3e 4eb1 34bf 4dc6 a6be
000001c0: c610 ab3d 70e0 0abd f5e2 6c3e 93c8 c6be
000001d0: 0c22 e13c a552 d0be 9438 3e3e 847b 10bf
000001e0: 7631 5ebe f4dc b53e 555f 223e 2e96 02bf
000001f0: 4d84 c03e a8d5 d4bd ac0d 0bbf 0afa c73e
0.21501105 -0.41231722 0.23195902 0.013830756 0.0150440745 0.017124567 -0.02077359 -0.25286397
-0.6721755 0.301377 -0.10228491 -0.21106163 0.34843656 -0.33207458 -0.09587598 -0.6456
-0.4655117 0.38470903 0.0795831 0.22449647 0.5502897 0.02175264 0.3146656 0.06386615
0.17133932 -0.6103867 0.33849484 0.038576003 0.058745693 -0.6935535 0.31028962 -0.09909335
-0.5321624 0.4604226 0.53471804 0.19502015 -0.22477168 0.22551076 -0.5963002 -0.63038474
-0.09804022 -0.2433913 0.55152386 0.15363304 -0.19661611 -0.69684815 -0.009950718 0.25217977
-0.23729517 0.5396034 0.27689627 0.41948986 0.47494352 -0.6173642 -0.58631027 -0.019029483
0.27968395 -0.14764482 -0.13482195 -0.686124 0.53166753 -0.02048254 -0.5308552 -0.54351705
0.4781579 -0.5921886 0.26548833 0.53393495 -0.44927052 0.2716951 0.23357269 0.066620946
-0.48448962 -0.42286667 -0.69105077 0.092339836 0.018253447 -0.18335503 0.4418857 -0.049125433
-0.02515327 0.5831947 0.57373375 0.4097284 -0.29273733 0.16453668 -0.21323901 -0.028347839
0.34386995 -0.07953344 -0.22739875 0.14685158 -0.5230994 -0.6184605 0.22984722 -0.06513381
-0.14811903 0.23778614 0.3168698 0.020180875 -0.01312085 -0.040054023 -0.16017094 -0.48391688
0.3358044 0.3961595 0.29986557 0.4766889 0.55805665 0.46011668 -0.70583045 -0.32573166
0.08352809 -0.033905447 0.23133452 -0.388249 0.027482055 -0.40688053 0.1857627 -0.5643847
-0.21698555 0.35520136 0.15856679 -0.51010406 0.37600937 -0.10392314 -0.54317737 0.39057952

fc2.weight f4 [128, 128]
00000000: c2e2 d7ba d09f 183c 1e59 83bb 9efb ad3c
00000010: f0a4 d4bd 403a 9e3c 4f2e 843d 5041 323c
00000020: a8cd cdbc b0fb 4b3c 0013 c63b 00fa 743c
00000030: 3395 b2bd 5ebb 643d 005b b13b 007f a93b
00000040: 6314 29bd a621 5d3d 9708 b2bd f811 5dbd
00000050: 4ba8 a9bd 9608 373d 70a3 76bd 8743 a5bc
00000060: e62e fbbc a97b 883d 5fb5 cbbd d4d2 97bd
00000070: ebff dfbd e424 9dbc fba8 cbbd 5182 03bc
00000080: b460 0b3d c542 98bc f8f2 0b3c de54 30bd
00000090: 94e8 81bd fa9b 1cbd df55 933d f067 883c
000000a0: 38f0 813c 4ebc d8bc 00db 143d f2ae 703d
000000b0: c027 9b3c cf02 803d 8333 8bbc 6e8a c7bc
000000c0: dd59 833c f910 dfbd 7578 fc3c 155c 9ebd
000000d0: b535 7bbd 609d adbb 031a 88bd 0f1d a3bd
000000e0: 037a 923d a0c0 6cbc 30ce 043d 6097 903c
000000f0: af6d b13d 7cae 29bd 4a5a 39bd 4357 ad3d
00000100: ca71 6dbd f231 b2bd 582b 41bd e2e3 953c
00000110: 1197 813d 0220 b2bd a37f cebd 32af 3a3c
00000120: 9626 6dbd d2b9 483d 3801 a4bc 9eb6 6dbd
00000130: 39ae 1dbd b15b 933d 87af adbd 2001 8bbd
00000140: 16e9 1b3c c9a1 693c df6c 28bd 485c f83c
00000150: 0098 aebc 1ecb 17bd e3a8 89bd d4b7 8abd
00000160: 78b8 a6bd cf4a 043b c4d9 84bc febd 0f3d
00000170: 5f86 2fbd a2cf 523d 05ae 433d 0814 a5bc
00000180: 0354 4abd ae07 b03c e9d1 e4bd f181 173d
00000190: 3c91 353d 50fe a8bb e164 60bd 6830 383c
000001a0: b366 083d 08e0 413c d810 c7bb 7730 f13b
000001b0: b915 d63c 54b8 c8bb d950 45bd e0c9 213b
000001c0: 77e2 73bd 422d 363d 9190 98bd 6139 9e3d
000001d0: 85dd 4d3c 59d4 b4bd d1ea 82bd f8b1 59bc
000001e0: e2c2 eabc 9800 0ebd 8bb5 41bd 127e 7e3d
000001f0: 82f6 243d 7834 09bc 4ffc 1dbd 8323 c7bd
00000200: e8a7 50bd 4cdd 47bd 2f1c 523d 00cc c4b8
00000210: 6a46 a8bd 8078 dfbb a011 63bb 9809 b03c
00000220: 64c9 eb3c cae8 c13c 5051 34bd 007c 9cbc
00000230: 7768 dcbd 192e 02bd 3c27 9fbd b011 fbbb
00000240: a2d8 5abd 750c 7ebd 48b1 503d a8aa 453d
00000250: affb a5bc a542 593c 7b9f cf3c f658 e4bc
00000260: 6d00 68bc 20b8 c2bb b170 d1bd 8c4c 1e3d
00000270: 5224 c7bd 3a87 d8bc eaba d7bd 044b acbd
00000280: 2d37 b43d 9f83 23bd 2c13 86bb 9e03 2abc
00000290: e56a 8d3d b747 59bc c0bf 4c3b 4026 26bd
000002a0: 98d3 843c 7c43 9d3c c8b9 bdbd 8af8 c3bd
000002b0: 188a 1cbd ffbb 9b3d ca4b 5c3b bd27 913c
000002c0: aa4a 713d 41b8 05bd 64ec b9bd 25d1 583d
000002d0: e8ef 8cbc ad3b 02bd 58b4 113d 7327 c0bd
000002e0: aead eabc 2b18 a83d 74b4 ee3c 6cab a9bd
000002f0: e898 393d 8c7b 9a3c f883 c1bc af63 8e3d
00000300: 688e f53b 1e82 533d 0911 3c3c 4670 a6bd
00000310: 5bca 82bd 1be6 013d 3977 18bd 9100 933d
00000320: 06e2 333d e480 aebd d6de 453d 34f1 493c
00000330: 8e52 efbd 2022 ab3b d9ae d1bd 064b 313d
00000340: 6975 7a3c 3640 9fbb 5a03 c13c d17e a5bd
00000350: 0012 4abb 2131 64bd d15a 8a3d b956 003d
00000360: deea 80bd 0da5 dabd c0ef 49bb 4ce2 183d
00000370: b83d 9cbc 423f 053d 7ba2 c4bd eeb4 70bd
00000380: 5c5c 9bbd f6c1 dcbd e7a0 8abd 083f 8ebd
00000390: eb95 1b3b 6730 953d b0ec 313c c8ee 113d
000003a0: b3ab b4bd 4360 8fbd 932a eabd ebe7 503d
000003b0: b7ef b6bc c84f 65bd 6e66 a5bd e0b2 873c
000003c0: 56af f2bd 8258 733d bada eabd a8fe 9a3c
000003d0: b116 bd3c c941 92bd 1dcc 073d 0fc9 ad3d
000003e0: 9afc 7c3d 0ba4 463d dfbf 95bd b80e 7ebc
000003f0: f5bd 423d 9e81 2b3d b8bd 75bd 877b 623d
-0.0016470777 0.009315446 -0.0040084263 0.021238144 -0.10383022 0.019314885 0.06454145 0.0108798295
-0.025122479 0.012450144 0.0060447454 0.014952183 -0.08719864 0.05584275 0.0054124594 0.0051726103
-0.041279208 0.053987168 -0.08693045 -0.053972214 -0.082840525 0.044685923 -0.06021446 -0.020173801
-0.030662011 0.06664211 -0.09946703 -0.07413259 -0.10937484 -0.01918263 -0.0994434 -0.008026675
0.03402777 -0.018586526 0.008541815 -0.043049686 -0.06343189 -0.03823469 0.07194113 0.016651124
0.015861616 -0.026456978 0.036341667 0.05876059 0.018939853 0.06250536 -0.016992336 -0.024358
0.016034061 -0.10891909 0.030819157 -0.07732407 -0.061330516 -0.0052983016 -0.06645586 -0.07964527
0.07152178 -0.014450222 0.0324232 0.017650306 0.086634986 -0.041426167 -0.045252122 0.084639095
-0.057969846 -0.087009326 -0.047160476 0.01829714 0.06327642 -0.08697511 -0.100829385 0.011394309
-0.057898127 0.049005337 -0.020020112 -0.058035485 -0.03849623 0.07195223 -0.08480745 -0.06787324
0.009516021 0.014259764 -0.041119453 0.03031744 -0.021312714 -0.037058942 -0.06721666 -0.06773344
-0.08140653 0.002018619 -0.01621712 0.0350933 -0.042852756 0.051467545 0.04777338 -0.020151153
-0.049396526 0.021488037 -0.1117285 0.036989156 0.04432796 -0.0051572695 -0.054783706 0.01124201
0.033301067 0.011833198 -0.006075006 0.007360514 0.026133405 -0.0061254892 -0.048172805 0.0024686977
-0.059542146 0.044476755 -0.07449449 0.07725788 0.012565021 -0.088295646 -0.06392444 -0.01328706
-0.02865738 -0.034668535 -0.047292273 0.06213195 0.04027415 -0.008374326 -0.0385707 -0.0972357
-0.050941378 -0.04879503 0.05129641 -9.384006e-05 -0.082165554 -0.0068197846 -0.0034647956 0.02148895
0.028782554 0.023670573 -0.04402286 -0.019102097 -0.107621126 -0.031782243 -0.07771155 -0.0076620206
-0.053429253 -0.0620236 0.05095032 0.048258454 -0.020261614 0.013260518 0.0253446 -0.027874451
-0.014160258 -0.0059423596 -0.10226572 0.03864722 -0.097237244 -0.026431669 -0.10533698 -0.084127456
0.087995864 -0.039920446 -0.004091641 -0.010376839 0.06905154 -0.013261727 0.0031242222 -0.04056382
0.016214177 0.019197218 -0.092639506 -0.095688894 -0.038217634 0.07604217 0.003361451 0.017719144
0.058909096 -0.03264642 -0.09078291 0.05293383 -0.01720424 -0.031795193 0.03557238 -0.09382524
-0.02864727 0.08207735 0.029138781 -0.08284649 0.04531184 0.01885774 -0.023622498 0.06952607
0.007493783 0.05163776 0.011478671 -0.08126883 -0.063862525 0.031713586 -0.037223075 0.071778424
0.043916725 -0.08520678 0.048308216 0.012325574 -0.11685668 0.005222574 -0.10238428 0.04328444
0.015286782 -0.0048599495 0.023561168 -0.08080829 -0.0030833483 -0.055710915 0.06755603 0.031332705
-0.06294797 -0.10676012 -0.0030813068 0.03732519 -0.019072399 0.03253103 -0.09601303 -0.058766298
-0.075859755 -0.107791826 -0.06768971 -0.06945616 0.002374048 0.07284623 0.010859653 0.03562811
-0.088218115 -0.07000782 -0.11433902 0.051002424 -0.022331102 -0.05598429 -0.080761775 0.016564786
-0.11849849 0.05941058 -0.114675 0.018920258 0.02308211 -0.07141454 0.033153642 0.084856145
0.061764337 0.048496287 -0.07311987 -0.015506439 0.04754444 0.04187166 -0.059995383 0.055293586

fc2.bias f4 [128]
00000000: ea03 abbd 3779 a8bc 2964 ccbd 4ef6 c5bc
00000010: 78da 4abd c185 82bd f144 a1bd 3002 b9bd
00000020: ac61 013f 27d9 69bd 9eb4 ed3e 6cca 0f3d
00000030: f391 d5bc 5170 573c 5072 cf3e 5987 88bd
00000040: 676d a23c e77a c6bc d9a8 84bc 650a b83e
00000050: 26e3 82bd 4c60 833d e995 bf3e 103a 12be
00000060: 3201 b03b c85d aebd 75eb 9b3e 7bfb aebc
00000070: 5c0c b1bd 0042 4039 5800 bfbc 1fc4 7b3d
00000080: e63d 96bd 5d4d aebd 063f dbbb 6d72 073f
00000090: 9980 023d 9225 eb3e aa69 ad3e 0e93 033f
000000a0: 1c4e cdbc 9dba 8abd 21bc 85bd 2159 a9bd
000000b0: e118 1ebd 3207 b13e 6711 073f 5924 95bd
000000c0: 8b8d cf3a 3e50 b73e d741 63bd 83fe 58bd
000000d0: 25df 86bd a9a5 ae3e 09ce fe3e 9873 d53e
000000e0: c7d8 df3e b353 b5bc 9004 90bd 692d 54bb
000000f0: a345 01be da17 91bd a63a 043f b20d f53e
00000100: f079 dbbb bfab 43bd 3e73 ca3c 3684 013d
00000110: 616d b1bd 74e3 953e 87e9 b9bd c7c5 20bd
00000120: cd70 143d 6d29 e6bd 9a24 d7bd d0ff b93e
00000130: e8aa de3c 23ba 9b3d 4431 943c 9759 bf3e
00000140: 8ef4 f43e 8e3b 813c b3e0 4bbd 8418 59bd
00000150: dda0 353d 1c21 95bc cdbb 9bbd 561c cebc
00000160: f8d3 cebd 516f 1bbb 9918 933d eaee c43e
00000170: b3ef ad3e 1216 da3e 0ded eb3e b7dc 3ebd
00000180: 41bc 55bd 5c7e 743d 4535 e9bd 230d 8e3b
00000190: 076f ba3e 53c3 013f 9e4f cd3e 9a29 2b3d
000001a0: 5636 8bbd d591 993e b808 cb3e 9095 a5bc
000001b0: 5d54 a03d 41df b5bd 0b47 e33c 3d04 103f
000001c0: a804 b53e e863 b1bc dc13 60bc 9034 c6bc
000001d0: 8c29 5cbd e03c d73e d75a 55bd 6861 ae3e
000001e0: e06e 3f3d 7832 b2bc dacb 3abd 6158 0b3c
000001f0: 5299 a5bc 9457 a43e c35b 2cbd e035 cb3e
-0.08350356 -0.020565612 -0.099800415 -0.024165299 -0.049524754 -0.06373168 -0.07874478 -0.0903362
0.5053966 -0.05709186 0.46426862 0.035105154 -0.02607057 0.013149337 0.405169 -0.066664405
0.019827558 -0.024228526 -0.016193794 0.3594543 -0.063909814 0.064148515 0.3741906 -0.14279962
0.0053712362 -0.08513981 0.30453077 -0.02136015 -0.086449355 0.00018335134 -0.023315594 0.061466333
-0.07336025 -0.085108496 -0.0066908626 0.52908975 0.03186092 0.459271 0.33869678 0.5139626
-0.02506166 -0.06773875 -0.06530023 -0.08268953 -0.038597945 0.34575802 0.5276093 -0.072823234
0.001583503 0.35803407 -0.05548271 -0.052977096 -0.0658553 0.34110764 0.49766567 0.41689754
0.43720075 -0.022134637 -0.0703212 -0.00323757 -0.1262422 -0.070846274 0.5165199 0.4786201
-0.0066978857 -0.04777121 0.024713155 0.031620227 -0.086634405 0.29275095 -0.09077745 -0.039251115
0.036240388 -0.1123837 -0.10505028 0.36327982 0.027181104 0.07603862 0.018089898 0.3737304
0.4784283 0.015775468 -0.049774837 -0.053001896 0.044342864 -0.018204264 -0.076041795 -0.025159996
-0.100990236 -0.0023717473 0.07182426 0.38463527 0.33971938 0.42594963 0.46079293 -0.04659721
-0.052181486 0.05969082 -0.113871135 0.004335062 0.36412832 0.50688666 0.40099806 0.04178772
-0.06797473 0.29994074 0.3965509 -0.020212919 0.07828591 -0.08880473 0.027743837 0.5625647
0.35355115 -0.021654084 -0.01367661 -0.024194986 -0.05375056 0.4203863 -0.052088585 0.3405869
0.046736598 -0.021752581 -0.045604564 0.008504958 -0.02021471 0.32098067 -0.0420797 0.3968954

q.weight f4 [3, 128]
00000000: 426d 973c 13a1 a13d a253 b93c 65bb 433d
00000010: 6c4e 89bc d846 e8bc ab9a 77bd 5b19 a23d
00000020: cb54 17bf f0a4 b13b 6b57 00bf de13 8cbd
00000030: ef38 0fbd a212 32bd cce1 28bf d8b4 4abd
00000040: 77f6 183d 39cd dbbc 66ab 55bc 4607 eebe
00000050: 9694 0d3b 2e6b 533d ba17 59be 4a8b 8ebe
00000060: 3417 a4bd 738c ab3d 453b 83be 1ab4 54bc
00000070: 64b9 433d 94f3 ec3c 4012 2fbb 01b4 1c3d
00000080: be62 163d ba94 f63d bf6a 7b3d 8f56 15bf
00000090: 26bc 813d 2917 f9be 1f0c f0be b052 20bf
000000a0: 9fa3 debc ed1f a83d 00b6 5c3b 3056 ffbb
000000b0: 506a e3bb 6d72 51be b91c 1bbf 5908 a03d
000000c0: c790 d3bc ddb9 9dbe e011 b53b 3567 ad3d
000000d0: 7ab6 35bd 7162 c2be aa54 00bf 478c 9bbe
000000e0: 40f1 eabe 4eb0 97bd a0d4 0cbc dcd2 d6bc
000000f0: 7533 dc3c 7474 6c3c 2262 26bf 0187 e9be
00000100: c90f a7bd d19e 04bc f2ea 2ebc 5f4f 4d3d
00000110: 014d a83d 050e 44be c820 8d3d 8e9e 263d
00000120: 3a00 70bd 769f 263d e78f 0c3a f787 c8be
00000130: bc0e f53c b0e0 9c3d 98b9 63bd a24d 81be
00000140: abcc ffbe c8eb dabd 01bb 833d 463f 97bd
00000150: 5a9c 8d3c 7a1d 2f3d 0260 7e3d 7b9c 98c0
00000160: d6ef 9abd c82d f73c f129 c53c 5a7c 64be
00000170: bd8c 87be 09d1 e2be 0270 1cbf f374 6f3d
00000180: 782f b3bd 40b6 71bd a9a0 803d 93fb 033d
00000190: d5f1 dabe 3b7b 2abf ed31 06bf 908c 9fbc
000001a0: 05fe 063d e1eb 7bbe b538 8fbe 0628 1b3d
000001b0: 78eb 333c 588e 7cbc fce8 6bbd 18d2 1ec0
000001c0: c68c 73be 5059 bd3c be79 723d 9286 473d
000001d0: ac24 0d3d b5fd e3be 35fd 1abd bc41 30be
000001e0: b33b 963d f04a 8bbb 5c4f 44bd 5e3d 733d
000001f0: f08a 86bc 3d43 62be a129 823d 562a 84be
00000200: bc4d 683d 425e f6bc 7262 f03c cac0 72bc
00000210: 11f6 b4bb ddfb 873d c8af 86bd 1090 ddbb
00000220: 9429 cfbe 28a2 4abc 0f00 dcbe 1c10 b6bc
00000230: 3043 1fbc 40ad 0cbc 0e2a cebe 9b10 07bd
00000240: f103 e7bd ec67 69bc 947e e5bd 7119 ebbe
00000250: 7424 86bc 6edc 8f3d 78cb 8bbe 07b5 3e3f
00000260: 56b2 7ebd dbe6 823d 012a b6be 8f62 493c
00000270: 4fa9 5fbd 249d 8bbd b753 50bd 9a53 29bd
00000280: 76f9 233d 3c0e bf3c d81a 793d f0db adbe
00000290: 67e5 01bc 981c fdbe 09a7 f2be 8082 e4be
000002a0: dd49 1c3b 21b7 a6bd 8053 34bc 2747 20bd
000002b0: e305 46bd 1c82 dbbe 1a5c c1be e717 aebd
000002c0: 463d 793d 5cbc cdbe 70fd aabb d4cc 8abd
000002d0: a661 323d 91a7 ccbe 3c2c d6be 299f d1be
000002e0: db83 debe 7e94 a7bc be16 a03b c68b dfbd
000002f0: dcea 34bd 08bb 813d 861f dbbe 5e39 ecbe
00000300: e8d8 e7bc 00f7 273d 742e 8bbc d87a 4c3d
00000310: a4cc d23c 12a1 8dbe 3111 2a3c e023 31bb
00000320: 4751 fabb db82 44bd 172e 0c3d 4b97 dcbe
00000330: 808f 35bb c2f3 62bd 4af6 903d b15b aabe
00000340: 33ce aebe 8b2e 15bd d280 8abd 22c9 013d
00000350: 8037 343c 7829 6abc 9206 193d 71b0 fec0
00000360: 2882 f63c a728 eb3c 5628 ce3c c8a8 c8be
00000370: 5a80 c9be aa7f fbbe cb0a d6be e6b4 37bd
00000380: d067 0d3d 6c43 82bd d64c 8ebd 3508 af3c
00000390: a106 b7be c814 dabe 8350 fabe bd44 8ebd
000003a0: c0c5 ff3b aaf3 dbbe d565 b0be 2dc3 df3c
000003b0: 6e9c 633d fa4b 07bc 0f8b 4abd 3656 0bc0
000003c0: 6625 34be 5aa9 57bd 2d0e 413c 9aad 6e3d
000003d0: aff2 a63d aa95 fabe 17fe 2dbd e5d6 c7be
000003e0: 0851 94bc 4219 6a3d 09d1 a7bd fbb9 503d
000003f0: 553a 6ebc 5f73 e1be f259 2dbd 5780 d2be
0.018484715 0.078920506 0.022622887 0.047786135 -0.016761027 -0.028354093 -0.060450237 0.079149924
-0.5911376 0.0054212734 -0.5013339 -0.06839727 -0.034966405 -0.0434748 -0.6596954 -0.049488872
0.037344422 -0.026831256 -0.013041353 -0.46489924 0.0021603457 0.051615886 -0.21200457 -0.27840644
-0.08012238 0.08376398 -0.25631157 -0.012982393 0.047784224 0.02892474 -0.0026713759 0.038257603
0.03671526 0.12040086 0.061381098 -0.583352 0.063347146 -0.48650482 -0.46884248 -0.6262617
-0.02717763 0.08209214 0.0033677816 -0.007792257 -0.0069401637 -0.20453806 -0.605907 0.07814092
-0.025825871 -0.30805865 0.0055258125 0.08466951 -0.044363476 -0.3796573 -0.5012919 -0.3038046
-0.45887184 -0.07406674 -0.008595616 -0.026223592 0.026880005 0.014432061 -0.6499349 -0.45610812
-0.08157308 -0.008094505 -0.0106761325 0.050124522 0.08217812 -0.19145973 0.06891018 0.040678553
-0.058593966 0.040679418 0.00053620193 -0.39166233 0.029914252 0.07660043 -0.055596918 -0.25254542
-0.49960837 -0.10689503 0.064321525 -0.07385115 0.017286468 0.04275272 0.06210328 -4.7691016
-0.07565276 0.030173197 0.02406785 -0.22313061 -0.26474562 -0.44300106 -0.6110841 0.05846114
-0.08749288 -0.059011698 0.062806435 0.03222234 -0.42762628 -0.66594285 -0.5241993 -0.019476205
0.032957096 -0.246017 -0.27972952 0.037879966 0.010981433 -0.015414797 -0.057595238 -2.481573
-0.2378417 0.023113877 0.059198134 0.04871232 0.0344588 -0.445295 -0.037839133 -0.17212576
0.073356055 -0.0042508766 -0.047927245 0.059384696 -0.016423672 -0.22095962 0.06355596 -0.2581355
0.05671476 -0.030074243 0.029343817 -0.014816472 -0.0055224975 0.06639836 -0.06576496 -0.0067615584
-0.4046141 -0.012367763 -0.42968795 -0.022224478 -0.009720609 -0.008586228 -0.4026646 -0.03297482
-0.11280049 -0.014245968 -0.112057835 -0.45917848 -0.016374804 0.070244655 -0.27303672 0.74494976
-0.062181793 0.063916884 -0.3557892 0.012291565 -0.054604825 -0.068170816 -0.050861087 -0.041339494
0.040032826 0.023322217 0.060816616 -0.33956861 -0.007928229 -0.49435878 -0.47393063 -0.44630814
0.0023847737 -0.08140398 -0.011006236 -0.039130356 -0.048345458 -0.42872703 -0.3776558 -0.08500653
0.06084945 -0.4018277 -0.0052182004 -0.06777349 0.043550156 -0.39971593 -0.41830623 -0.40941742
-0.43459973 -0.020456549 0.0048855236 -0.109153315 -0.04416929 0.063345015 -0.42797488 -0.46137518
-0.028301671 0.041007042 -0.016989924 0.04992184 0.025732346 -0.2766195 0.010380075 -0.002702944
-0.0076390835 -0.047976356 0.034223642 -0.43084177 -0.002770394 -0.055408247 0.07078226 -0.3327308
-0.34141693 -0.03642134 -0.06762852 0.031685956 0.01099956 -0.0142921135 0.03735978 -7.9590383
0.03009136 0.028705908 0.025165718 -0.3919127 -0.39355737 -0.49120837 -0.4180511 -0.044850253
0.03452283 -0.06360516 -0.06948249 0.021366218 -0.35747245 -0.4259398 -0.4888955 -0.069467045
0.007805556 -0.42959338 -0.34452692 0.027314747 0.055569105 -0.00825786 -0.049449023 -2.177137
-0.17592391 -0.05265174 0.011783165 0.058271028 0.08151757 -0.4894231 -0.042478647 -0.3903114
-0.018105045 0.057152994 -0.08194167 0.050958615 -0.014540275 -0.44033334 -0.042322107 -0.4111354

q.bias f4 [3]
00000000: 5882 85bf 867d 14bf 432b f1be
-1.0430403 -0.58004034 -0.4710332
