models/sac_CartPole-v1.pth (torch, 215597 bytes, 18 tensors)

fc1.weight f4 [128, 4]
00000000: 4418 e4be f98c 2e3f d336 b13f fda7 363f
00000010: 551b 03bf 4b71 d0be a1ba 913e ca5a 1b3f
00000020: 632b bd3e f068 9bbe 73fe 353f 7542 f13e
00000030: a19f 333f c28c 0d3e 18d7 e0bc f9f5 96be
00000040: 6ee0 513f 6dcf 313f 2d2f bc3e c3ae 0a3f
00000050: 0abd 10bf a0ae 48be 85c3 c23f bafc 693e
00000060: 3900 9e39 e942 353d a991 c03e 988c e6be
00000070: 2e1b 033f 48a0 51bf f4c3 63be 600d cebe
00000080: c0ae 3a3d 6392 cf3e 0d40 abbe 87c6 093f
00000090: 9beb d83e 1aad d43e e61b 1c3e cd45 22be
000000a0: be7c 37ba 45ec 61be 88a4 be3e aaa0 6d3f
000000b0: 71b4 f23d 5cff ffbe 70d4 4b3f 0e4b ae3e
000000c0: 6ab9 8a3f 0ca7 e13e ee77 44bf fa5c b83c
000000d0: 3f96 f2be a785 6f3f 7384 a73e be03 323e
000000e0: e1aa a53f c365 30bf 3c49 0abf b860 213f
000000f0: 6805 a03e e7d4 0ebf 7dbb 7bbf aa67 b7bd
00000100: 5949 813f 9e2d d83d 43bb 2dbf a6aa a4be
00000110: 00e1 a8be 6e15 f0be 2d92 7a3f d8e7 21bd
00000120: ffc7 8e3f b28f adbe 3d5d cbbe c329 04bf
00000130: cab6 edbe 9799 a63e ce52 b43f 4ac9 53be
00000140: e5d3 943d 8336 f6bd 78b7 523e eb68 7bbf
00000150: 2518 f83f 04b9 b7bd 0165 cf3e abf0 2f3e
00000160: dcd0 93be a935 acbe 5754 b2be b265 54be
00000170: b4c6 3f3f 0dfc 443f 7883 a1bf 5d70 b4bd
00000180: 39d9 a03f 65f7 afbe 0466 83bf 69c7 a0be
00000190: f727 9dbd ab80 d63d 6d1b f4bb 205a 13bf
000001a0: ba8c ad3d 8261 9dbe fa43 533e 9db9 64bf
000001b0: a071 553e 16f6 803d 8266 c53f ba0a ddbe
000001c0: 84c0 9c3e 48cc 68bf 4bb3 e5bf 12e5 733e
000001d0: 43f3 0d3f 714a 05bf cf89 3fbe 89d2 21bf
000001e0: e5e7 9c3c 5d5e 0bbe 7723 5ebf 9fe7 f4be
000001f0: fbe8 05bd 0568 81be 876f 23bf 38c3 afbe
00000200: 8b77 2e3f 6207 403c b9c9 993f 6384 7b3e
00000210: a3cd 38be 5587 7c3e 7ca6 28bf 5a68 4fbc
00000220: cf7a e4b9 1815 8bbe 1506 5d3d 9289 fdbe
00000230: 0f00 8b3e f273 72bf 6865 4cbe 0ee0 12bf
00000240: bcd0 a43e bfc4 ea3e f3ca db3f a4f4 5d3d
00000250: eb86 813f 565d 11bf 3216 18bf 24c3 06be
00000260: 8ec9 843e ac20 55bf d4fc 21bf 6d4a 54be
00000270: 5c41 f03e 9b3f b63e 4951 713e d9eb b7be
00000280: 3837 8b3f 5abc 8a3e 3428 5abf 2277 bdbe
00000290: 9e83 c63e 2d8f 483f 50b4 093f 8cb4 e63e
000002a0: bce7 433f 49f1 4cbe 6aeb 82bf ccbd 9b3d
000002b0: 9a59 c53e e3f8 d6bd 023e 74be 2519 b0be
000002c0: 6b9c 74be 48be 1bbd ceb4 3e3f a7d9 85bf
000002d0: a21b b13d e812 b53b 4654 083f a913 db3d
000002e0: f7e6 033f e727 9ebc ad3d 2b3f f295 423d
000002f0: f998 313e f730 d3bd f98c 733f 752c 0a3e
00000300: 85c1 803f 3a22 f03d 7a72 813f 66bc a53e
00000310: b9c0 9b3e 1c27 053e ecc3 723f 52fc f93c
00000320: a3dc 0dbf ed86 f3be cb93 963f dc49 373e
00000330: e864 86be 6a98 29bf 9d17 f5bf 99ae 503e
00000340: 2199 32be ee80 c2bb 5c09 f2be 9bed 593f
00000350: ff79 1abf 0be7 3cbf 6361 1f3f 33fb 423f
00000360: 1821 943d d097 04be 7cd2 533e e802 43be
00000370: bb27 073e 634a 2a3f d3eb 23bf 41b5 c6be
00000380: f67e b1be b75b 623f 2055 dd3e 4a52 89be
00000390: c2fa 46bf bdf0 4abf f370 143f 7b9c d8be
000003a0: c6e4 db3e e018 af3e 72b8 3c3e 0596 9d3e
000003b0: 0188 d8be 6ec3 cbbe 28a3 b3be 783d 36bf
000003c0: f7ff 2bbd fee7 12bf a077 8cbf 9051 08bf
000003d0: 1a49 c1bd ec60 07bf 1f02 11bf 92e9 04bd
000003e0: 691a 3a3c e495 b53c ab86 f73e 3c48 26bf
000003f0: 7b33 503e 1925 c4bd 0e9c 8bbf c6e0 38bf
-0.44549763 0.6818386 1.3844856 0.7135008 -0.5121358 -0.40711436 0.284627 0.6068541
0.36947164 -0.30353498 0.71091384 0.47121015 0.7016545 0.13823226 -0.027446315 -0.29484537
0.8198308 0.6945713 0.36754742 0.54172915 -0.5653845 -0.19597864 1.5215918 0.22850314
0.00030136274 0.044253264 0.3761113 -0.4502914 0.5121335 -0.81885195 -0.22242719 -0.4024458
0.04557681 0.40541372 -0.33447304 0.53818554 0.42367253 0.41538316 0.15245017 -0.1584694
-0.0006999484 -0.22062786 0.37234902 0.9282328 0.11850823 -0.4999951 0.7962103 0.34041637
1.0837834 0.4407276 -0.767455 0.022505272 -0.47380254 0.9356331 0.32718238 0.1738424
1.2942773 -0.68905276 -0.54017997 0.63038206 0.31254125 -0.55793613 -0.9833296 -0.08955319
1.0100509 0.10555576 -0.67863864 -0.32161444 -0.3298416 -0.4689135 0.97879297 -0.039527744
1.1154784 -0.33898693 -0.39719573 -0.51626223 -0.4642852 0.32539055 1.408777 -0.20682254
0.07266978 -0.12022116 0.205778 -0.9820697 1.9382368 -0.08970836 0.40506747 0.17181651
-0.28870285 -0.3363469 -0.3482997 -0.20741919 0.7491257 0.769471 -1.2618246 -0.08810494
1.2566291 -0.34368435 -1.0265508 -0.31402138 -0.07673638 0.1047376 -0.0074495585 -0.57559395
0.08474107 -0.30738455 0.206314 -0.89345723 0.20844126 0.06296937 1.5421908 -0.43172246
0.30615628 -0.9093671 -1.7945341 0.23817852 0.5544931 -0.52066714 -0.18704914 -0.63211876
0.019153545 -0.13610215 -0.86772865 -0.47832963 -0.03269289 -0.25274673 -0.6384205 -0.34328628
0.6815116 0.01172051 1.2014686 0.2456222 -0.18047194 0.24661 -0.65879035 -0.012659157
-0.00043579048 -0.2716453 0.05396088 -0.4951902 0.27148482 -0.9470817 -0.19960558 -0.5737313
0.32190502 0.4585323 1.717131 0.054188386 1.0119299 -0.56783044 -0.5940887 -0.13160378
0.25935024 -0.8325298 -0.6327641 -0.20731516 0.46924865 0.35595402 0.23566164 -0.35922125
1.0876226 0.27096826 -0.85217595 -0.37004954 0.3877229 0.7834347 0.5379076 0.4505962
0.76525474 -0.20013918 -1.0228093 0.0760456 0.38544923 -0.1049669 -0.23851779 -0.34394184
-0.23887794 -0.038023263 0.74494636 -1.0457047 0.08647849 0.0055259354 0.5325359 0.10697109
0.515243 -0.019306136 0.66890985 0.04750628 0.1734351 -0.10312074 0.9513698 0.13493522
1.0059057 0.11725278 1.011306 0.323703 0.30420473 0.130032 0.94830203 0.030515824
-0.5541479 -0.47563878 1.1763853 0.17899269 -0.2624886 -0.6624819 -1.9147831 0.20379104
-0.17441227 -0.00593578 -0.47272766 0.8512818 -0.603424 -0.73790044 0.62257975 0.7616455
0.07232875 -0.12948537 0.20685762 -0.19044077 0.1319875 0.66519755 -0.64031714 -0.3881016
-0.34667176 0.88421196 0.43229008 -0.26820594 -0.77726376 -0.7927359 0.57984847 -0.42306885
0.42947978 0.34198666 0.18429735 0.30778518 -0.42291263 -0.3979754 -0.35085416 -0.71187544
-0.041992154 -0.5738524 -1.0974007 -0.53249454 -0.09437771 -0.52882266 -0.5664386 -0.032449313
0.011358836 0.0221662 0.4834493 -0.6495397 0.20332138 -0.09577388 -1.0906999 -0.7221798

fc1.bias f4 [128]
00000000: 6b8c 06bd 16f5 793e e9cd 0abf c839 49be
00000010: b428 d13e e8e4 18bf 12af 293d ebe4 433e
00000020: f1fe 213e bf18 f23d 135c 2e3d de9c 863e
00000030: 508b 773e 73ce 61be 6f19 9bbe 54e9 353e
00000040: 7ed2 abbe 71ec 393e b38a 723e ae1f f13d
00000050: e3d8 6c3d c7f9 6e3e 8eef d4be 0e4a b4be
00000060: 1285 4dbe 4f43 c8be 58e4 d93d 23b7 efbc
00000070: 46fd 9bbe 393b 9d3d d77f 09bc 86e5 703e
00000080: 1de9 90bd 7be7 6cbd 70f1 793e a083 09bf
00000090: 4235 aa3e e4e3 03bc 8dfd d8bd 4382 683e
000000a0: 95ca ebbe 6c6b 033f 13b8 e93c 9968 b1be
000000b0: 4853 f83d 3632 0f3e 9936 443e 2454 6fbd
000000c0: 9ad9 6d3e 1fad b93d c1f2 053d bef4 33be
000000d0: f0f0 99be 4a66 e7bd 7e99 e1be 7fca 583d
000000e0: 66a0 2bbf adfd c2be 9a85 4cbf 1995 8d3d
000000f0: 6c57 bebe d604 75bd bbd4 863d 122d 953d
00000100: 9ef5 82be 906f 0c3d 35f2 00bf 36c0 8d3d
00000110: 3979 953e 73e5 93be f01a a63d 15df 45bd
00000120: 4a90 8dbe 0985 f83d 2081 7ebe b63c 283e
00000130: 3ba3 92be bf05 47bd 66e2 b3bd 26da 0c3f
00000140: 1f81 03be d616 09bd f227 843e db84 ec3d
00000150: 1abd 49bc b2d8 a5be ed9a dc3c 4c90 8d3d
00000160: dd8e 01bf f9ce 033f 72cf f0be 16de bebe
00000170: 5e9d 383e a18a 0e3d 5f18 e9bb 1991 8a3e
00000180: 92bd 863e 30bc ae3e 683a 8a3e 40c3 e23d
00000190: b79d 1fbf eb06 49bc 10fd 3d3e 36a0 19bf
000001a0: 59fe 2f3e fcb0 15bf c34d 75be 91a7 4e3e
000001b0: c4c8 64bc e926 b3bd 0f23 96be 254e 14be
000001c0: f26b f2be 1b58 abbc d26b 52be 8f46 6ebc
000001d0: d469 fabe f1b7 b03d 466b 423e 1f3b 1fbd
000001e0: 86c4 5f3e dbed dfbc 1171 203e 4130 6fbe
000001f0: 5921 4bbf e54e c8be e56c ddbe 656c 53be
-0.032848757 0.24409899 -0.54220444 -0.19650948 0.40851367 -0.59724283 0.041426726 0.19130294
0.15819909 0.11821126 0.042568278 0.26291555 0.24174237 -0.2205141 -0.30292842 0.17764789
-0.3355903 0.18156601 0.23685722 0.117736205 0.057824027 0.2333747 -0.41589016 -0.3521275
-0.20070294 -0.39113852 0.10639256 -0.029262131 -0.3046667 0.076773115 -0.008392296 0.23525056
-0.07075713 -0.057837944 0.24408507 -0.5371647 0.33243757 -0.008049939 -0.10595236 0.22705941
-0.46052995 0.5133579 0.028530156 -0.34650114 0.1212526 0.13983998 0.19161452 -0.058429852
0.2322754 0.09066223 0.03270221 -0.1757383 -0.30066633 -0.11298807 -0.44062418 0.05292749
-0.67041624 -0.38084164 -0.7989136 0.06913204 -0.37176073 -0.059819065 0.06583544 0.07283987
-0.25578016 0.03428608 -0.5036958 0.06921427 0.29194048 -0.28885993 0.08110607 -0.04830845
-0.27649146 0.121347494 -0.24853945 0.1642941 -0.2864016 -0.048589464 -0.087834165 0.5502037
-0.12842225 -0.033469044 0.25811726 0.11548778 -0.012313152 -0.32391888 0.026929343 0.06912288
-0.5060862 0.5148769 -0.47033268 -0.37278813 0.18028781 0.034800176 -0.007113501 0.27063826
0.26316506 0.3412795 0.26997685 0.11072397 -0.6235003 -0.012269716 0.18553567 -0.6001009
0.1718687 -0.5847318 -0.23955445 0.20181109 -0.013963882 -0.08747656 -0.29323623 -0.14482935
-0.4734798 -0.020916035 -0.20548943 -0.01454319 -0.48908865 0.08628834 0.18986234 -0.03887474
0.21852311 -0.027335098 0.15668131 -0.23358251 -0.7934776 -0.39122692 -0.43247142 -0.20646818

fc2.weight f4 [128, 128]
00000000: 65a9 083e c63e 2b3d a719 423f 286b 4b3d
00000010: 93d2 01c0 50a5 4e3f 326d 593e 62dc 233f
00000020: 944b 4dbe ef11 513d acc4 cf3d 8602 603e
00000030: e7c1 d1be b2a1 c13e 4178 99bf 5164 2d3f
00000040: 12b6 88bf 8d83 053e e2fb d6be fa2f 573d
00000050: f5c2 163e 9125 20bf d1da f8be 5533 133f
00000060: 8fac aebe 7d32 bfbf ef4f 833d ae44 a23d
00000070: 018a 873e ee10 f53d cfa1 e23e 8e79 ab3e
00000080: 87b3 18bc 80c4 473e c09f f43d 495f bdbe
00000090: d9f6 dfbf eea5 dbbd d796 263f c448 223e
000000a0: ab18 8dbe 50ca e8bf 61de 15bc 0942 ffba
000000b0: 0ae5 9c3d d634 803d 77c6 b53e ae28 09bf
000000c0: 02a6 a3bf 5f26 9fbc a497 4d3e 2faf b63e
000000d0: 6203 9e3f ab8a 6c3e d4aa 8d3c 2517 c93d
000000e0: 405a 873e 1633 e8be 864f 04bf ed37 c73e
000000f0: 8d36 10c0 8517 3b3d 4499 003e ab30 05be
00000100: da19 c03e 9d1d 8c3e c476 89be 9b22 e23e
00000110: f8a0 edbd c699 503e d109 743e 2117 903e
00000120: f3d8 44be f28b d63d 827b a03e c3cd 33bf
00000130: 6465 903e 628a 24bd 2d4b 513d c9ec d1bf
00000140: 0cf7 133d 2423 2c3e 2d7e 653e e74e ad3e
00000150: 032e d33c 7176 22bf 7aa3 123e 9898 8d3d
00000160: b73c c7bc 243a cfbf 3a24 213f c1e2 00bf
00000170: d980 553d 1ef0 a03e fe52 98bf 61aa 983e
00000180: 9b5c b2bf 9047 a2bf 3c1c 503e b6d2 9d3e
00000190: 36a4 02be bcb1 883e 44ea 4a3f 21f6 15bf
000001a0: 70ba 943f d784 213f 4803 39be 5e19 b6be
000001b0: 9347 83bc 71ca 1c3e fddb 643e bf56 3c3f
000001c0: 3e46 0ebf 516b e33d 889c 2d3e 9b97 7d3f
000001d0: 002c 363a 5c50 49bd f362 38be 81be 683e
000001e0: 37f9 6ebe ed83 ec3d 2cbd 3ebf fcec 6bbd
000001f0: 3da7 b1be a413 923f dc6c f0bd 663d a0bf
00000200: 8e40 f03c 6cb7 a43e 2ec1 7a3f a22f ef3c
00000210: 5ccb c3bf 617c 6d3f 5575 4a3e 24aa 403e
00000220: c2a9 a5be c7e5 6f3e 77b2 e83d 0a67 673e
00000230: 6cab a1bf d844 b13e f8bd a0be 4e90 9b3e
00000240: 28d2 74be 17a6 1e3e 7e82 76be 37e4 f53e
00000250: b690 6c3e 3981 2dbe 10cb f8be 7733 0b3e
00000260: 16d2 84be d618 e0bf ca4d b83e ebaa a23d
00000270: 841e 643e 2c0b 21be 5c4f f63e 979f 6a3e
00000280: 0123 503b 5a74 a13d 1081 8b3d 9275 22bf
00000290: 66d1 82bf cacd 08bf d486 e13e 9afa ba3e
000002a0: 93e0 25be 0121 b6bf 2947 0cbf 9ca4 debc
000002b0: d13f c43d 97e4 433d 2cfd ca3e 4d9f 7a3d
000002c0: be9d 2fbf c19e a23e f6fc 893e 0726 9dbe
000002d0: 346a 953f 4c8b c53e b4bc 4dbd dfb5 f0be
000002e0: 3a1c eebc c8c7 f0be 7846 72be b2b4 8cbe
000002f0: 5de9 06c0 dada 8abc 4313 003e 57a6 c33d
00000300: 82d4 173f cab7 a43d efe8 aabe 19b2 b73d
00000310: b96f b1bc 90ab 82bd ae7c d13d 6358 0f3e
00000320: 854f f7be cfc2 093e 3d7e c0be 080d b7bf
00000330: 23cb f83d 02cd 493e a28a 463e d9a8 88bf
00000340: 4d97 d73e 0e96 e03d f7d5 e93e c0dc 92bd
00000350: d582 53be 1d13 87bf 013d 953d 2b9e 673e
00000360: 4a5a 9fbe 7c5f 83bf 10e1 3e3f 35ca 853d
00000370: 04bb c43e 3abf b7be 1ccb 9abf ff6b 713e
00000380: 4278 20bf 1df2 a3bf 5e88 bb3e 4f60 56be
00000390: 59cb 8dbe e85a be3c 06d0 233f 6684 3cbe
000003a0: 22c1 7f3f f737 6e3f 75e3 b4be 0ee7 dcbd
000003b0: 5482 803e 1a3d a93e 0fcf db3e 62aa 953e
000003c0: 12c6 55be c8ca 733e 5052 9dbc 4206 913f
000003d0: bade 623d 234d 483f 44e3 a4bb fbd6 843e
000003e0: 1574 07bc c030 6a3e f847 25bc 94db bcbc
000003f0: 0c7c 87be 9e26 933f 4c53 78be 849d 8cbf
0.13345869 0.041807912 0.7582039 0.04966274 -2.0284774 0.80720997 0.21233061 0.6400815
-0.20048362 0.051042493 0.10144934 0.21875963 -0.40968248 0.37818676 -1.1989824 0.67731196
-1.0680563 0.13038464 -0.41989046 0.05253599 0.14722808 -0.6255732 -0.48604444 0.575002
-0.34116027 -1.4937283 0.064117305 0.07923256 0.26472476 0.1196612 0.44264075 0.33491176
-0.009320146 0.19508553 0.119445324 -0.3698676 -1.7497207 -0.10725008 0.65073913 0.1584807
-0.27557883 -1.8186741 -0.009147258 -0.0019474636 0.07660873 0.06260078 0.3550298 -0.535777
-1.2785037 -0.019427476 0.20077378 0.3568053 1.2344782 0.23099773 0.017293371 0.098188676
0.26436043 -0.45351475 -0.51683843 0.38909855 -2.2533295 0.045676727 0.12558466 -0.13006847
0.37519723 0.27366343 -0.26848423 0.44167027 -0.11602968 0.2037116 0.2383187 0.28142646
-0.19223385 0.10475911 0.3134423 -0.7023584 0.28202355 -0.040171035 0.051097084 -1.6400386
0.036124274 0.1681028 0.22411413 0.3384926 0.025778776 -0.6346198 0.14320174 0.069138706
-0.024320943 -1.6189618 0.629459 -0.50346 0.05212483 0.31433195 -1.1900327 0.2981749
-1.3934511 -1.2678089 0.2032327 0.30824822 -0.12757954 0.266981 0.7926371 -0.5857869
1.1619396 0.6309332 -0.18067658 -0.3556623 -0.01602534 0.153116 0.22349544 0.73569864
-0.5557593 0.11104453 0.16954243 0.99059457 0.00069493055 -0.049148902 -0.18006496 0.22728921
-0.23337255 0.115486 -0.74507403 -0.057599053 -0.34697905 1.1412244 -0.11739513 -1.2518737
0.029327657 0.3217119 0.9795102 0.029197518 -1.5296435 0.9276791 0.19771321 0.18814903
-0.32356077 0.23427497 0.113621645 0.225979 -1.2630439 0.34622836 -0.31394935 0.30383533
-0.23908293 0.15493046 -0.24073216 0.48025677 0.23102078 -0.16943826 -0.48592424 0.13593851
-0.25941533 -1.7507579 0.35996848 0.07942756 0.22277266 -0.15726918 0.4810742 0.22912441
0.0031759145 0.078835204 0.06811726 -0.6346065 -1.0220153 -0.5343901 0.44048178 0.3651932
-0.1619895 -1.4228822 -0.5479608 -0.027178101 0.095824845 0.047825422 0.3964628 0.061187077
-0.6860007 0.31761745 0.26950806 -0.30693075 1.1673036 0.38582838 -0.05022879 -0.47013757
-0.029066194 -0.4702742 -0.23659694 -0.2748161 -2.1079934 -0.01695006 0.12507348 0.09553211
0.59308636 0.080428675 -0.3338084 0.08969516 -0.021659719 -0.06380379 0.10228859 0.1399856
-0.48302856 0.1345322 -0.37596312 -1.4300852 0.1214812 0.1970711 0.19388822 -1.0676528
0.4210762 0.10966121 0.45671055 -0.07171011 -0.20655377 -1.0552708 0.07287026 0.2261893
-0.31123573 -1.0263515 0.7456217 0.065327086 0.38423932 -0.35888082 -1.2093234 0.23576353
-0.626835 -1.2808262 0.36627477 -0.20935176 -0.27694204 0.023236707 0.63989294 -0.18409881
0.9990407 0.93054146 -0.35329786 -0.10786258 0.25099432 0.3305443 0.4293141 0.29231554
-0.20876339 0.23807824 -0.019204289 1.1330035 0.05538819 0.782427 -0.005031975 0.25945267
-0.008267422 0.22870159 -0.0100879595 -0.023053922 -0.26461828 1.149616 -0.24250525 -1.098557

fc2.bias f4 [128]
00000000: 74b6 e53d e64f 193e 7d62 bebd cc43 c8bc
00000010: dc0c 27be 05de 933d ec1b 423e 317d b93d
00000020: 7c98 043e 7b48 c4bc 8fbb dbbc f762 063e
00000030: b5d6 9fbd d754 913d 497b f63c 78e3 43be
00000040: 9b4f 2ebd 569d 513c 7de5 d63d 91b4 84bd
00000050: 71d7 90be 3599 5cbe fb86 96bb e49d c9bb
00000060: 7aca 683d d123 443e 971b 4a3d 0060 2dbe
00000070: 2175 fbbc 5416 f13d 833b b5bd b7ed 99bd
00000080: 08e3 cbbd 59b7 84bd 1bda ed3c 1ef4 54bc
00000090: 6ce8 2b3d d483 d2bd 62f1 4dbe 6981 5e3b
000000a0: cc44 033d 5621 45be 2c55 2bbb 5689 bbbd
000000b0: cd0d febc 7b34 5e3e 6411 683d 72ec 92bc
000000c0: 8cf9 563d 74da 8b3d 147a d2bd 6ee1 1abc
000000d0: 8d1c 34bd c0f4 0abe eabd a73c 0b9f eabc
000000e0: a3e7 953d c671 90bd fbbb 2e3e 5941 483c
000000f0: 9997 10bd f7fb 523e 5287 083c 7e2a 97bd
00000100: ba92 823d 01e7 de3d ddf6 c5bc 9d07 0d3e
00000110: dc72 f9bb 3ceb 1dbe 2161 4cbb 61ca 53be
00000120: 56e8 0fbd 5732 293c beb2 cebc 0c00 97bd
00000130: 70a6 94bd bab7 313d 6326 893d 4e46 62be
00000140: e429 eb3d 0051 ce3b d1eb 0f3d 69b0 c4bb
00000150: 6ff9 ba3d a68a 1fbd d797 bf3d 9f8e b03d
00000160: c43e 103e 2735 68be 25c2 743e bca7 583e
00000170: 3a67 e6bd 1470 893c 2da6 dc3c 750b e2bd
00000180: 8c5e 39bd 76ae eebc 7542 663e 4d06 16be
00000190: 894f 753d 4184 a7bd 6675 1dbd 5646 18bd
000001a0: 16e7 3cbd 05bf ab3d d6f6 913d ed1b 19be
000001b0: a18d cebd 3b25 533d 0ce1 71bc 97a6 d8bd
000001c0: 5e20 ea3c 14c0 d4bc be9d cf3b b918 b53e
000001d0: d7f9 28bd 87a2 a33d 19e7 3dbd 581d 06be
000001e0: 0b2d 74be fce1 923d cd25 b1be 1163 06bc
000001f0: 799b 02bd 0835 a8bc bba1 933c d990 223e
0.11216441 0.14971885 -0.09296129 -0.02444639 -0.16313499 0.07220081 0.18955964 0.090570815
0.12948793 -0.023960343 -0.026822833 0.1312369 -0.07804624 0.0709626 0.030088084 -0.19129741
-0.042556386 0.0127938595 0.1049299 -0.06479753 -0.2828937 -0.21542819 -0.0045937276 -0.006152855
0.05683372 0.19154288 0.049342718 -0.16931152 -0.0306955 0.11771837 -0.088492416 -0.07516044
-0.09955412 -0.06480283 0.029034665 -0.012997655 0.0419697 -0.102790505 -0.20111611 0.0033951646
0.03204803 -0.19250998 -0.0026143296 -0.09157054 -0.03101244 0.21699707 0.05665721 -0.017935012
0.05248408 0.06828776 -0.10277191 -0.009453161 -0.04397254 -0.13569927 0.0204763 -0.02864029
0.07319572 -0.070529506 0.17063896 0.012222611 -0.035300825 0.2060393 0.008333044 -0.073811516
0.06375642 0.10883904 -0.024165565 0.13772435 -0.0076125693 -0.15421766 -0.0031185823 -0.2068267
-0.035133682 0.010326943 -0.025231715 -0.07373056 -0.07258308 0.043388106 0.06696775 -0.22097132
0.114825994 0.006296277 0.035137 -0.006002475 0.09129607 -0.038950585 0.09355133 0.08620953
0.14086443 -0.22676526 0.23902185 0.21157736 -0.11250158 0.016777076 0.026934708 -0.110373415
-0.045256183 -0.029135924 0.22486289 -0.14650841 0.059890304 -0.08179522 -0.038442038 -0.037176453
-0.04611882 0.083860435 0.07127158 -0.14952059 -0.10085607 0.051549178 -0.014763128 -0.105786495
0.028579887 -0.025970496 0.006335943 0.35370424 -0.04125389 0.07989984 -0.04636297 -0.13097131
-0.23845308 0.07172009 -0.34599152 -0.00820233 -0.03188655 -0.0205331 0.018021455 0.15875567

logits.weight f4 [2, 128]
00000000: 0466 1ebf e780 2cbf 6f17 3cbd 9747 be3e
00000010: 9341 86bf f841 78bf 9c35 2abf 2b96 5cbf
00000020: 2b38 75bf 7107 733e ab23 1d3d 7d0a 56bf
00000030: 440a 243c 4a4f 28bf c806 633e a90f cb3f
00000040: cc19 16bf 0144 bd3e f19f 56bf eb48 dcbc
00000050: 6d94 5a3f 5f26 333f 0af4 26bf 1dd7 36bd
00000060: 9cb0 723e 3d18 30bf d420 863e 5cac 57bf
00000070: 376d 443f 692c 14bf 7cc4 1dbc 8ec5 fa3d
00000080: b994 4dbd 11eb 213f 21d2 0f3e a7c5 1a3f
00000090: 04bf 4abf a043 a33e 58df 313f 8e38 123f
000000a0: 9091 503e 7e2e cd3f 572d 98bd 1a55 d23e
000000b0: fdb6 2a3e 61b9 5abf 44a3 8a3e e18f 613e
000000c0: 3faf 84bd 09be bd3e 1da8 863e b601 ac3f
000000d0: 54e6 17bf de59 3ebf bb33 933e 9b0e 6cbd
000000e0: 685d 413e 00dd 753d 8825 51bf 10fa 4b3e
000000f0: d152 703e 1f2a 74bf b5bf a03e a126 ce3e
00000100: f695 8a3e 17e4 d2be 037c 653d 5d6f 15bf
00000110: e601 81bd c286 70bf 8b7c 21bd 49fc 60bf
00000120: d72f 01bd 8e05 563e 1b8a 51bd 1f51 6cbd
00000130: 3668 1ebf 82cb 943e 4e4d 92bf 6138 62bf
00000140: 4a81 8fbf 325c 15bf 2dc5 96bd f101 c63e
00000150: b39f ab3e fb0c ad3e 65d0 d83d db87 d23e
00000160: fbf1 933f 38be 5abf 7894 31bf 8b95 70bf
00000170: 41a8 18c0 5b05 dfbc 83f8 a83e e4b1 8a3d
00000180: 4bf6 163e c2e7 543e 7a36 0d3f af5a e23e
00000190: 5767 913d 7b77 463d 7667 4c3f 09ea 313e
000001a0: 48eb 053f 831b 083e 4d5b b63e 8749 0b3f
000001b0: 5679 e4be cc5f 26bc fa5f 4b3f 6282 57bf
000001c0: ed48 543e 4767 f43e 24d0 fb3e 5075 b4bf
000001d0: f59d 71bf a197 43bf 7a53 8cbd 7f0a 4fbf
000001e0: eb3c 313f 176a 0dbf 3e97 cd3f 683e 14bf
000001f0: cae9 c7bc ee35 3fbf 313e c43c 1cee 27bf
00000200: 9368 283f 584b 313f b5e8 5a3d 6ab2 cdbe
00000210: 2c4a 7f3f 2270 803f b28c 453f 13d9 593f
00000220: bd18 593f 909f 95be ed09 ae3d aa20 3a3f
00000230: 4dc3 003d 48c1 103f 315c 5bbe 9bd7 c0bf
00000240: c4a5 323f eacd 9bbe b30a 5c3f 86cb df3c
00000250: 6210 58bf d2da 27bf 475d 243f 05e0 853d
00000260: f82f 98be 43e4 4a3f d1ce 6bbe 0a94 563f
00000270: f8a1 43bf 0291 123f 3346 973d 1455 a4bd
00000280: 2f6b 30bc 0c6b 07bf e5df 81be b8df 20bf
00000290: 5383 5c3f 774b e5be 1dc9 21bf f598 22bf
000002a0: 5373 8abe 2f57 c7bf 5bfe 1dbc 9e38 d2be
000002b0: 035d 8ebe e41d 363f 272a 66be 1ba9 8abe
000002c0: 0277 723d a53b ffbe c8e9 90be b77f aabf
000002d0: 986b 2d3f 9e94 5e3f 2f0b 90be 9bb2 05bd
000002e0: c06b 23be 1c2d d93b d726 513f 996b 7dbe
000002f0: dad0 1bbe be0d 723f a0fe 36be 7210 c3be
00000300: 095c 5ebe 4ca4 f53e d766 d83c 2e85 273f
00000310: 4eb1 21bd 29bc 6c3f 902a 25bd e2de 703f
00000320: 6cc4 193d 6667 a2be c4e2 0a3d 4c33 a43d
00000330: 8cc6 2b3f 487e 8cbe f5fe 943f a57a 543f
00000340: 35ab 883f 1bb1 163f 0d11 663d deb4 89be
00000350: fc8b b0be bf2e 71be 54ff 52be 635a 0dbf
00000360: 8fb5 8ebf def4 583f 7df9 2f3f d36a 643f
00000370: 0fdb 1d40 2a22 8dbd 7b99 dabe 18a7 2fbd
00000380: e400 8bbe b0bd 83be 7116 12bf 1a80 f2be
00000390: bd1c 823c e6f3 cdbd ebcd 3fbf 308e 47be
000003a0: 9c5f 01bf 0cb7 87be c071 bfbe ed97 1abf
000003b0: 8485 063f 98ad ce3b 3678 55bf baf2 383f
000003c0: 2b35 0bbe f1d6 eebe d1ed bebe 262b bc3f
000003d0: 05f1 613f dc91 393f 4f5d 483d da1f 4a3f
000003e0: b083 1dbf 1d99 0d3f fd29 ccbf 393f 0f3f
000003f0: d305 7e3c 2b0a 3b3f 1878 533d 7391 433f
-0.61874413 -0.6738419 -0.045920786 0.37163994 -1.0488762 -0.9697566 -0.6648805 -0.8616664
-0.9578883 0.23733307 0.038364094 -0.83609754 0.010012213 -0.65745986 0.22170556 1.5864154
-0.5863311 0.36965945 -0.838378 -0.026890239 0.8538273 0.69980425 -0.65216124 -0.04463874
0.23700184 -0.68786985 0.2619692 -0.84247375 0.7672915 -0.57880265 -0.009629365 0.12244712
-0.05019066 0.6324931 0.14045002 0.60457844 -0.79197717 0.3188753 0.6948142 0.57117546
0.20368028 1.6029813 -0.07430523 0.41080552 0.16671367 -0.85439116 0.27077687 0.22027542
-0.06478738 0.37059048 0.26300135 1.3438022 -0.5933583 -0.74355876 0.28750405 -0.057631116
0.18883288 0.060025215 -0.81697893 0.1991961 0.23469092 -0.9537677 0.3139626 0.40263847
0.27067536 -0.41189644 0.05602647 -0.5837305 -0.0629919 -0.93955624 -0.039425414 -0.87884957
-0.031539764 0.20900556 -0.0511571 -0.05769455 -0.61877763 0.29061514 -1.1429842 -0.8836728
-1.1211331 -0.58343804 -0.07361827 0.38673356 0.33520278 0.33798966 0.10586623 0.41119274
1.1558222 -0.854465 -0.6936717 -0.93978184 -2.3852694 -0.027224233 0.330021 0.06772211
0.14742391 0.20791534 0.5516125 0.4420981 0.07099789 0.04845379 0.7984537 0.17374434
0.52312136 0.13291745 0.35616532 0.5440907 -0.44623822 -0.010154676 0.79443324 -0.84183323
0.20730944 0.47735044 0.49182236 -1.4098301 -0.9438165 -0.7640324 -0.068518594 -0.8087539
0.6923358 -0.55240005 1.606178 -0.57907724 -0.024403471 -0.74691665 0.023955436 -0.655977
0.6578457 0.6925559 0.053444583 -0.40175182 0.9972255 1.003422 0.7716781 0.85096854
0.8480337 -0.292233 0.08497987 0.7270609 0.031436253 0.56544924 -0.21421887 -1.5065798
0.6978419 -0.30430537 0.85953826 0.027318727 -0.844 -0.6556827 0.6420483 0.06536869
-0.29724097 0.7925455 -0.23028113 0.8381964 -0.7641902 0.57252514 0.07386436 -0.0802404
-0.010767742 -0.52897716 -0.2536613 -0.6284137 0.86137885 -0.44784138 -0.631975 -0.63514644
-0.2704111 -1.5573481 -0.009643163 -0.4105882 -0.27805337 0.7113936 -0.22477017 -0.27082142
0.059195526 -0.49850193 -0.2830336 -1.3320225 0.677423 0.8694552 -0.28133532 -0.032641035
-0.15959072 0.006627692 0.8169989 -0.24748076 -0.1521639 0.9455222 -0.17870569 -0.38098484
-0.21714796 0.4797691 0.026416225 0.6543759 -0.03947573 0.9247461 -0.040323794 0.9409009
0.037540838 -0.31719512 0.033907667 0.080175966 0.67099833 -0.27440095 1.1640307 0.8299964
1.0677248 0.5886399 0.056168605 -0.26895803 -0.344818 -0.23552988 -0.20605212 -0.55216044
-1.1149157 0.8474864 0.68740064 0.892255 2.4664953 -0.06891282 -0.4269522 -0.042883962
-0.27149117 -0.25730658 -0.5706549 -0.4736336 0.015882844 -0.100562856 -0.7492358 -0.19487834
-0.50536513 -0.2650684 -0.37391472 -0.6038807 0.5254748 0.006307315 -0.8338655 0.7224537
-0.135945 -0.46648362 -0.37290815 1.4700668 0.8825839 0.7248819 0.04891711 0.7895485
-0.61529064 0.5531176 -1.5950314 0.55955845 0.015504318 0.7306239 0.051628202 0.7639381

logits.bias f4 [2]
00000000: 2039 29bd 6b41 d43a
-0.041314244 0.0016193812

fc1.weight f4 [128, 4]
00000000: bf26 efbe b1e0 1dbc 5046 623e 121c 79be
00000010: 7831 b03e 669e c93e dd1e f63f 0ee4 053f
00000020: 2f28 e3be 8c2a d9be 267a 433f 7685 ad3e
00000030: 9a8e 42bd cae6 98be 88df b73e 9b97 d4be
00000040: 3364 88bc 15c2 f1bd 8203 f03e 5152 653e
00000050: f45e 403d fe95 17bb 6a4e 1bc0 7c5e 94be
00000060: 3346 2cbf d9c1 84be 807d 42bf dd3d 05bd
00000070: e5c4 50be 419a d13e 1989 b23f b741 d53e
00000080: 8a56 e83c 327e cb3c 83c3 47c0 3f14 22be
00000090: 0846 10bd 0276 b8be fd66 983d 7ca6 e1be
000000a0: a84f 07bd 0989 e0bd 5435 ffba bd33 71be
000000b0: b904 ac3a 21ca e63b 8d77 24c0 3e6d 98bd
000000c0: a3d6 f4be 2807 a53e 3b80 c3bf d500 933d
000000d0: 4fb2 7ebd 9e7d 04bd 2a4c 803e f1d5 8e3d
000000e0: b35a aa3e b90d ffbe aad4 b4bf 03f9 07bf
000000f0: d3f6 d93d 6942 b1be 7fc2 2ebf db8b 933d
00000100: 4a45 0d3c 0e3c 813e 133e 823e 660c abbf
00000110: ac36 bebd e607 f5bb 7246 f73d 87a4 89be
00000120: 3a96 86bd de30 0bbe c5fb de3e ce7d 363e
00000130: 03e8 3abd 8e36 493f 78a9 da3f 0385 083f
00000140: 3bea 0f3d e5fe 8abe 5e12 7dbe 59f1 66be
00000150: af8e b33d 6ab5 18bf 2ed1 d33d 8310 05bf
00000160: 2d56 a03f 8dfc 93bd 27c7 873f dfa9 e1ba
00000170: e015 13be ae58 643d 5ca8 14bd 8d0e 093f
00000180: d6d3 2ebe c999 24be bacc 41bd 5341 c73e
00000190: 7f15 dc3e 94e6 e33e 4e40 70bf 2ab1 4d3e
000001a0: c420 693e 1645 153e 382e 543f 2247 ca3e
000001b0: 7b32 603e dcf8 9c3b 1d35 27c0 5472 42be
000001c0: 168d ef3d c5ca b93d 053a ad3f c54f ac3e
000001d0: d4a0 dcbd f9d0 de3d 7851 e43d f4dd 5cbe
000001e0: c204 d63e 263e fe3e 3da2 0c40 cc5b 8a3e
000001f0: 1576 b7bd 6306 873e a430 67bf dbc6 693f
00000200: c38c 86bd d5ce 06be aa94 39bf 9fb5 4c3f
00000210: cb46 8a3a 1a61 ee3c 6119 9c3c 5a30 96bc
00000220: 37f3 6dbd 1bc6 f9be 1f41 6a3e 9d52 7bbe
00000230: 1739 413c 819a 053d b1c1 10c0 6324 fabc
00000240: dac4 1bbf e151 14bf 0486 0c3f 69a3 5fbe
00000250: 3139 103f b92e 433f c562 353f ac07 e93e
00000260: 90e7 2f3f a903 3b3f 8fe7 223f a71a 0b3f
00000270: 82c9 093e 18c0 d2bd 5bb6 adbf ed29 5d3f
00000280: d50b 113f eab1 41bf 1d6f 8b3f 9428 bf3e
00000290: 0520 0d3d 2a32 17bc 68b8 1bc0 1eb3 8abe
000002a0: 78f0 033d 6792 d9bd 4b7f 8f40 f3cd fd3e
000002b0: 16c6 133f 28a9 11bd 6888 66bf 2e3c afbd
000002c0: d3e1 d43d cd44 ae3c 9124 0040 8212 9d3e
000002d0: 5bb5 b8bd 3b60 233f 74b8 683f 5fa0 b6be
000002e0: c650 663f 82b9 8d3e 6ba6 103d 3cbc bebd
000002f0: 2b6d 503c ee1d 17be bf4d 1abe 7648 23be
00000300: 764d 093d f839 793c 02c9 1ac0 a456 e7bc
00000310: 33f8 0f3e 1d4f 50be d81f a73e 9c48 013d
00000320: 2914 91be 9545 d7be 70ae 59bf 469c a9be
00000330: 2093 253e 214e 423e 2d89 3d3d 7ffe 4e3e
00000340: 4f3a 983d b25e a4bd 9d84 3d40 9581 013f
00000350: 42ac 1f3f 5d93 a8bd 6966 b73e 2391 b7bc
00000360: c4a9 763f 5351 343f 82b1 8d3e d983 243e
00000370: 579e 97be dbab 33bf 95e1 25bf 475e 17bf
00000380: 5b0e a43c 06fa df3b 9de5 4840 d902 6f3d
00000390: 07ff b3bd d352 b03e b6f1 893f 11b2 ca3e
000003a0: 5bfd 90bd a150 6fbe 23f0 9c3e 5543 413e
000003b0: b13b 1abd 4d64 913e a70b de3e 7dc2 16bf
000003c0: 2313 b1be b51c 93be a5dc 303e f593 0c3f
000003d0: 301e 4abe f1c6 6f3e c9a9 8fbe 3907 f23d
000003e0: 44f7 183d e70c 17bd 0892 4b40 742d 203c
000003f0: 9966 edbc bc05 ccba 2905 4ec0 8805 59bf
-0.46709248 -0.00963609 0.22097135 -0.24327114 0.34412742 0.3937866 1.9228169 0.5230111
-0.44366595 -0.42415273 0.7635826 0.33890885 -0.047499277 -0.29863578 0.35912728 -0.41521916
-0.016649341 -0.11804596 0.46877676 0.22394682 0.046965554 -0.0023130174 -2.426661 -0.28978336
-0.67294616 -0.25929144 -0.7597275 -0.0325297 -0.2038761 0.40938 1.3948089 0.416517
0.028361578 0.024840448 -3.121308 -0.15828036 -0.035223037 -0.36027533 0.074415185 -0.4407233
-0.03303495 -0.109636374 -0.0019470849 -0.23554893 0.0013123966 0.0070431386 -2.5697968 -0.07442711
-0.47820005 0.32232022 -1.5273508 0.07177893 -0.062181767 -0.03234636 0.2505811 0.069744
0.33272323 -0.49815157 -1.41274 -0.53114337 0.10642781 -0.3462098 -0.6826553 0.0720441
0.008622477 0.2524113 0.25437984 -1.3363159 -0.092877716 -0.007477748 0.12073983 -0.26883337
-0.06571622 -0.1359286 0.4355146 0.17821428 -0.04563142 0.7859887 1.7082968 0.5332796
0.03513549 -0.27147594 -0.24714038 -0.22553004 0.08767449 -0.59651816 0.10342632 -0.5197832
1.2526299 -0.072259046 1.0607651 -0.0017216763 -0.14363813 0.055748634 -0.036293373 0.5353783
-0.17072996 -0.1607429 -0.047314383 0.38917026 0.4298515 0.44511855 -0.9384812 0.20087114
0.22766405 0.14577135 0.82883024 0.39507395 0.21894257 0.0047904085 -2.6126168 -0.18988925
0.11696832 0.09071878 1.3533331 0.3365461 -0.10772863 0.10879702 0.111483514 -0.21569043
0.41800505 0.4965679 2.1974022 0.2702316 -0.08958069 0.2637206 -0.90308595 0.91319054
-0.06569817 -0.13164838 -0.7249247 0.7996463 0.0010549662 0.029099036 0.01905507 -0.018333603
-0.058093276 -0.48783955 0.22876404 -0.24543233 0.011793396 0.03261805 -2.261822 -0.030534929
-0.60847247 -0.5793744 0.5489199 -0.2183968 0.5633727 0.7624317 0.70853835 0.45513666
0.6871271 0.7305246 0.6363458 0.54337543 0.13455775 -0.10290545 -1.3571275 0.863921
0.5665868 -0.756621 1.0893284 0.37335646 0.034454364 -0.009228269 -2.4331303 -0.2708978
0.03221175 -0.10623627 4.4842887 0.4957119 0.5772413 -0.03556171 -0.9005189 -0.085564
0.10394635 0.021273041 2.0022318 0.30678183 -0.09018966 0.6381871 0.90906453 -0.35669228
0.89967 0.27680594 0.03531496 -0.093132466 0.01272134 -0.14757511 -0.1506872 -0.1594561
0.033521138 0.015211575 -2.4185185 -0.028239556 0.14059524 -0.2034268 0.32641482 0.031563386
-0.28335693 -0.42045274 -0.85031796 -0.3312704 0.16169405 0.18975116 0.0462734 0.2021427
0.074329965 -0.08025874 2.961219 0.5058835 0.6237222 -0.08231232 0.3582032 -0.022408074
0.9635279 0.7043659 0.2767449 0.16065921 -0.2961299 -0.70184106 -0.64797336 -0.5912823
0.020026376 0.006835225 3.1390145 0.058352325 -0.08788877 0.3443819 1.0776889 0.3958898
-0.07079574 -0.23370601 0.3065196 0.18873341 -0.037654582 0.28396836 0.43368265 -0.58890516
-0.34584913 -0.2873284 0.17271669 0.54913265 -0.19738078 0.23415734 -0.28059223 0.11817784
0.037345186 -0.03687754 3.180788 0.009776462 -0.028979586 -0.0015565674 -3.219065 -0.84774065

fc1.bias f4 [128]
00000000: 6692 2e3f 7875 513e 616b 19be a7fc a43a
00000010: c2f0 213f ce1a 04bf 95c5 813d 2219 11bf
00000020: 5abd 21bf 0587 bd3e 3d6c 143e 2979 09bf
00000030: 888d 00bf 7a8c c53e 21e6 07bf 621a 053f
00000040: 1ee9 69bf 24a4 273d dde1 983e 6c9d 423e
00000050: 077d 863d 1832 853d 9306 aabc a25e d73e
00000060: 2907 83bd 0346 e93e a901 363f 03ba 11bf
00000070: 4069 2f3f 1760 d0bd c24b 85bf 4c55 50bf
00000080: 7a14 23bd ba2f 153f cccb 173e 7801 f3be
00000090: bf1f acbe e98d 25bf 5f52 b6be 327a 4e3e
000000a0: f375 9dbf d81f 01bf eba1 5dbf a7cb ac3e
000000b0: d6ba 0b3f 46b6 163e 8721 e03e 6150 613d
000000c0: 4e9d 02bf c32e 34bc abbe 0ebf 0d85 153f
000000d0: b245 56bf 1bf1 87be 381e 10bf 0cf0 5dbe
000000e0: d5af 0dbf de5d 41be 9661 ed3d b898 b9bd
000000f0: 97e1 3cbf 5b9d 0bbf aee3 16bf e503 8ebf
00000100: dbaa 1abf da4c 9f3e dd48 ce3e 23ce 383e
00000110: 3b17 dc3e 1b84 803e 7212 b2be b8ec d9bd
00000120: 01f2 bcbe 96f4 253e e34f 3f3e dbea 2ebf
00000130: 4998 f43d 1528 08bf 0bcb 023f c1a3 ff3d
00000140: 22bd babe 33c3 febe e154 6a3e 0832 b83c
00000150: 1ade e6bd fbc8 04bf dd72 20be 93b2 0fbf
00000160: 6299 27bf c31c 58be 3bda 63bf fe5f 0a3f
00000170: da43 f2be 8032 06bf a590 ad3d e9b8 1ebf
00000180: cf72 54bf f25a 9f3e 87b8 843d 7dd7 643e
00000190: 1e13 a13e cf2b 10bf 06f4 f5bd 4fc2 1f3e
000001a0: b792 53bf cd67 183d a045 0b3f ebb6 17bf
000001b0: 4f74 7ebf ca28 eebe 78ed b63e 4345 0c3f
000001c0: 9803 82bf 80ec fdbe 0e7e f23e 3f14 b33e
000001d0: c749 ea3e af01 21bf ca24 d13d f1eb 2bbf
000001e0: 8e15 8ebf 40f0 023f 63ee 3bbf f20b 33bf
000001f0: 531b f3bd 1036 0b3f 4e4e 63be 4709 cabd
0.68192136 0.20454967 -0.14982368 0.0012587503 0.6325799 -0.516034 0.06336514 -0.56678975
-0.6317955 0.37017074 0.14494415 -0.537005 -0.5021596 0.38583738 -0.53085524 0.5199338
-0.91371334 0.04092802 0.2985982 0.19005364 0.06566816 0.06503695 -0.020755088 0.42064387
-0.0639785 0.45561227 0.71096283 -0.56924456 0.68519974 -0.10174578 -1.0413744 -0.8138015
-0.03981445 0.5827595 0.14823836 -0.47462058 -0.3361797 -0.6466966 -0.3560972 0.20163801
-1.230162 -0.50439215 -0.8657519 0.33749124 0.54581964 0.1471797 0.4377558 0.055008296
-0.5102128 -0.010997477 -0.55759686 0.58406144 -0.83700097 -0.26551136 -0.5629611 -0.21673602
-0.55346423 -0.18883464 0.11590879 -0.09062332 -0.7378172 -0.5453698 -0.5894116 -1.1094939
-0.60416955 0.3111332 0.40289965 0.18047385 0.42986473 0.25100788 -0.34779698 -0.10640854
-0.36903384 0.16206583 0.18682818 -0.6832711 0.119431086 -0.5318616 0.5109107 0.124824055
-0.36472422 -0.497583 0.22883941 0.022484794 -0.11272831 -0.5186917 -0.15668817 -0.5613186
-0.6546842 -0.21104722 -0.8900487 0.5405272 -0.47317392 -0.52420807 0.084748544 -0.620009
-0.82987684 0.31124073 0.06480508 0.22347827 0.31459898 -0.56316847 -0.120094344 0.15601467
-0.82645744 0.037208367 0.54403114 -0.59263486 -0.9939622 -0.46515495 0.3572805 0.54793185
-1.0157347 -0.49594498 0.47361797 0.34976384 0.45759413 -0.62893194 0.10212095 -0.67156893
-1.1100328 0.5114784 -0.73410624 -0.699401 -0.11870446 0.5437937 -0.2219784 -0.09865051

fc2.weight f4 [128, 128]
00000000: 2cc0 3b3e a64f 88be 3781 33bc ab54 2ebd
00000010: 27a4 c53d e2fc 05c0 9ce9 953d 7c78 c23f
00000020: 2a74 12c0 ad95 2f3e 0c56 373b fe96 9dc0
00000030: d544 58be d456 033e 822e babe 4f4f 043e
00000040: 5e81 07bf 7eea 6e3d bd0a 023d aac4 423e
00000050: 25b7 31bd fa85 4a3d def1 40bf 09f0 d63d
00000060: c66b 64bc 2765 1a3e 90a5 9e3d c93b d0bf
00000070: d6d1 7d3d 761a 5cbe f83d 57bf 32bf debd
00000080: 4587 7f3e 75c3 893d a8d4 163e 2b19 92c0
00000090: c8f2 a0be 7527 dd3f b265 183d 015c 0ebe
000000a0: 2e68 25be 031d 0fc0 b989 81bf 843f 8b3d
000000b0: 97a1 e03c 4336 e63c 8136 533e 230b 723c
000000c0: 1ff6 f6c0 d276 1fbd a4ac abbe 196a 533e
000000d0: 4752 b3bf 4a4b 2d3f bd3c 1e3d ca72 a73e
000000e0: b008 5cc0 6b0a d7be 6ccd f23c 3656 3a3e
000000f0: ad13 473e 5a95 be3c 78fa cdc0 c5b9 4cbf
00000100: 19bb 6d3e 5326 05bd 446b c03d 15fe 613e
00000110: 2faf 313e 0774 113e 2b1b c6be 43d1 77bd
00000120: 174a 85be 4fcf 823c 7f30 053d 5711 9abd
00000130: d7a0 dabc 7ef4 03c0 4488 b43d 3ec7 ae3d
00000140: a075 a0be 97df 1dc0 c71b 3b3e a49c 9e3e
00000150: 4db8 55be c89a 0bc0 53fa 1e3f 9355 d6bf
00000160: aa82 233f fe14 303e 81be 96bd 0c05 fbbc
00000170: 58ae 4abc 5038 23c0 cb6e ea3d 0f10 08be
00000180: 7923 92be 9b56 3d3e f5df b8be 65dc 36be
00000190: 20db 0b3d 0e49 97bf b373 493e e64a e63d
000001a0: ccf0 1d3f 138d 95be e18e 7e3e b32b 0ac0
000001b0: 7955 0abf 03d5 ea3d b0e7 153d 734d 443e
000001c0: 5f86 27c0 7ddf 1abf 3329 293e c588 513e
000001d0: b361 993d 5e19 43c0 3f55 36be db26 c3bf
000001e0: 263f 03bf 169a 9f3d f682 03c0 2323 bebf
000001f0: 13be 193f 4994 013e 6d09 1c3e 185c e13d
00000200: 8849 203c cc73 9b3d 1ff0 1b3d 57b4 db3c
00000210: d103 95bd 5d4c 97bd e3f8 433d 854a 953d
00000220: 0ee0 183d 9def 23bb 5c00 4bbd 2317 f13c
00000230: fdbf a2bd c1d1 0bbd f60d 9f3d ad03 a6bd
00000240: 2eb8 d9bd e259 2dbd 3c39 d43c a9ca c8bd
00000250: 1563 0b3d eece a5bc 87d0 04bc 1cbf 1e3d
00000260: 3a64 b83c f172 d6bc c6fb c9bd b68f 913d
00000270: 10b1 30bd 0fd0 afbd 889a d23c 8293 443d
00000280: 09fb 1dbc e257 9ebd 2404 e9bd 4dd4 023d
00000290: 55ca 0e3c 9c25 383d 3a19 a33d bd6e 7cbd
000002a0: be69 8e3b 482c ad3d 5631 73bc f9ec 31bd
000002b0: c378 adbd 55c9 a3bc 3d0f 85bd b4bc c2bd
000002c0: 1b7d b4bd aa41 b53c 8391 bfbc db92 3b3c
000002d0: f167 113d 62e5 b3bd be20 2cbd af50 a13d
000002e0: a16e d8bc b8d4 503d e065 cbbd 9474 5c3d
000002f0: 0a72 773c 6e3c 7ebd 1775 4b3c 0289 e73c
00000300: 7e0f 433d 3099 fc37 0b64 81bd ed8f 31bd
00000310: 813e d0bd b8ba 903d 3676 90bc d079 ca3b
00000320: d920 6dbd 3321 b8bd 25e1 c1bc fca8 533d
00000330: 1007 513d 24b9 20bc b941 2e3c ec28 0fbd
00000340: a01a 2fbd b28b a63d c6fb d23c e9d4 453d
00000350: 0374 fbbd b5e3 873b 3ef0 f7bc 815e 5c3d
00000360: 84a3 183d 8387 02b9 6d1c 383d eb10 97bd
00000370: 90d9 bdbc 3bd5 1b3d d0fc 80bd e571 bf3b
00000380: 3936 5d3c 85d9 d3bd 3bfc 7ebd df4a a1bd
00000390: 447e c7bd 823b 2abd 9761 68bb f51b 473c
000003a0: 7b95 283d 4b4e d73b eed7 b1bd dec4 c0bd
000003b0: cff3 593d b8b2 603c e8ad 533d eb77 e0bd
000003c0: 0711 53bd d1b3 c8bc 9953 4e3d cd01 d8bd
000003d0: 9003 5bbd cc21 a0bd 286a d53c cf37 6aba
000003e0: 0f7f 09bd 965e 063d 2adf 8dbd 2ef7 8ebc
000003f0: 03ed 07bd 4b88 2dbd f52b 94bc 8cab b4bc
0.18335027 -0.26623267 -0.0109561 -0.042561214 0.0965045 -2.0935597 0.07319948 1.5193019
-2.28834 0.1714694 0.0027974872 -4.9246817 -0.21120007 0.12826091 -0.36363608 0.12920879
-0.52931774 0.058329098 0.031748522 0.19020334 -0.04338755 0.049444176 -0.7536906 0.10495002
-0.013941711 0.15077649 0.07746422 -1.6268245 0.061967693 -0.21494469 -0.8407893 -0.10876311
0.24953945 0.067267336 0.1472956 -4.5655723 -0.31435227 1.7277666 0.03720636 -0.13902284
-0.16153023 -2.2361457 -1.0120155 0.06799224 0.027420802 0.028102046 0.2062626 0.014773163
-7.717544 -0.038931675 -0.33530152 0.20645942 -1.4009484 0.67693007 0.038632143 0.32704765
-3.4380302 -0.42000136 0.029638968 0.1819695 0.194411 0.023264576 -6.436825 -0.7997096
0.23215903 -0.032507252 0.09395459 0.22069581 0.17351983 0.14204417 -0.38692603 -0.060502302
-0.2603309 0.015967993 0.032516953 -0.075228386 -0.026688023 -2.0617976 0.08815053 0.08534096
-0.3133974 -2.4667718 0.18272315 0.30978882 -0.20871086 -2.181322 0.62100714 -1.6744865
0.6387125 0.17195508 -0.073605545 -0.030642055 -0.012370668 -2.550312 0.11446913 -0.13287376
-0.28542688 0.18490069 -0.36108366 -0.17857511 0.03414452 -1.181917 0.19673042 0.112447545
0.6169555 -0.29209194 0.24859191 -2.1589172 -0.5403667 0.1146641 0.036597908 0.1917017
-2.6175764 -0.60497266 0.16519623 0.2046233 0.07489338 -3.0484233 -0.17805956 -1.5246233
-0.5126823 0.077930614 -2.0548682 -1.4854473 0.60055655 0.12654223 0.1523797 0.110038936
0.009783156 0.07590446 0.038070794 0.026819391 -0.072761185 -0.07387612 0.04784478 0.07289604
0.03732305 -0.0025014647 -0.04956089 0.029429978 -0.07946775 -0.034135584 0.07766335 -0.0810617
-0.106308326 -0.042322047 0.025906198 -0.09804279 0.03403004 -0.020240273 -0.008106357 0.038756475
0.02250873 -0.026177855 -0.09862475 0.07107489 -0.04313761 -0.08584606 0.025708452 0.047992237
-0.009642371 -0.07731606 -0.11377743 0.031940747 0.008715232 0.044957742 0.07963796 -0.061629046
0.0043461015 0.084557116 -0.014843306 -0.043438885 -0.08470299 -0.019993464 -0.06497047 -0.095086485
-0.088129245 0.022126038 -0.023384815 0.011448587 0.035499517 -0.08783986 -0.042023413 0.07876717
-0.02641994 0.050984114 -0.099315405 0.053822115 0.015102873 -0.06206935 0.012418053 0.028263573
0.047622196 3.0112074e-05 -0.0631791 -0.04335015 -0.10168172 0.07066864 -0.017634492 0.006179072
-0.057892654 -0.08990707 -0.023666928 0.051674828 0.051032126 -0.009809766 0.010635787 -0.034951136
-0.04275 0.081321135 0.02575482 0.04829875 -0.12277987 0.004147018 -0.030265924 0.053801063
0.037265316 -0.00012448248 0.044948984 -0.07376274 -0.023175031 0.03804515 -0.0629822 0.0058424347
0.013501697 -0.10344223 -0.062252264 -0.07875609 -0.0974088 -0.041560657 -0.0035458559 0.012152662
0.04115818 0.0065706125 -0.086837634 -0.094125494 0.05321103 0.013714485 0.05167952 -0.109603725
-0.05152991 -0.024499806 0.050372694 -0.105472185 -0.053470194 -0.07818946 0.026051596 -0.0008934708
-0.03356844 0.032805048 -0.06927331 -0.017451849 -0.033185016 -0.042366307 -0.018087367 -0.022054456

fc2.bias f4 [128]
00000000: 09da 843e af5a f1bb 1873 83bd fbd1 acbd
00000010: 07a6 923e bcff d53d 2092 ae3e 69b9 873e
00000020: 7b2d cdbd 3973 903d e597 5c3e 254c bf3d
00000030: dfde 13bb 24c0 d73a 8b9c 843e b420 3e3d
00000040: f2d5 883d 23ae 523e 98e0 07bd 30c8 41be
00000050: d945 483e 41ba 983e 87ac 6b3e 4692 333e
00000060: 56ba 78bd b08b 453d a306 e5bd 8549 193e
00000070: 1425 d23c a520 6b3e 758f 84bc 5c5e d7be
00000080: f675 883e ddc8 aa3e 7996 bf3d 5e11 c9bd
00000090: 4b0a 943e 310b 693e 8e1f 3c3d 4ae5 6abd
000000a0: d282 22bc 254b 043b 4280 23be 6d2f 9b3e
000000b0: ccbc a8bd 4974 d83b 7219 503e f2b7 773e
000000c0: 9dd1 1d3e 82a5 32bb 23f5 c33d a54d 453d
000000d0: dde2 713b f82a 9b3e e3d1 943e 034c 4f3c
000000e0: 67ef c3bd 0202 0b3e 51aa 263e 78c0 943e
000000f0: a4c1 903e aba2 903e e8d4 9b3e 3bc0 1f3e
00000100: 4293 9ebd 2c26 8d3e 5dda 89bd 08e9 573e
00000110: 889a 433e 4a28 5a3e 4867 563e a474 873e
00000120: 030a 1c3e 595c 913e feb4 423d 83d5 ee3d
00000130: ebaa 8f3d 468a a73c 2ab3 473d 5387 a23e
00000140: 9231 2f3e 3a22 733e 8937 55bd e49d 3d3e
00000150: edef 78bd aecf 073e 63c7 833b e3c2 bfbd
00000160: a409 043e 7253 1f3e 7c1d 18bd 8d1f e3bd
00000170: 4e25 00be b57d 583e 3842 5f3e 56eb c73e
00000180: fae0 0abc 95a7 25bd b6d5 a63e 1303 9e3e
00000190: 8f54 c0bd fa54 513b 241d 493c a110 383e
000001a0: cc41 913e 4d65 863e 093e dcbd 3aa6 78bd
000001b0: 0c00 1e3e d064 f63c 2c27 443e 6da7 c9bd
000001c0: 677b 973e 8a30 27bd 2606 603e 1aa3 a9bc
000001d0: 6aec 1d3e 257b 98bc e895 e1bd b5be 5dbc
000001e0: c234 323e a845 ba3e 8f4d b03e 5431 3a3e
000001f0: 552f 863e ac9c f23c 687e 8fbd df94 24bc
0.25947598 -0.0073655467 -0.06418437 -0.08438488 0.28642294 0.10449168 0.3409586 0.26508644
-0.1001844 0.07053227 0.21542318 0.09340695 -0.0022563261 0.0016460461 0.25900683 0.046417907
0.06681432 0.2057424 -0.033173174 -0.18924022 0.19557895 0.298296 0.23015033 0.17536268
-0.06072458 0.04822892 -0.111829065 0.14969452 0.025652446 0.22961672 -0.016181687 -0.42064178
0.26652497 0.33356372 0.09354872 -0.09817766 0.28914103 0.22758175 0.04592853 -0.057347573
-0.009918885 0.0020186391 -0.15966895 0.3030962 -0.08239135 0.006605659 0.20322207 0.24191263
0.15411992 -0.0027259295 0.095682405 0.04816975 0.0036908903 0.3030622 0.2906638 0.0126524
-0.09567147 0.13574985 0.16275908 0.29053092 0.28272736 0.28249106 0.30435872 0.15600674
-0.07742931 0.27568185 -0.067311026 0.21084988 0.19101918 0.21304432 0.20937836 0.26456177
0.15238194 0.28390768 0.04753589 0.11661818 0.07015022 0.020451676 0.04875485 0.3174387
0.17108753 0.23743525 -0.052054916 0.18517262 -0.060775686 0.13262817 0.0040215715 -0.093633436
0.12894303 0.15559176 -0.037137493 -0.11090002 -0.1251423 0.21141703 0.21802604 0.39046735
-0.00847649 -0.04044302 0.32584924 0.3086172 -0.09391128 0.003194152 0.012275014 0.17975093
0.28370512 0.2624916 -0.1075402 -0.0607054 0.15429705 0.030077368 0.19155568 -0.09846387
0.29586336 -0.040817775 0.21877345 -0.020707656 0.15422216 -0.018613407 -0.110149205 -0.013534238
0.17402938 0.36381269 0.34434173 0.1818288 0.26207986 0.029615723 -0.07006532 -0.010045259

q.weight f4 [2, 128]
00000000: be8f 4f3f 586b 21bd 3292 febc 6cb7 1fbd
00000010: 045c fbbf 6ee3 593d c321 f53f 4c8a ea3f
00000020: 71fe 55c0 1441 cfbf 7d45 85be 7a64 123f
00000030: 9c4c 95c0 db3d aa3d d0a6 4fbe bd21 2f3d
00000040: 9009 38bd 165c 9b3f 6767 8539 8ccc 84c0
00000050: affc 343f c106 c53e 576b d93e b396 643f
00000060: 86f4 4bbd ef1a 1ebd c1ea 1140 26cb a53c
00000070: 71fd 963f 05df 8d3f e5d3 70bc 0f83 98bf
00000080: ab72 b4be c388 e43f c3ee 6a3f 6d77 a53f
00000090: 4233 c6bc 6537 f83e 9fb3 4b3f 3ec9 61bd
000000a0: 913b 73bd 4697 1b3d 5894 c840 25ac f33f
000000b0: fe5f a4bd 92fb 463d 5534 463f 83af b43f
000000c0: 020f ef3e 6afe 0bbd c677 2dc0 6e65 043c
000000d0: 8ea2 643d 2fee c4be 5cc7 dabe de7d f13e
000000e0: 678f 3fbb 3327 34bf 5c34 7a3f d3f5 963f
000000f0: 45b3 043f c80b 803f 122d 983f bda9 4640
00000100: d4fb ea3c e427 b93f 3259 b73b c409 41be
00000110: 2786 673f 22a1 70bf bef1 8f3f 09c2 90be
00000120: 08ce de3e dec9 803f 677c 503d 35c1 eb3e
00000130: a993 023f 72b9 5ebc dc41 853c df04 863f
00000140: 423a 943f bc2a 973f 4a94 a7bd 49f7 163f
00000150: ac1b b03c c641 3ac0 0bfc 80bd 3fe6 1ab8
00000160: 17a9 7a3e 0a91 c63e 8ded e03c 8a83 82bd
00000170: 95d8 22bd 8f99 373f a64b f23d 6059 333e
00000180: d298 02c0 cc3e 3a3d 9853 d03f c480 be3f
00000190: 56cf a5bc 24e1 fdbc 887c 5ebc b677 913f
000001a0: cf69 c03f 3b1c bf3f cd84 a3bc b05c d23c
000001b0: 65f0 eabe da85 6d3d cced b73e acfd 853c
000001c0: 6949 523f 7adf 433d c491 67be 1d91 85bc
000001d0: 802e a03f 148a f1bc 50ec c7bb 0dc7 99bc
000001e0: 95ac 553f b672 d03f 2ea2 d53f 0f84 893f
000001f0: 20df 35be d10a 0e3d 9852 653d f393 163d
00000200: 6b96 143f a030 c93c d87f 9d3c 302a 57bd
00000210: b5d2 273f 870a bfbf 05e8 02bf 0b77 c3bf
00000220: 2c4c 5fc0 3961 3b3f 9fa3 a33f 74d3 14bf
00000230: 9114 b740 7513 3f3b 0890 913f 7288 f6bc
00000240: 6587 f03c 4107 1bc0 7b1b 2d3c 4d0a 16c0
00000250: 5208 733f d59d 793f 7e46 833f 96c3 273f
00000260: 50f1 babc e40f 41bd f69c 0cc0 b929 103f
00000270: 334e 8f3e 0044 3f3f 4fea 623d bd06 c540
00000280: a305 8f3f 57f1 58be 4422 ef3e 8bd5 35bf
00000290: cb23 a53f e643 923f 7436 aabe 1df2 19bd
000002a0: 9f9f 473a bfe1 a73c 4a66 09bf 66ef f1be
000002b0: 65aa 4ebd 3d92 123d b485 7b3f 8680 ab3e
000002c0: 3635 873f 538c 183d 75ba 313f 6f44 92ba
000002d0: 4008 6fbd 6431 1140 d78f 0740 86d6 863f
000002e0: 831e 5c3c 3d33 8e3f b8af 3f3f 8e70 013f
000002f0: 4b2d a03f 1122 203f 297e 473f 2c5d 39c0
00000300: 5cd3 303d 7906 d1be fc5f 4dbd 2192 963f
00000310: c042 873f 9d62 753f ae4d 393f eebb 673f
00000320: 5077 49bf e4d4 393f 9589 fd3b ff26 47bf
00000330: d07a 25bf 3b6e 03bc 35de a33b 4466 793f
00000340: 9f97 2a3f 5886 fa3e c01c 7bbb db38 06bf
00000350: 9799 2c3d 3b47 c83f fcf1 8e3c ac4c 273d
00000360: f680 7fbf 7544 5fbf c7a9 9a3d 7081 e1bc
00000370: 08a9 ab3c 09cd a03f 1f7c 9c3f 9e37 0940
00000380: ceea 12c0 d3e6 80bd 5703 c5bd 9956 f23e
00000390: bb4d a4bc 6082 39bd 89fb 59bd 907c 143f
000003a0: 69c9 c53e b984 563e a9f9 29bc f2d7 d1bc
000003b0: c450 943f 2f6f 60bc 830d 76bf bf7b 4abd
000003c0: 8295 603f bb74 873d b077 b83f abc6 963d
000003d0: 83fd d53e cdb9 5bbd 1ab6 cfbc d596 263b
000003e0: f5a8 973f 14f0 863e 1ae4 19be 25d6 693f
000003f0: 6ca5 7c3f 5a62 cabd 3b9b c3bc 4fb6 81bd
0.8107871 -0.03940901 -0.03107557 -0.038993284 -1.9637456 0.05319541 1.9150928 1.8323455
-3.3436549 -1.6191735 -0.26029578 0.57184565 -4.6656017 0.08312579 -0.20278478 0.042756785
-0.044930995 1.2137477 0.00025444778 -4.149969 0.70698065 0.38481715 0.42464706 0.8929245
-0.049793743 -0.038599905 2.2799532 0.02023847 1.1796094 1.1083685 -0.014698957 -1.1914996
-0.35243735 1.7854236 0.9177057 1.2927071 -0.024194364 0.48479763 0.79570955 -0.05512356
-0.05938298 0.037986062 6.2681084 1.9036909 -0.080261216 0.04857976 0.774236 1.4116062
0.46691138 -0.034178175 -2.7104354 0.008080823 0.055819087 -0.3846297 -0.42730224 0.47166342
-0.0029229762 -0.70372313 0.97736144 1.179377 0.51836044 1.0003595 1.1888754 3.10411
0.028684534 1.4465299 0.0055953497 -0.18851382 0.90439075 -0.9399587 1.1245649 -0.28273037
0.43516564 1.0061605 0.05089989 0.46045843 0.5100656 -0.013594018 0.016266756 1.0470237
1.1580279 1.1809916 -0.08182581 0.5897108 0.02149757 -2.9102645 -0.062980734 -3.6930895e-05
0.24478565 0.3878253 0.027457023 -0.06372745 -0.03975733 0.71718687 0.11830835 0.17514563
-2.0405774 0.045470044 1.6275511 1.4883046 -0.020240467 -0.030991144 -0.013579495 1.1364658
1.503229 1.493049 -0.019960785 0.025678962 -0.4588653 0.05798898 0.35923612 0.016356312
0.82143265 0.047820546 -0.22614199 -0.016304547 1.2514191 -0.029484786 -0.0061011687 -0.018771673
0.83466464 1.6285007 1.6690118 1.0743426 -0.17760897 0.034678284 0.05598697 0.03676219
0.5804202 0.024559319 0.019226 -0.052530468 0.6555589 -1.4925088 -0.51135284 -1.5270704
-3.4890242 0.73195225 1.2784308 -0.5813515 5.7212605 0.0029155884 1.137208 -0.03009436
0.029361436 -2.4223177 0.010565634 -2.3443787 0.9493457 0.9750646 1.0255888 0.65532815
-0.022820145 -0.047134295 -2.1970801 0.56313664 0.2798935 0.74713135 0.055399235 6.1570725
1.1173595 -0.21185814 0.4670583 -0.71028966 1.2901548 1.1426971 -0.3324467 -0.037584413
0.0007615033 0.020493386 -0.53671706 -0.4725296 -0.05045547 0.035783995 0.9825089 0.33496493
1.0563114 0.0372432 0.69425136 -0.0011159311 -0.058357477 2.2686396 2.1181543 1.0534217
0.013435009 1.1109387 0.748775 0.5056237 1.2513822 0.6255198 0.7792688 -2.8963118
0.043170318 -0.4082525 -0.050140366 1.1763345 1.0567245 0.95853597 0.72384155 0.9052113
-0.7869768 0.7259047 0.0077373483 -0.7779388 -0.6464052 -0.008021886 0.0050008544 0.9742167
0.66637605 0.4893062 -0.0038316697 -0.52430505 0.042138662 1.5646738 0.017449372 0.040844604
-0.99806154 -0.8721383 0.07551914 -0.02752754 0.020954624 1.2562572 1.2225379 2.1440196
-2.2955813 -0.06294026 -0.09619778 0.47331694 -0.020056596 -0.04529035 -0.0532184 0.5800257
0.38630226 0.20949067 -0.010374465 -0.025615666 1.1587148 -0.013698383 -0.9611437 -0.04943442
0.8772813 0.066140614 1.4411526 0.07362112 0.41794977 -0.05364399 -0.025355387 0.0025419493
1.1848437 0.2635504 -0.1502842 0.91342384 0.98689914 -0.0988204 -0.02387773 -0.06333601

q.bias f4 [2]
00000000: 1fb4 5bbe 08e3 01bd
-0.2145543 -0.031710654
