models/sac_CartPole-v1.pth (torch, 214992 bytes, 18 tensors)

fc1.weight f4 [128, 4]
00000000: 87dd d03e 81d9 333f 18cf a23f ce49 5b3f
00000010: dde3 f1be bec9 253f 8b6d 3e3f 5c3c cb3e
00000020: 669a 313f c08a d1be 12b9 9a3f 2bc1 3ebe
00000030: 8b47 403f 988b 8e3e 9dff 85bd 6ffd 70bd
00000040: ab67 083f 279c 233f d2f6 7c3f 2ee3 c73e
00000050: 1e11 99bf 9782 c7be 56e4 5e3e 16b5 ebba
00000060: e2a9 f8be 31e6 d9be 5416 cebf 2d15 e7be
00000070: cdbe 973d 8f4f 86bf b685 60be 795c 16bf
00000080: b74d 013e 44b2 c5be 8c3c e83e 97a2 8e3f
00000090: e01a c63e 00e2 793e 9366 793e 4f23 e9bd
000000a0: 3288 0e3f 19f4 01be a7f6 f23f 2be7 823e
000000b0: 42c5 0f3d 23a3 83be 823b 0540 8f9e 1abd
000000c0: 916f 583f 5cfc d6be 6b9f edbf f4d1 02bf
000000d0: b526 7ebe 49e3 463f c2c8 0f3f e6f3 c7be
000000e0: 1421 0b3f 7065 953e 77be 313e 760b 66be
000000f0: a03d 623f f96c 4a3e 1dd3 e9bf 073c 0dbf
00000100: 94a0 9b3f 5e4d 5ebd 7f63 28bf 67f5 6bbe
00000110: 1b55 82bf 7e59 a5be a40e b03f e27a cfbd
00000120: fef9 663f c2b2 16be a622 3cc0 f1ed 4ebf
00000130: d9d1 60bf 6445 c3bd 74c0 a03f 7276 a73e
00000140: 3042 723e 2b0b 2ebf cf03 06bf 1a5a 14bf
00000150: 5a3f 763f ded2 563e 5eb6 063d 1c4a b0be
00000160: 5a2e a4be 871a 173e 113e 8a3f 5a2b 5e3e
00000170: 6999 1a3f 0fad d43e 55fe 5dbe 14ed cd3e
00000180: 1a07 9d3f 4861 c8bd b431 aebf d3bb 40be
00000190: 8cbf 71be 1f2e e83d fd24 adbf a9a3 01bf
000001a0: 56bd 0fbf 1ee3 32bf 795e 49bf b16d 26be
000001b0: 035f 41bf 2a4e acbe 6989 1f3f 53a0 343e
000001c0: 3d72 c13e 69b6 3ebf 1c15 88be 67aa 28be
000001d0: 3d01 233f c11a bbbe e6f7 9ebf 1d3b 85bd
000001e0: e536 983e 9bfb 01be ca35 1cc0 43ae 06bf
000001f0: ba3a 753e a40f 50bf f00f a3bf fa89 19bf
00000200: 97c2 aa3d ccdc ccbd 1ee3 0e40 e3b0 05be
00000210: 3aaf f2bf 5cc7 bd3c 6aa5 28bf 6132 833d
00000220: 105f 863e cc24 01bf a6a6 2fbf 48c0 2ebf
00000230: 216d e23e 35b8 2dbf 7d94 90bf 8502 79be
00000240: 9dd1 b03e eb8b dcbc 62e6 3d3f b030 443f
00000250: b97d 8f3f e474 62be 5e14 20bf 71c3 a7be
00000260: a811 933e 9b82 a8be f55b 8c3f cec4 0ebf
00000270: 00c4 de3e 7f4e 34be a904 f13f 1607 0fbe
00000280: f1ba 873f ca9d 20be 90cb 49bf 27e2 4fbe
00000290: 17c2 aebe ed61 ac3e bfb1 83bf 8aaf 353f
000002a0: 26b0 e4be 7455 dcbe 2549 96bf 65a1 a3be
000002b0: e3cf 573f 4e22 053e b2a4 853d 64da c0be
000002c0: cc56 15bf b803 8dbe 84e6 4f3f 71b0 35be
000002d0: 2a50 80be b943 c5bd ffa3 f43f 3f22 f83d
000002e0: 4902 e23e d9d0 cd3e e5b7 603f c620 39be
000002f0: f5f9 d7bd ba83 c73d 70c8 b6bf 5cd7 a8be
00000300: a5b3 f83e 5433 433f 612b c83e 86d9 94bc
00000310: 5a32 e3bd f180 643e 9183 2140 2f9e 18be
00000320: ce1f bebf 6217 04be f573 393f cb3c a13e
00000330: aec3 9dbe 4f53 b33d d665 3abf 08fc 07bf
00000340: 898c e6be beeb 7b3e de12 893f 8901 9d3e
00000350: 880c 1cbf 891d 29bf 611d 493f f985 bf3d
00000360: 1821 943d d097 04be 7cd2 533e e802 43be
00000370: 0451 58be 740a d73e e53c e5bf 66b4 c13e
00000380: 9a74 85bd 59d3 3e3f c197 86be 6e0b a8bd
00000390: 8a86 43bf b430 5dbf b1fe 493f 484a c9bd
000003a0: 4ca3 2b3f b976 da3e ec05 f13f ffc5 143f
000003b0: b8cb e2be 5ebb 7abe 0255 60bf f18a 1fbf
000003c0: 20cd 543f bfa1 66be a500 8dbf 53fe dbbe
000003d0: 11a4 7b3e 36bb 9ebe b5eb d1bf 99af 14bf
000003e0: e1d1 26bf 4472 0e3e c4c8 13bf c8ea b63d
000003f0: df92 b93e 894f 3fbe 2760 0dc0 a4c6 2abf
0.40794012 0.7025376 1.271945 0.8565949 -0.47244158 0.6476096 0.743859 0.39694488
0.6937622 -0.4092617 1.2087729 -0.18628375 0.75109166 0.27840877 -0.06542895 -0.058835443
0.53283185 0.63910145 0.9881412 0.39040512 -1.1958349 -0.3896682 0.21766791 -0.0017983045
-0.4856711 -0.42558435 -1.6100564 -0.45133343 0.07409439 -1.0493029 -0.21926007 -0.5873485
0.12627302 -0.38612568 0.45358694 1.1143368 0.3869238 0.24402618 0.24355535 -0.11383688
0.5567657 -0.12690772 1.8981522 0.25566992 0.03510023 -0.257104 2.081757 -0.03774887
0.84545237 -0.4198941 -1.8564276 -0.51101613 -0.24819453 0.7769056 0.5616571 -0.39053267
0.5434735 0.29178953 0.17357813 -0.2246531 0.8837528 0.19768132 -1.8267552 -0.5516972
1.215838 -0.054273 -0.6577682 -0.23042832 -1.0182222 -0.3229484 1.3754468 -0.1013086
0.9022521 -0.14716628 -2.9396148 -0.8083182 -0.878202 -0.095347196 1.2558732 0.32707554
0.23658061 -0.6798579 -0.5234956 -0.57949984 0.96190417 0.20978877 0.032888763 -0.3443154
-0.32066613 0.14756213 1.0800191 0.21696225 0.60390335 0.41538283 -0.21679051 0.4021994
1.2267792 -0.0978418 -1.3608918 -0.18821649 -0.23608226 0.11336922 -1.3526913 -0.5064035
-0.5614828 -0.69877803 -0.7865978 -0.16252781 -0.755356 -0.33653384 0.62319046 0.17639284
0.3778247 -0.74497086 -0.26578605 -0.16471253 0.63673764 -0.3654385 -1.2419403 -0.065054156
0.2972938 -0.12693636 -2.440783 -0.5260965 0.23948184 -0.81273866 -1.2739239 -0.5997616
0.08337896 -0.10003051 2.2326121 -0.13055758 -1.8959725 0.023166351 -0.658774 0.064060934
0.26244402 -0.5044677 -0.6861366 -0.6826215 0.44223884 -0.678592 -1.1295315 -0.24317367
0.34534922 -0.026922187 0.7417966 0.7663679 1.1210243 -0.22114903 -0.6253108 -0.32766297
0.28724408 -0.32912144 1.0965563 -0.5576905 0.4350891 -0.17608069 1.8829547 -0.13967547
1.0603925 -0.15685192 -0.78826237 -0.20301114 -0.34132454 0.3366846 -1.0288619 0.70970976
-0.4466564 -0.43033946 -1.1741072 -0.31959072 0.84301585 0.13001367 0.06525554 -0.3766662
-0.58335567 -0.275419 0.81211114 -0.17743088 -0.2506116 -0.09632058 1.9112548 0.12115907
0.44142368 0.401984 0.877806 -0.18078908 -0.105457224 0.09741922 -1.4279919 -0.32976806
0.48574558 0.76250196 0.39095595 -0.01817013 -0.11093588 0.22314812 2.5236552 -0.14904092
-1.4853456 -0.12899545 0.7244256 0.31491694 -0.30813354 0.08756124 -0.7281164 -0.53118944
-0.45029095 0.24601647 1.0708883 0.30665234 -0.6095662 -0.6606069 0.78560454 0.09351725
0.07232875 -0.12948537 0.20685762 -0.19044077 -0.21124655 0.42000163 -1.7909209 0.37832946
-0.065163806 0.7454124 -0.26287654 -0.08205305 -0.76377165 -0.8640244 0.78904253 -0.09828621
0.67046046 0.42668703 1.8829932 0.5811462 -0.4429605 -0.24485537 -0.8762971 -0.6232138
0.83125496 -0.22522639 -1.1015822 -0.4296747 0.24574305 -0.31002206 -1.6400057 -0.5808044
-0.65164 0.13910776 -0.5772822 0.089315 0.36244866 -0.18682684 -2.2089937 -0.6670935

fc1.bias f4 [128]
00000000: d2da 983c cbbe 87be a32f 93be d2a2 b3be
00000010: d65e 5e3e 2332 e9bd 3558 283e f95a cebd
00000020: 4f21 27bd 95a3 dabd c5b5 cbbe 5a20 f63d
00000030: 01bd 363e 8811 e4be 3ced 7f3e d2d2 7abe
00000040: b218 27be d26c 263e 07d3 5f3d f8df 93be
00000050: eaee c83c f136 e73e fd23 2bbe 3236 1dbf
00000060: 6dd8 9dbe ec3f fb3d 37f3 9dbd d079 19be
00000070: 84ec 25be 8e57 5fbe 8ffa f43d 207c 5b3d
00000080: 8eb6 a53e a1f2 593e 974e 7e3d 4450 ba3d
00000090: 8816 e1bd 1ee8 ffbd b5f5 97bd 56f9 afbd
000000a0: 04c8 25bf f8e5 533e 1745 a03d e38f 69be
000000b0: 044a 503e da59 2cbe 5473 67bd 0c23 b93e
000000c0: b3d7 dbbd b81f 99bd a742 35be b6f6 08bf
000000d0: 01fa 51be 299d 52bf 7e99 e1be c5c7 a9be
000000e0: 61b9 21bf 8527 d7be 06e8 99be e194 c3be
000000f0: 928f dabe f80e a53d 662f c53d 84e3 3f3d
00000100: f25b cb3d 4f92 643c 61b5 7ebe 06d1 a9bd
00000110: 6a12 ebbd 0172 36bf 4ec1 a73d 2167 5d3e
00000120: b875 17bf d61e 103d 22ca 51bd efbf 4e3d
00000130: 2042 083b 06b9 ea3c 0bd5 18be 229a 423e
00000140: f4e4 6fbe 833d 523d de75 f5be b1bf 8bbe
00000150: bf3d 2cbe 86c7 bbbe fb7b 083e 4995 ee3d
00000160: 5f8a 2abe 497d 8d3e f331 8bbe 8508 15bf
00000170: cc14 403e f051 14bf 3b1c 02bf 635a c3be
00000180: 8d9c dc3e c2bd 8dbb 8d1e 723d df31 7c3c
00000190: 620c f9be 204e 3f3e b5ee c1be 82c4 41be
000001a0: 2340 fe3c 1506 b6bd e741 cfbe 3edd 48bd
000001b0: 5ed6 9cbc 8a19 1b3e 3650 90be a1c3 79be
000001c0: 1d4d 05be efb5 cfbd 8bf0 9cbe 174c ae3d
000001d0: 3a43 fdbe 6f5c 92be cc54 c3be 5180 7fbe
000001e0: 5d67 053d d40e 8c3d 8af4 2c3e b80a e9be
000001f0: 43e7 edbe a4b8 f5be 33ef eebe ae0b 17be
0.01865903 -0.2651275 -0.2874728 -0.3508516 0.21715865 -0.11386516 0.16439898 -0.100759454
-0.04080325 -0.10675732 -0.39787117 0.12017889 0.17845537 -0.44544625 0.24992841 -0.24494484
-0.16318014 0.16252449 0.05464461 -0.28881812 0.024527986 0.45159104 -0.16712947 -0.6141082
-0.30829182 0.122680515 -0.07712405 -0.14987874 -0.16203505 -0.21810743 0.11961853 0.05358517
0.3236584 0.21283962 0.062086668 0.09097341 -0.109906256 -0.12495445 -0.07419912 -0.08592479
-0.64758325 0.20693195 0.07825678 -0.22808795 0.20340735 -0.1683115 -0.05650647 0.3615955
-0.10734501 -0.07476753 -0.17701207 -0.5350145 -0.20505525 -0.8227106 -0.44062418 -0.33160225
-0.6317349 -0.42022339 -0.30059832 -0.38199523 -0.4268766 0.08059496 0.09628181 0.046847835
0.099296466 0.013950898 -0.24873878 -0.08291821 -0.114781216 -0.71267706 0.08191167 0.21621372
-0.59164 0.035185657 -0.05121816 0.05047601 0.0020791367 0.02865268 -0.1492502 0.1900411
-0.23427182 0.051328193 -0.47941488 -0.27294686 -0.1682043 -0.36675662 0.13328545 0.11649568
-0.16654347 0.27634647 -0.27186546 -0.58216125 0.18757933 -0.57937527 -0.50824326 -0.38154897
0.4308819 -0.0043255994 0.059111167 0.01539275 -0.4864226 0.18682146 -0.37877432 -0.18922618
0.031036442 -0.08887879 -0.40479967 -0.049039118 -0.019145187 0.15146461 -0.28186196 -0.24391033
-0.13017698 -0.10142123 -0.3065227 0.08510607 -0.49465352 -0.28586146 -0.38150632 -0.24951293
0.032569278 0.06838766 0.16890159 -0.4551599 -0.464655 -0.47992432 -0.4666687 -0.14750549

fc2.weight f4 [128, 128]
00000000: 9d01 423b 25cf b1bd d037 7e3d c7b3 413d
00000010: ed2b dabd 116c 70bd 808b c03b b93e 17bd
00000020: e3e9 a7bc 0d6e 3fbd 8bcd 713d db5b 87bd
00000030: 8d7e 4e3d 60e0 ba3b 055f a2ba e727 4e3d
00000040: 322f bebc 4a75 87bd b135 18bd 0b87 5a3d
00000050: bb5e b3bd af21 b539 d20f ddbd c97c 1c3d
00000060: 19b2 c83c f584 dcbb 260f a23c c247 93bc
00000070: 87d4 083d 19a1 b6bd c7a5 00bd 3e69 b23c
00000080: 3b9e 8e3d c278 e43c d4fc a9bd c005 3e3d
00000090: 8450 0ebd 6024 0abd 7d36 cfbd c14e dabc
000000a0: f817 5e3d 4e17 c8b9 66d0 83bd 38e1 de3c
000000b0: a60c 3fbd 06c3 9c3d 00ae a8bd 9891 5ebd
000000c0: b711 bfbd 10c4 53bd 5f2a 313c 7b40 ae3d
000000d0: 1c88 303c f3ee 8c3d d4aa 8d3c ea9c 323d
000000e0: c91d 913d ddc2 633d f6f5 65bd 676d a63d
000000f0: 6f1d 3c3d 2c40 6fbd 4ade 73bd ce50 c3bd
00000100: 8d25 003c de3e bfbd 879e ee3c f02a 0a3c
00000110: 8e63 abbd 1913 863c 6c86 f0bc 7024 c73c
00000120: 0805 563d 596c dfbd 29f3 7f3d 1b13 8a3d
00000130: 3c4b cf3c 288c c2bd 39c3 54bd c1df 21bd
00000140: 4c6b 30bd fc6c 093d 71f5 243c 9002 473d
00000150: 9207 3fbd d459 b43c 741e 1d3c d5f8 b7bd
00000160: bf69 bebd e585 77bd a877 1c3d b60e bbbd
00000170: 6364 c2bd 72d0 4a3d 68c8 213d 14b3 773d
00000180: 0cd3 95bd 3944 b6bd f40b 1f3d 4684 8e3d
00000190: c283 3a3d 9260 dfbb 29c8 4a3c d2f2 9a3d
000001a0: cc50 8cbd 7122 55bd 66d9 5b3d b5b3 a9bd
000001b0: 852f 7dbd 5ce0 2a3d 9d53 be3c 1494 763c
000001c0: 56f7 54bd aaf2 c8bb 860b 963d f624 92bd
000001d0: 002c 363a aab0 dc3c 9c39 8bbd 6c6a 853d
000001e0: effc 6fbd b82e 24bd 04e0 04bd eea1 71bd
000001f0: 2585 c2bd 0305 073d f3ad 7a3c f88a a9bd
00000200: c0b0 903e b3b6 743f 42f8 823f c169 8fbe
00000210: 8b84 ed3c 63bf aebe 0a19 483e 5314 f43d
00000220: d076 2b3f 2014 3e3d df89 8d3f 4db2 2a3d
00000230: 1407 02be f2c3 3abf 05b0 87bd 56a4 883e
00000240: 4e4c a23e 3536 1ebe c46e 8abe da68 043e
00000250: b3ba 02bf d001 0d3e 29ab 12bc d760 613e
00000260: 2408 87be 619d d4be 2b45 40bf ea26 acbe
00000270: ddcb e1be e99d 853e e04a febe 8e50 d2be
00000280: fb6d 8cbc ba64 873d 108e 29bf a97c 28be
00000290: 76e3 a1bd 9924 8c3e 7a83 94be bbc5 153e
000002a0: 28f8 04be 81ed 72be b47f b8bf 160e ed3e
000002b0: 77a8 99be cc8f 60be 2be9 003e cc26 68be
000002c0: a223 53bd 752e 07bf 4e09 8c3d 89a6 3bbf
000002d0: 4ffc 283e ba60 34be b4bc 4dbd 8242 0fbf
000002e0: dfd5 96be 2f29 02bf 9859 793f 4279 76bf
000002f0: 21a4 25bf 81c1 b6bd bf61 5f3e dbd4 a1be
00000300: 078e 8c3d d3ed 0b3f 5de3 82be 1221 84bf
00000310: eb92 84bf 4f4f ad3e 79a4 80be 1997 8c3d
00000320: 4c66 793e a2bf 48bf d9ed 25bf 12a3 d4be
00000330: 0847 123d c9d5 433e 143d 0ebe 519c e03c
00000340: cae8 1cbe 2b36 82be 2956 263d acf4 2abf
00000350: be5c b7be a447 f0bd a707 e6be 345b 213d
00000360: 2912 353f 6b42 2cbd b745 adbe 45d4 f7bd
00000370: f0bd 113e 12ec a7bf bb30 0bbe 8e6f 823e
00000380: ea92 a6be 97d9 583d 796f 24bd 68c3 07bf
00000390: d91d dd3e d56c ebbd e908 4abe b41b 223f
000003a0: ece1 09bf 294c d7bf 07d8 4bbe 1c64 7bbf
000003b0: 533e ea3e be24 7a3e 8e80 c13f b953 52bf
000003c0: 3228 983e 776b f2be c63a 803e 6b60 523d
000003d0: e15d 5a3d d62f de3e f878 4d3f d5db 94be
000003e0: 0ea8 5dbe e459 17bf 667c 273e 393e c23e
000003f0: d01f 94be 8350 9abb a0e1 8ebe 0372 f03e
0.0029603012 -0.08682088 0.062064946 0.04729059 -0.106529094 -0.05869681 0.0058760047 -0.03692505
-0.020497268 -0.046735812 0.05903391 -0.06609317 0.050413657 0.005703017 -0.0012387937 0.050331023
-0.023215864 -0.06614168 -0.03716058 0.053351443 -0.08758303 0.00034548106 -0.10794033 0.038204942
0.024498986 -0.006729717 0.019782614 -0.017978553 0.033405807 -0.08917446 -0.031408098 0.021778699
0.06963774 0.027889613 -0.08300176 0.046392202 -0.034744754 -0.033726096 -0.10117815 -0.02664888
0.054222077 -0.00038164336 -0.06436233 0.027207002 -0.046642922 0.07654385 -0.08236313 -0.054338068
-0.09329551 -0.05170065 0.010813325 0.085083924 0.0107746385 0.068815134 0.017293371 0.043606676
0.07085759 0.055605758 -0.05614277 0.081263356 0.045926508 -0.05841081 -0.059538163 -0.09536897
0.007821453 -0.09338163 0.029128326 0.008433089 -0.08368598 0.016366528 -0.029360972 0.024309367
0.052250892 -0.109093376 0.062487755 0.06741925 0.02530443 -0.09499389 -0.05194399 -0.03952003
-0.043071076 0.0335512 0.010068283 0.04858643 -0.04663808 0.02201549 0.00958978 -0.08983008
-0.09297513 -0.060430426 0.03820005 -0.09133665 -0.094918035 0.049515195 0.039497763 0.060473517
-0.073156446 -0.08899731 0.03882976 0.06958823 0.04553581 -0.006816932 0.012376823 0.075658455
-0.06851348 -0.0520348 0.053674124 -0.082862295 -0.061812896 0.041717872 0.02323323 0.015049953
-0.05199369 -0.0061324434 0.07326417 -0.07135956 0.00069493055 0.026939709 -0.067980975 0.06514439
-0.058590826 -0.040083617 -0.0324402 -0.05899232 -0.094980516 0.032963764 0.015300262 -0.08278459
0.2825985 0.95591277 1.0232012 -0.2801037 0.028993865 -0.3413039 0.19540802 0.11917939
0.6697817 0.04640591 1.10577 0.041673947 -0.12698013 -0.7295524 -0.0662537 0.26687878
0.3169884 -0.15450366 -0.27037632 0.12930623 -0.5106613 0.13770223 -0.008951941 0.22009598
-0.26373398 -0.4152632 -0.7510554 -0.3362344 -0.44100848 0.26097038 -0.496665 -0.41077083
-0.017142287 0.06611009 -0.66232395 -0.16453804 -0.07904713 0.27371672 -0.2900656 0.1462621
-0.12985289 -0.23723413 -1.4413972 0.4629981 -0.3001134 -0.21929854 0.12588947 -0.2267105
-0.051547654 -0.5280526 0.06837712 -0.7330099 0.16502498 -0.17615023 -0.05022879 -0.5596086
-0.29460046 -0.5084409 0.97402334 -0.96278775 -0.64703566 -0.08923627 0.21814631 -0.31607708
0.06863027 0.54659766 -0.2556409 -1.0322592 -1.0357336 0.3384957 -0.25125483 0.06864757
0.2435543 -0.7841741 -0.6481605 -0.41530663 0.035712272 0.19124521 -0.13890487 0.027418287
-0.15323177 -0.25431952 0.040609512 -0.6677959 -0.35812944 -0.11732414 -0.44927713 0.03939362
0.70730835 -0.04205553 -0.3384225 -0.12101034 0.14232612 -1.3118918 -0.13592808 0.25475734
-0.32533962 0.052941885 -0.04014537 -0.5303254 0.43186834 -0.114953674 -0.19729961 0.6332352
-0.53860354 -1.6820117 -0.19906627 -0.9819963 0.45750675 0.24428079 1.5117357 -0.82159
0.29718167 -0.47347614 0.2504484 0.051361483 0.053312186 0.4339587 0.8026271 -0.2907397
-0.21646139 -0.5912154 0.16356048 0.37938097 -0.2893052 -0.004709305 -0.27906513 0.46961984

fc2.bias f4 [128]
00000000: 0754 0ebd 0f9c f9bd a675 98bd 2340 e33d
00000010: 84c1 70bb 8d80 68be 6ca6 5cba 4257 753d
00000020: 9d1a 293e 9af7 a63d c9ad 37bd 96a3 84bd
00000030: f8f1 b1bd 8078 6ebd b157 e53d c5f1 e63d
00000040: c855 413c b39e febd 47ae 79bc 3e8a 94be
00000050: 6698 15bd b691 453e f837 1f3e f96b ea3c
00000060: 9192 da3d 005e 0b3e e2aa 593b a992 173e
00000070: 7963 d8bb b8bd 823e 1a0b bebd 6e6f 17bd
00000080: d821 71be a91a a0bd eb90 bc3d f2b8 bd3d
00000090: dfb3 143d 850e 253d d653 b13d fbd1 4e3e
000000a0: 8cbc f93a 5c96 993d 64ad 8f3e ea8a dc3d
000000b0: 043a 413d ef95 263e 1e64 dd3d fb98 4fbe
000000c0: 18d2 223e a673 e5bd 7d63 2b3d 8764 f13d
000000d0: 1820 203d 468b b33e aeb1 913d 4811 30bd
000000e0: fd0a 3c3e 8e7b 3c3d cec6 043e cbd5 3b3e
000000f0: 78c3 433e 3a9f 08be 420c ad3e be71 8b3d
00000100: 6928 1a3e 37d6 5b3d 5586 003d 7b6a 23be
00000110: 12fd 97bd 016c 5d3d 19e2 12bd 0725 fabd
00000120: bd5d 2abd 1c65 2f3e deb4 00be 0802 a9bd
00000130: fb7c 073b ecf3 ae3d 3204 373e 7a07 88be
00000140: 8884 7c3e a4b9 393e 5a94 fe3c 0052 153e
00000150: 93c9 7abd a457 683d d765 3f3e 4e31 4d3d
00000160: 1a25 afbd 51c9 123e d074 dc3c e38a 703d
00000170: b83b 343d d2a4 523b 4a1a 873c ccaa f33c
00000180: f780 683d 5885 223d b2f2 e13d 019d 7ebd
00000190: f4df 123d 9e83 9c3e 31cc 9ebd 72a5 033e
000001a0: 33a6 173d 25c3 213e 21fa 253e 47fc 373d
000001b0: 9eeb 58bd 4227 623e c912 24bd 9128 e63d
000001c0: a094 303d e408 5a3c 9243 613e 1ef1 903d
000001d0: efef 6d3e 57e1 5d3a 67ad 40bd 0756 2ebe
000001e0: 25f9 a9bc 737f 503e 3ac2 c03d d7fa a23e
000001f0: de04 aabd 7701 0f3d 97b5 d83d ba99 863e
-0.034748103 -0.12187969 -0.07444315 0.110962175 -0.0036736438 -0.22705288 -0.0008417133 0.05989767
0.16514058 0.08152695 -0.04484347 -0.06476514 -0.0868873 -0.058220387 0.111983664 0.11276583
0.011800237 -0.12432613 -0.015239305 -0.2901172 -0.03652229 0.19293866 0.15548694 0.028615938
0.106724866 0.13610077 0.0033213426 0.1480204 -0.006603655 0.2553537 -0.09279461 -0.036971502
-0.23548067 -0.07817585 0.092073284 0.09263791 0.03630435 0.04029705 0.086585686 0.20197289
0.0019053384 0.07499382 0.28061974 0.10768683 0.04717447 0.16268133 0.108101115 -0.20273201
0.15900457 -0.11203699 0.041842926 0.11786752 0.039093107 0.35067195 0.07113968 -0.04298523
0.18363567 0.04601627 0.12966463 0.18343274 0.19117534 -0.1334199 0.33798414 0.06808804
0.15054478 0.053671088 0.03137811 -0.15958588 -0.07421316 0.05405808 -0.035860155 -0.12214094
-0.041593302 0.17128414 -0.12568995 -0.082523406 0.002067386 0.08542618 0.17872694 -0.26568204
0.24659932 0.18137223 0.031076599 0.14582062 -0.061227392 0.056724206 0.18691193 0.05009585
-0.085519984 0.14334609 0.02691117 0.058726203 0.044002265 0.0032141698 0.016492028 0.029744528
0.056763615 0.039677948 0.110326186 -0.06216145 0.03585811 0.30569166 -0.0775379 0.12856081
0.037023734 0.15797098 0.16208698 0.044918325 -0.052959077 0.22085288 -0.040056977 0.11238206
0.04311049 0.013307784 0.21998432 0.070772395 0.23236059 0.0008464059 -0.04704037 -0.17025004
-0.020748684 0.20361118 0.09412046 0.31832 -0.083017096 0.034913506 0.105815105 0.2628916

logits.weight f4 [2, 128]
00000000: cde3 9a3b 9bc2 54bf 8064 10bd 099e 903f
00000010: 4b31 f8bd 45c0 8ebf d520 07bf 6c85 b8bc
00000020: d733 33bf 8bb5 ef3e c7f0 77bf b195 3ebf
00000030: 8d76 aa3c c0df 6bbd a5e8 1b3f 6227 cd3e
00000040: 0596 553d a374 663f ae6c 10bd 1775 9dbf
00000050: d6e2 7d3f 6aae 63bf c7c6 36bf d377 10bf
00000060: bc37 b33e bba9 1cbf e598 17bd 75ff 1ebf
00000070: 7958 013f 9f7d dabe eb56 e4bb 92ee ec3e
00000080: 45d4 60bf ee72 853f 559e ce3e e8ab e93e
00000090: 9ea1 50bf a4ca fe3e 6d61 563f e061 b83f
000000a0: 5e0f 7f3f ddc4 933f a5c3 bdbf 8863 043f
000000b0: db12 743f e562 f33e f76c 853f 873c 85bf
000000c0: 173c abbf a3c1 b63e d4e3 253f 12ea 0a3f
000000d0: a5fe 06bf 7b67 9ebf 85b3 053f b137 47bd
000000e0: 1e99 fd3e 03bd 233f 21c5 26bf b8ea 513f
000000f0: ddd6 6f3f fd71 85bf 3795 a73f a0fa 4d3f
00000100: 63d3 3d3f fe8b 1fbf 48f6 4bbf 09f9 69bf
00000110: 99f9 9fbf 39ad 56bf fd92 40bf b65e 3bbf
00000120: 071c 19bd 112e 553f 8d72 8cbf d348 29bd
00000130: 8469 1abf 8c1a 343f 811d 13bf 7ebd 64bf
00000140: 1df1 50bf 2045 4bbf 7138 99bd 0a87 1f3f
00000150: 260a 2b3f 46d5 8a3f 457a 0b3f 40de 333f
00000160: 152f 7e3d b76e 5abf ab44 38bf 03d2 41bf
00000170: 0d6f 82bf 1874 ee3e cc87 38bf 9ef7 e83e
00000180: a0c8 223f 9c12 f73e 40a5 3e3f 3a3e 103f
00000190: 51f9 a73f 1e4f b33f a46c 933f 2d92 223f
000001a0: 2842 f63e 7969 dc3e 1921 153f c3a5 213f
000001b0: 96c8 ec3c 67cb 1e3f 9312 b13c ab2e 45bf
000001c0: ed2f 1b3f 8c1f 643d e973 aabf 621f 02bf
000001d0: dcc1 c4bf 9f31 afbc 14ae 90bd 0a42 19bf
000001e0: 0855 703f 04ed 21bf 20d5 093f bd82 7dbf
000001f0: 81f7 84bf f7e7 a9bf 9ab2 27bf e78b 51bf
00000200: 139e 0c3d 6268 593f d833 2f3d 7e87 94bf
00000210: c66b 8e3d 10fd 923f be5c 223f a386 403c
00000220: 16fc 163f cd04 06bf c0b9 8b3f d68f 223f
00000230: fa34 a93c 4635 0dbd 7219 1abf 3b7a a4be
00000240: 902e 733d a3d5 55bf c6fc 663d 2a74 9d3f
00000250: 2e86 7bbf 70e2 6e3f c51a 343f a6a6 153f
00000260: 9344 d2be cf57 373f 8c98 8c3d c6d0 1d3f
00000270: 9ba2 00bf c93a d73e 83d3 913d b685 d7be
00000280: 641e 513f 0281 70bf 0266 04bf eb15 f6be
00000290: 144c 623f 1b88 20bf f563 46bf 6e9e c0bf
000002a0: 581e 88bf b4fc 8dbf bafb b23f 026f 04bf
000002b0: de4c 88bf e765 1ebf f22d 7fbf 8968 7d3f
000002c0: 217b aa3f 496b f8be e51f 2bbf ccfe 07bf
000002d0: fc65 1c3f 1b7a ae3f 443d 04bf bd87 2abd
000002e0: c1d5 eebe fbc5 12bf b0ae 263f 9e60 5ebf
000002f0: 65d0 5abf e051 843f c350 96bf 0a8a 48bf
00000300: 4b3a 30bf 08ce 303f 99fa 603f 6dee 7b3f
00000310: b8d0 923f 4bc5 523f 5a0f 2c3f c425 4b3f
00000320: 0eb3 313d 9bfb 70bf a82e 8a3f e699 823d
00000330: e5b0 273f e110 30bf 2078 183f 9fe2 563f
00000340: ab2f 433f e183 4c3f f4cf 6a3d b07c 01bf
00000350: 6e9e 2dbf 998c 7bbf 853c 25bf 7813 58bf
00000360: 6469 adbc d18d 583f 3fa5 363f 6a8e 353f
00000370: 4ac7 8c3f 8bee 0fbf 939a 1f3f eb6f dcbe
00000380: bca6 42bf 324a 08bf da9f 43bf a46d 18bf
00000390: 5de4 9cbf defe b9bf 702b 8dbf 8e14 28bf
000003a0: 885b edbe 1925 10bf 0fc9 19bf a80f 31bf
000003b0: b017 4e3d a2de 1fbf 352c 7abd dc7e 263f
000003c0: 8907 09bf c0b3 37bd 459f b93f 6d74 113f
000003d0: 1ddf bc3f ef98 91bc 580a 513d 4655 143f
000003e0: ceb8 5cbf 0304 223f fb16 07bf 046b 783f
000003f0: a6c3 833f 3ac6 a73f b0ec 3a3f d115 6d3f
0.004726863 -0.83109444 -0.035252094 1.1298229 -0.12118777 -1.1152426 -0.5278447 -0.022524558
-0.70000976 0.46818194 -0.9685177 -0.7444716 0.020808483 -0.05758643 0.6090186 0.4006911
0.052145023 0.90021724 -0.035259895 -1.2301358 0.9917425 -0.8893801 -0.7139706 -0.5643284
0.3500346 -0.6119649 -0.037011046 -0.62108546 0.50525624 -0.42673966 -0.0069683692 0.46275765
-0.878239 1.0425699 0.40355173 0.45638967 -0.8149661 0.49763978 0.8374241 1.4404869
0.99632823 1.1544453 -1.4825331 0.5171437 0.9534127 0.47536388 1.0423878 -1.0409096
-1.3377713 0.35694608 0.64800763 0.5426341 -0.52732307 -1.237533 0.5222705 -0.048637096
0.49530882 0.63960284 -0.65144545 0.8199878 0.9368723 -1.0425411 1.3092412 0.8046055
0.74150676 -0.62322986 -0.7967267 -0.9139562 -1.2498046 -0.83858067 -0.75224286 -0.7319139
-0.037380245 0.83273417 -1.0972458 -0.041329216 -0.60317254 0.7035301 -0.57466894 -0.8935164
-0.8161791 -0.7940235 -0.074814685 0.6231543 0.6681236 1.0846336 0.54483443 0.70261
0.06205662 -0.8532519 -0.7197978 -0.7571108 -1.019014 0.46572948 -0.7208221 0.45501417
0.6358738 0.48256385 0.744709 0.5634495 1.312296 1.400852 1.151753 0.63504297
0.48097348 0.4304922 0.5825363 0.6314356 0.02890424 0.6202912 0.021615302 -0.77024335
0.60620004 0.055694148 -1.3316623 -0.50829136 -1.5371661 -0.021385966 -0.07064453 -0.5986639
0.9387975 -0.6325228 0.5384083 -0.99027616 -1.0388032 -1.3273915 -0.655069 -0.818541
0.03433044 0.849249 0.04277405 -1.1603849 0.0695415 1.1483479 0.63422763 0.01175085
0.589784 -0.52351075 1.0916061 0.63500726 0.020655144 -0.034474634 -0.60195076 -0.32124504
0.059370577 -0.8352911 0.056393407 1.2301075 -0.98251617 0.93314266 0.7035335 0.5845741
-0.41067943 0.7161836 0.068650335 0.6164669 -0.50248116 0.42037037 0.07120421 -0.420942
0.81687 -0.9394685 -0.5171815 -0.48063597 0.88397336 -0.6270768 -0.7749627 -1.5048349
-1.063426 -1.1092744 1.3983071 -0.51731884 -1.0648458 -0.6187424 -0.9967948 0.98987633
1.3318826 -0.48519352 -0.6684554 -0.53123164 0.61093116 1.3631014 -0.51655984 -0.041633356
-0.46647456 -0.57333344 0.651103 -0.86866176 -0.85474235 1.0337486 -1.1743397 -0.7833563
-0.6883895 0.6906438 0.8788238 0.98410684 1.1469946 0.82332295 0.67210925 0.793545
0.04338365 -0.9413392 1.0795488 0.0637701 0.65504295 -0.68775755 0.59558296 0.83939546
0.7624461 0.7988873 0.057327226 -0.50580883 -0.6781987 -0.9826141 -0.6454547 -0.84404707
-0.021168418 0.84591395 0.71345896 0.7092043 1.0998318 -0.5622336 0.62345237 -0.43054137
-0.76035666 -0.53238213 -0.7641579 -0.595423 -1.2257191 -1.4530904 -1.1028881 -0.65656364
-0.46358895 -0.56306607 -0.60072416 -0.69164515 0.05031556 -0.62449086 -0.061077315 0.6503732
-0.5352712 -0.044849157 1.450173 0.56818277 1.4755589 -0.01777312 0.051035255 0.57942617
-0.8621949 0.6328737 -0.5276944 0.9703829 1.0294082 1.3107369 0.73017406 0.92611414

logits.bias f4 [2]
00000000: 05b9 2fbd 62eb 383b
-0.042901058 0.002821647

fc1.weight f4 [128, 4]
00000000: a9c1 33bf ecdb 2bbe 635e 9cbf dc48 15be
00000010: fb06 a2be ca27 1a3e 3f33 7140 d5d3 223f
00000020: c4de b2be 9a04 90bf f4e1 b2bf 396c 61bf
00000030: 8030 52bf 46e1 c7bd 1588 95bf 81a2 b0bd
00000040: 2833 02bf 6c5f 64be 1bcd 9b3e d09d 0e3d
00000050: 5288 e7bd da84 bc3e 0cb1 c7bf 59fc ab3e
00000060: d162 82bc 2930 f7be 36d6 9abf 098a 15be
00000070: 67b0 24bf a4ea 283e 744f 523f 2676 ea3d
00000080: 86a7 223e 644f e2bd 9f55 45c0 c1a9 babe
00000090: f370 fcbe 42d1 c8be 91a7 41be b45e aebe
000000a0: d27e 06bf d6cd d6be 3a31 abbe 652d cfbd
000000b0: 0925 d33e 2055 913f 66d1 d53f 3eb5 473f
000000c0: 1819 ffbe d5da 7dbd 28a3 c6bf ef87 24be
000000d0: ae3c f3be 8d55 a5bd ba8f 1fbe 804e bf3b
000000e0: 3eb6 833e 87c6 afbe 1c9e 06c0 89fb 3fbf
000000f0: e299 cdbd c2d4 87be 265c 33bf ff50 a5bd
00000100: 2e01 3b3e 1239 c63e 933e 3240 2525 9bbe
00000110: 1f8a 623e a7a9 dcbe 3d77 37bf 4998 e8be
00000120: 546a 33bf 82ed 32be 893c 91be 816f c1bd
00000130: 5859 c9be fa9a c43e 68ce d33e dd24 da3e
00000140: 046c f1be cbbb f3be a0cd 553f 6cdf 44be
00000150: 373c fd3e b226 dcbd dc3e 22be 92c3 6dbe
00000160: bccb 23bc e315 8a3d 1d1c f4bf 79f4 aa3c
00000170: 15b0 84be e84d cf3d a4b4 82be 5782 a53e
00000180: 5327 9f3f 00a8 b7be 0c1d c4be 51cd c0be
00000190: b6e0 1dbc d9ad 3c3d 9458 51bf 469f d2bc
000001a0: 04e7 b03d 0752 0fbe 11ac 233e 446d 4f3e
000001b0: b07d 653e d583 393f 9bea c4be 01e0 bb3e
000001c0: b0a4 313e 796b 87bb d09d 123f dfce 463e
000001d0: 2674 04bf e493 96be 2e78 09bf ec05 75be
000001e0: 592e 9e3e 01de 5e3f 55d8 0640 763f 363f
000001f0: 1a20 78bf 4ff7 86bd 66f3 0bbf f450 acbd
00000200: 2409 a2be b322 09bf 6480 a93f 6951 79be
00000210: fee7 b0be 4c25 caba febb 34be 1900 0ebd
00000220: f4b2 333c 3820 bbbe 88a2 0f3e 3ab5 6fbe
00000230: e351 2b3e d03c 86bd ea92 16c0 8897 97be
00000240: 0e1c e3be 989f 2fbf 61e3 c73e b3db 90be
00000250: 61a3 5abe bf27 f7bc ab21 2540 3acf ac3e
00000260: 4b7a acbd ce58 7f3f 4742 0a40 39df 603f
00000270: 5e86 cc3c bf31 3f3f c9bc 863f 9ed7 f63e
00000280: be9b b53e bf53 fd3d 7798 6740 dfa5 913e
00000290: 3e5f b93d b23e 77bd f8e2 2ac0 745e 1bbe
000002a0: 8b7a 0fbf 9d6e 86bf 56d3 96be f76e 0cbf
000002b0: 1dca e43e 3726 03be f74d c3be bb56 72be
000002c0: 2f8d 8dbe d9a2 06be bc6f 9a3f 2594 56bc
000002d0: 1f0a aabf 5945 6ebe ffa3 16be 1148 84bd
000002e0: 9f0b 8bbd 751a 833e 4edc 123c 2325 183e
000002f0: 5684 73bf 5ffc a0be ade9 2bbf 4bf4 e2bd
00000300: 3cb6 4ebe 3255 0d3f 7b16 0cc0 c037 32bd
00000310: d234 603f 673f 103f 1076 af3d 09f8 a93e
00000320: 2cf0 3f3e 7e74 31be 0952 1ac0 2661 adbe
00000330: 56ac 24be 3c45 d93d 7cd4 55be 8bc2 683e
00000340: 66f2 45be 0377 883d a2b6 4940 a1d2 1b3e
00000350: 10b7 1b3f 2220 773f d10c c13f e9d8 063f
00000360: 6fbb 48bf f5ff ba3e 6126 dd3f 4cac b73e
00000370: e323 09bf 0cc8 59be cb28 e2bf 70b6 6fbe
00000380: ae3f 1abe 536a 88bb 1211 4540 6fce 223d
00000390: 7413 873e 9d56 c43e 0f4e 2740 09d3 123f
000003a0: 9cf1 0fbf a568 27bf cad1 113f ee04 a5be
000003b0: 99a0 f93e 72a6 bdbd 542f 483f 5c3b 88be
000003c0: b8ac 50bf 590a 67be 13ac f13e bddf 443e
000003d0: cdff 55bf 8894 c6be 9f50 dbbe e4ba 5abe
000003e0: 8f51 d6bd 2ab3 9a3c 7bd3 1040 3126 0a3e
000003f0: af5d bcbf 56eb 1f3e 5e17 e7bf cb8f 9cbd
-0.70217377 -0.16783112 -1.2216305 -0.14578575 -0.3164595 0.15054241 3.7687528 0.6360448
-0.34935582 -1.1251404 -1.3975205 -0.8805576 -0.82105255 -0.097597644 -1.1682154 -0.08624745
-0.5085931 -0.22302026 0.3042992 0.03481847 -0.11305298 0.36820108 -1.5600905 0.33590963
-0.01591626 -0.4827893 -1.2096622 -0.14603437 -0.6433167 0.16495758 0.82152486 0.11448316
0.15884218 -0.11050299 -3.083351 -0.36457637 -0.49304923 -0.3922215 -0.18911578 -0.34056628
-0.5253726 -0.41953915 -0.33435994 -0.1011608 0.41239193 1.1354103 1.6704528 0.7801093
-0.49823833 -0.061976273 -1.5518541 -0.1606748 -0.47507232 -0.08072958 -0.15582171 0.0058382154
0.25724977 -0.34331152 -2.1034002 -0.7499319 -0.100391164 -0.2652951 -0.7006248 -0.080720894
0.18262169 0.38715416 2.7850692 -0.30301777 0.22123002 -0.43098184 -0.7166632 -0.45428684
-0.7008412 -0.17473415 -0.28366497 -0.09445096 -0.39325976 0.38399488 0.41368413 0.4260625
-0.47152722 -0.47604212 0.83516884 -0.19225854 0.49460003 -0.10749568 -0.15844291 -0.23219135
-0.0099973045 0.06742456 -1.907108 0.020868527 -0.2591559 0.10122281 -0.25528443 0.32326004
1.2433876 -0.3587036 -0.3830341 -0.37656644 -0.009636095 0.04606423 -0.81775784 -0.025710713
0.08637813 -0.13996135 0.15983607 0.20256525 0.22411227 0.72466785 -0.3846024 0.3669434
0.1734798 -0.004132685 0.5727205 0.19414853 -0.5173973 -0.29409707 -0.53699005 -0.2392804
0.30894735 0.870575 2.1069539 0.71190584 -0.96923983 -0.06590139 -0.5466827 -0.08413878
-0.316476 -0.5356857 1.3242307 -0.24347462 -0.34551996 -0.0015422492 -0.17649838 -0.034668062
0.010967959 -0.36548018 0.14026845 -0.23408976 0.16730456 -0.06554568 -2.352717 -0.29607797
-0.44357342 -0.68602896 0.39040664 -0.28292617 -0.21351387 -0.03017032 2.58018 0.3375185
-0.08421763 0.9974488 2.1602952 0.8784061 0.024966415 0.7468528 1.0526363 0.48211378
0.35470384 0.12369489 3.6186807 0.28446862 0.09051369 -0.060362525 -2.670103 -0.1517275
-0.5604636 -1.0502506 -0.29458112 -0.5485682 0.4468545 -0.12807547 -0.3814542 -0.23665898
-0.27646777 -0.13148059 1.2065349 -0.013096844 -1.3284339 -0.23268642 -0.14710997 -0.06459058
-0.06789326 0.25606123 0.008963658 0.14857917 -0.95123804 -0.31442544 -0.67153436 -0.110817514
-0.20186704 0.5520812 -2.188872 -0.0435102 0.875806 0.56346744 0.085674405 0.33197048
0.18743962 -0.17329594 -2.411257 -0.3386318 -0.16081366 0.106089085 -0.20881838 0.22730462
-0.19330749 0.06663325 3.151772 0.15217067 0.60826206 0.96533406 1.5082036 0.5267473
-0.78411 0.36523405 1.7277337 0.3587364 -0.53570384 -0.21267718 -1.7668699 -0.23409438
-0.15063354 -0.0041630655 3.079167 0.03974765 0.2638203 0.3834733 2.6141393 0.57353264
-0.5622804 -0.6539405 0.5696074 -0.32230324 0.4875534 -0.092602625 0.78197217 -0.26607788
-0.8151355 -0.22562541 0.47201595 0.19225974 -0.83593446 -0.38785195 -0.42834947 -0.21360356
-0.10464775 0.01888426 2.2629077 0.13491131 -1.471609 0.15617117 -1.8054006 -0.07644614

fc1.bias f4 [128]
00000000: 0eb4 e43d 0ffb 45bf ac73 90be 9850 003e
00000010: 593f ab3e cb1b edbe 463e 05bc c68f 13bf
00000020: 575f 1fbf 7cad 033e 501c 433d cc63 05bf
00000030: 7561 6dbe 6f87 0f3e b430 62bf 8eba ad3e
00000040: f22e c9be 3eff 473e 6734 f33d 472c 433e
00000050: dd77 22be d27f 3a3e ed34 dbbe 3ef8 ac3e
00000060: 25ae aebd c755 ca3e 1fb9 013f 8c3b f1be
00000070: 82b7 aa3e 2734 b03d 6e2f 583d 9865 9e3d
00000080: 4c32 31be b58d f63e eb46 9e3e ae79 e7be
00000090: 9e11 e1be a6b1 44bf c9fc 9fbe 2892 103e
000000a0: b384 3cbf 32bf 0fbf e8a5 1bbf 7a61 953d
000000b0: 6ced 95bd eef0 f13d 749a d63e 10b5 f7bd
000000c0: 48e2 67bf 6bfe ca3e c1fe 18bf 0d3d cb3e
000000d0: c963 21bf 69c0 a4bf 902f c03c e0f4 08bf
000000e0: bd15 13bf 6c50 febe fd01 f5bd 2e19 abbd
000000f0: 374f e0be 1030 3abe 3f75 33bf 92cd c7be
00000100: d5a2 8bbf 64a7 023f c413 803e 4c15 943d
00000110: 9b16 be3e b681 143e 716b 343d 9e45 97bf
00000120: 8069 54bf bd13 29be 91d6 3b3e 065f f4be
00000130: 857c 243e 3d98 0abf eedf f93e b01d ef3d
00000140: bf19 e43e f9b0 e1be 7bf5 e33d e77e 0c3e
00000150: 621a 4f3e 19ed 23bf e513 f4be 552a e2be
00000160: 47c5 1fbf b939 88be 2b6d 243d 7006 193f
00000170: 5e99 fdbe d0fa 0bbf 341e cabd 36a3 31be
00000180: 5ca2 0bbe 6d0e 243e a6ae 453c 91dc 99be
00000190: 5da7 903e 7b15 3abf 00a9 66be 1b29 033f
000001a0: 8562 4fbe 147f 73be 4a68 d93e 13db 56be
000001b0: a925 30bf ff35 52bf 10c2 ad3e 571c 053f
000001c0: 328b c53d 4ad0 2abf 1246 683d 050f f23e
000001d0: 18be cc3e f5d1 33bf c556 923e 71ec 2bbf
000001e0: 8f6a 32bf 1cf7 e23e 5899 32bf 1ffe f93d
000001f0: 4409 e7be d7cd cb3e 6b78 23bf 18a1 ddbd
0.11167155 -0.7733621 -0.2821325 0.12530744 0.33446768 -0.46310267 -0.008132523 -0.57641256
-0.6225485 0.12859148 0.047634423 -0.521054 -0.23181708 0.14016508 -0.88355565 0.33931392
-0.3929363 0.19530961 0.11875229 0.19059859 -0.15866037 0.18212822 -0.42813817 0.33783144
-0.08529309 0.39518568 0.506731 -0.47115743 0.3334313 0.08603697 0.052779607 0.07734221
-0.17304343 0.4815499 0.3091348 -0.45210022 -0.43958753 -0.7683357 -0.31247547 0.14118254
-0.7363998 -0.56151116 -0.6080003 0.07293983 -0.07320675 0.11813532 0.41914713 -0.12095082
-0.9057965 0.3964723 -0.59763724 0.39695016 -0.63042885 -1.2871219 0.02346018 -0.5349865
-0.57455045 -0.49670732 -0.1196327 -0.08354412 -0.43810436 -0.18182397 -0.7010078 -0.39024025
-1.0909067 0.5103667 0.2501508 0.072306246 0.37126622 0.14502606 0.044047777 -1.181812
-0.8297348 -0.16511436 0.1834357 -0.47728747 0.16063125 -0.5413855 0.48803657 0.11675584
0.44550893 -0.44080332 0.11130806 0.13720284 0.20224908 -0.6403366 -0.47671428 -0.44172922
-0.62410396 -0.2660654 0.040143173 0.5977545 -0.49531072 -0.54679585 -0.09869042 -0.17347416
-0.13636154 0.16021128 0.012065565 -0.3005109 0.28252688 -0.72689027 -0.22525406 0.51234597
-0.20252426 -0.23778945 0.4246238 -0.20982008 -0.68807465 -0.8211364 0.3393712 0.5199637
0.0964569 -0.66724074 0.05670745 0.47277084 0.3998878 -0.70242244 0.28581825 -0.67157656
-0.69693846 0.44329154 -0.69765234 0.12206673 -0.45124257 0.3980548 -0.6385562 -0.10821742

fc2.weight f4 [128, 128]
00000000: 3923 5b3e a6ff a5bf 4a33 34bf 54c6 e13e
00000010: 6f80 233e 4e5a 49c0 bbb6 3e3e e991 a8bf
00000020: 7bde f2c0 1ca9 833e 9856 4e3e a21c 8bbf
00000030: 7ca3 903d 7b2c 503e c332 cebe 33b7 743e
00000040: 3256 e73c ade1 9a3e 6f70 553e 6622 323e
00000050: 185a 523e f690 c33d 4537 fdc0 b40d 853e
00000060: dfc8 debe 4c90 a43e 7755 433e 62ae d6bf
00000070: 6bd7 0f3e 1d66 cd3d 1e51 d7bc 1a45 3e3f
00000080: ab76 703e 261d 283e 7b5b 893e a538 10c1
00000090: 310b 4abf 0294 16c1 685c abbf 9a2e 543e
000000a0: ebbc 87c0 fed2 60c0 5c73 b03f 9721 533e
000000b0: 2592 fabe c25b a73e b29d 903e 9864 833e
000000c0: d671 f5bf 80cc af3e 29d5 93bf 5958 883e
000000d0: fc5e 69c0 b46d 5ebf 55f6 5bbe 662b 79bf
000000e0: d58c 24c0 63f0 9dbf 54ae d63c e6f1 6f3e
000000f0: f8e9 fbbb 4e90 dbbe bd8e cec0 ffd4 dcbe
00000100: b97f c0be 850f 1f3e 23d2 3a3e 4a3c 783e
00000110: 4570 4c3e 0e51 8b3e b88c 22be ad7e 02bf
00000120: 2649 5bc0 79d5 813e 1929 3c3e 89dd 6a3d
00000130: d598 043f 5f95 a8c0 631e 4e3e c8a9 d13c
00000140: 445b c63e ddec 2ac0 93a3 0c3f 62ca db3e
00000150: 6107 4f3e 7141 0ec1 4e71 afbe 7e91 42c0
00000160: 3037 28c0 7d8f 07bd 6d06 0b3e 90f5 293e
00000170: 58ae 4abc 5267 f2c0 3bd7 803e ffdf bfbe
00000180: cc66 e2bd a5d1 943e 8a35 52bd 8549 12be
00000190: 23a1 653e 5ded 95bf bf88 13be d958 aa3e
000001a0: 417e e0bb 2b85 a1be e54d 813e e47c 06bf
000001b0: f11f 9ebf 3ef2 093e 7e0c 64bd 1343 903e
000001c0: 4e97 5f3e 570c 91be e01c e73e 9807 5a3e
000001d0: f8f9 6c3e aa24 12c1 0839 a03e 1831 ccc0
000001e0: 774c 883e 671e f43d b9f8 a6c0 3d05 16bd
000001f0: 5627 34c0 5cc1 4e3e 3ac2 a8be 0669 e0bd
00000200: bf57 3c3d c5c3 5a3f 72fc 27be 7e45 9a3e
00000210: d2f0 c8be 2ec6 e43f e8fe e23e e196 583f
00000220: 86ee a03f 950d a7bb 5620 77be ea95 713e
00000230: f47a 8f3f 5519 b9bd cd6e 503e 2cd7 533e
00000240: 4153 b83d 7e37 823e eae4 6bbb a92c 12bf
00000250: 50be 0f3f c005 2bbe f513 1840 921f 84bd
00000260: 2516 233f 44d2 003e 70fa 08bf 1515 7b3f
00000270: 9195 4cbf 7f2d 18be 40e0 d93d 3590 58bf
00000280: 75b8 ad3c 5a9a d4bd 53ff 6ebe 0701 e13f
00000290: 2458 403e 6ffa 4440 b594 583f 0d3e 6fbf
000002a0: 8edc 603f 92f2 5940 53bc e63e 7228 4f3f
000002b0: 635b 88be e956 1b3e c0fe 87be c393 07be
000002c0: 3e83 15bf 4077 7dbe 61b1 963f 23c3 1cbd
000002d0: 2c9a b33f 928f 89be e8d5 3f3f 3142 fcbd
000002e0: 58dc 0d3f d9e7 0d3f ea2a bc3e 01d4 30bf
000002f0: a88c 8bbf 05af dfbf 453e 2740 c36f 093f
00000300: dc88 a2bf 9ff3 24be 2b25 25be c2d5 4ebe
00000310: b305 c4be 48d4 c5bd b020 c6be d726 0abe
00000320: 39cf ad3f ba54 e3bd a156 b8be 055e d63f
00000330: 2895 043f b6f8 2f40 d307 39be 283a e6be
00000340: f166 1a3d de44 3b3f 45d5 1dbe 1b10 adbc
00000350: b1c4 a7be 8483 1f40 37ca 073f ca8f d53f
00000360: b044 4040 c8ba 993e 7a92 cf3e d7b1 19be
00000370: 4aa2 37bd ac19 2040 eaab f2bc ad6c 8f3e
00000380: 27dd c6bd 4683 1bbe 62b9 d1be cb26 6e3f
00000390: 8837 cd3d 3a2e af3e 75d6 823e f670 14be
000003a0: 1548 3b3f e692 20be 461a a2be 8abd 153f
000003b0: 1984 72be 515a eebe 4fe1 bd3e 1473 5abe
000003c0: 493b 4d3c 21b6 b6be 6cbb 53bc b802 93bd
000003d0: ca45 f9be c94c 3f40 0b9c 2b3f 2e07 973f
000003e0: 135c fe3e 93ae 7abe 72a4 b63f 02c8 883e
000003f0: e157 9e3f 07ff 56be 4bc6 9cbb 5dc0 103e
0.21400155 -1.2968643 -0.7039076 0.44096625 0.15966962 -3.1461368 0.18624394 -1.3169528
-7.5896583 0.25714958 0.2015022 -1.0868113 0.07062432 0.20329468 -0.40273103 0.2389801
0.028239343 0.30250302 0.20843671 0.17395934 0.2054218 0.095491335 -7.912997 0.25987017
-0.43512627 0.3214134 0.19075571 -1.6771967 0.14047019 0.10029242 -0.026283797 0.7432419
0.23482768 0.16417369 0.26827607 -9.013829 -0.78923327 -9.411135 -1.3387575 0.20720902
-4.2418113 -3.512878 1.3785205 0.20618282 -0.48939624 0.32687193 0.28245312 0.25662684
-1.9175365 0.3433571 -1.1549426 0.26629904 -3.6464224 -0.86886144 -0.21480687 -0.97331846
-2.5710957 -1.2338985 0.026206173 0.2343212 -0.0076878034 -0.42883533 -6.454924 -0.43131253
-0.37597445 0.15533264 0.18244223 0.24241748 0.19964702 0.27210277 -0.15873992 -0.5097454
-3.4263396 0.2535818 0.18375053 0.05734018 0.51795703 -5.268234 0.20128779 0.025593653
0.38741505 -2.670707 0.54937094 0.42927843 0.20217659 -8.890977 -0.34266132 -3.0401301
-2.6283684 -0.033095825 0.1357667 0.16597581 -0.012370668 -7.5751123 0.25164208 -0.37475583
-0.11054763 0.29066196 -0.05132059 -0.14285858 0.2242475 -1.1713063 -0.14407633 0.3327091
-0.006850988 -0.31546912 0.2525474 -0.5253432 -1.2353498 0.13471314 -0.055675976 0.28176174
0.21835062 -0.28329727 0.45139217 0.2129196 0.2314223 -9.133951 0.3129351 -6.380993
0.26620838 0.11919861 -5.2178617 -0.03662609 -2.8149009 0.20190948 -0.32960683 -0.10957532
0.04598212 0.8545497 -0.16404894 0.30131143 -0.3924623 1.787298 0.44335103 0.8460522
1.2572792 -0.0050980547 -0.24133429 0.23592344 1.1209397 -0.09038035 0.20354767 0.2068755
0.090002544 0.25432962 -0.0035994598 -0.57099396 0.5614977 -0.16701412 2.376218 -0.06451334
0.63705665 0.1258021 -0.5350714 0.98079044 -0.7991572 -0.14861105 0.106384754 -0.8459504
0.02120612 -0.10381003 -0.23339586 1.7578439 0.18783623 3.0777853 0.8460191 -0.93454057
0.8783654 3.4054303 0.45065555 0.8092109 -0.26632223 0.15169872 -0.26561546 -0.1323996
-0.58403385 -0.24752522 1.1772882 -0.038272034 1.4031425 -0.26867348 0.7493577 -0.123173125
0.5541434 0.55431896 0.3675149 -0.6907349 -1.09023 -1.7475287 2.6131756 0.5368616
-1.2698016 -0.16108559 -0.1612746 -0.2019873 -0.38285598 -0.0965963 -0.38696814 -0.13491379
1.3578864 -0.11100145 -0.36003593 1.6747442 0.51790094 2.749555 -0.18069391 -0.44966245
0.03769583 0.7315196 -0.15413387 -0.021125844 -0.3276725 2.492402 0.5304293 1.6684506
3.0041924 0.30025315 0.4054144 -0.15009247 -0.044832505 2.501567 -0.02962299 0.280126
-0.0971015 -0.15186796 -0.40961748 0.93027943 0.10020357 0.34214956 0.25554243 -0.14496216
0.73156863 -0.15681037 -0.3166067 0.5849234 -0.23683204 -0.4655328 0.3708596 -0.21332961
0.012526342 -0.35685828 -0.012923103 -0.07178253 -0.48686057 2.9890616 0.6703498 1.1799066
0.49679622 -0.24480657 1.4268935 0.26715094 1.2370569 -0.20995723 -0.0047843806 0.14135881

fc2.bias f4 [128]
00000000: b562 a73e 8a2a 6ebd f162 96bd c4de acbd
00000010: 6d7e 4ebd 134a 46be 9373 123d 246e c8bc
00000020: 7514 debd 6f5b 22bd 3107 4b3e 343d 3f3e
00000030: 29a3 33bd 9a9e 753e 59a8 5d3e 759b 67bd
00000040: 40db b53e ca61 f73b bfd6 95bc 30b1 d3bd
00000050: 79c0 473e 7af1 8a3e 3a97 7f3e 5062 683e
00000060: 5dee 72bd e18d 4a3d faee 733e 8439 903e
00000070: 2825 8a3e 9ab7 5b3e 73c0 4abd 4c91 fbbd
00000080: b412 683e 605d ad3e 0759 113d 22eb abbd
00000090: 01a5 d53c 1cc8 a33d 99d1 4e3e ac41 a0bd
000000a0: 725e 1cbc 4ad2 0e3c 13d7 2b3e b14e 903e
000000b0: f88b adbd e8a8 e33a 864c 503e f80b 973e
000000c0: 27b4 cebd a57b 503c 45ac e7bd 1e8f 0b3d
000000d0: de2b 8bbb 4ba1 6e3e f215 743e 4e95 853e
000000e0: 706a 96bd 96fa cd3d e0dd 2a3e 4ad9 9e3e
000000f0: 6821 8e3e 51e4 9f3e 2957 813e e7d6 233e
00000100: 4f60 c8bd 8dd0 913e 2eb7 82bd f9d9 513e
00000110: 1ee0 1a3e e8c0 033e 3d7c 1b3e 25ce aa3e
00000120: c178 713e 2f89 733e df59 893e 7396 7e3e
00000130: df2a 213e ebec d13c 36cd 7c3d 60d9 953e
00000140: d563 143e 5762 923e b661 53be 504c 993e
00000150: ed06 7f3e 4a3d b7bd b9a0 1cbc 4a0e be3d
00000160: 46d2 2c3e 65a5 8a3e 8c70 28bd 5441 bcbd
00000170: c71e cfbd 06f9 1d3e d4be 133e ecc2 873e
00000180: 0771 54bd 01bb e4bd b873 cd3e 50cd 893e
00000190: bd41 33be 91a4 d9bd 2028 873c e7eb 453e
000001a0: 5cdb 983e b371 54bd 57dd 07be 167c 7ebd
000001b0: 6e87 133e 6fb2 cf3c 755c 393e 7323 c8bd
000001c0: f162 963e fbf4 0fbd bdeb 383e ae91 943e
000001d0: 8766 923e 2bef a0bc f6c0 eabd 7b55 63bc
000001e0: 0a7d e33d 2cd9 a13e 242a a63e 8cbb 133e
000001f0: 4c6a 903e f714 ad3e f56a 683e c8f5 413c
0.32692495 -0.058146037 -0.0734309 -0.08440927 -0.050413538 -0.19364195 0.03575475 -0.024466582
-0.108437456 -0.03963798 0.19826962 0.18675691 -0.043856774 0.23986283 0.21646251 -0.05654474
0.35518837 0.007549499 -0.018290875 -0.1033653 0.19507016 0.27137357 0.24960032 0.22693753
-0.059309352 0.049451713 0.23821631 0.2816888 0.26981473 0.21456757 -0.04949994 -0.122835726
0.22663385 0.33860302 0.035485294 -0.083944574 0.026079657 0.07997152 0.20197143 -0.07825026
-0.009544002 0.008717129 0.16781263 0.28185037 -0.084739625 0.0017369064 0.20341691 0.2950132
-0.10092955 0.012724792 -0.11312155 0.034072034 -0.0042471727 0.23303716 0.23836496 0.26090473
-0.0734452 0.10057561 0.16686201 0.31025153 0.27759862 0.3122888 0.2526181 0.15999947
-0.097839944 0.28479424 -0.06382595 0.20493306 0.15124556 0.12866557 0.15184112 0.333604
0.2358122 0.237828 0.2682638 0.2486208 0.1573901 0.025625667 0.061719142 0.29267406
0.14491208 0.28590652 -0.20642743 0.29941034 0.24904986 -0.08947237 -0.009559804 0.09280069
0.16877088 0.2707931 -0.041122958 -0.09192148 -0.10113292 0.15427026 0.14428264 0.265159
-0.051865604 -0.11168481 0.4012735 0.26914454 -0.17505546 -0.10627092 0.016498625 0.19328271
0.29854858 -0.051866245 -0.13268028 -0.062130056 0.14407131 0.025353638 0.18101676 -0.097723864
0.2937236 -0.03514574 0.18058677 0.29017395 0.28593847 -0.019645294 -0.11462586 -0.013875361
0.11107834 0.31611001 0.32454026 0.14427012 0.28206098 0.33805057 0.22697051 0.011838384

q.weight f4 [2, 128]
00000000: 0452 64bb d6f9 b4be 5405 bdbc 6cb7 1fbd
00000010: 4d13 b5bf 3eb9 c8bf 85ff 8a3d 58aa 913c
00000020: 03cc 64bf c780 8ac0 ebe4 283f 84d7 943f
00000030: bbe1 08c0 c6c1 a73f 6835 463f 01cc a740
00000040: 218b 9bbf c713 a8bb 2417 c8bb 144c de3c
00000050: 4d2f 9abd 5c94 e03b 8a5c b23e b723 0e3f
00000060: 9fb9 8abd 6a5e 21bd 72c1 2a40 cb0d af3f
00000070: 40a0 bb3f 37ea 4f3f ed60 55c0 9ae5 42c0
00000080: eca0 6fbe 15c7 6b3f a066 1a3f 17d8 323d
00000090: 74d8 bd3c c7d4 87be ef76 aa3f 7345 e1bc
000000a0: 3518 73bd 2427 b33c d5e7 8b3f a164 a73f
000000b0: 141f a7bd 4dca 903d d693 ec3d c502 543f
000000c0: 43bc 07bd 628c dc3f 3ca3 06bb 84bf 1b3c
000000d0: 72fa 093d f332 143e 61c5 bcbe d8f8 b63f
000000e0: 101b ccbc fd02 6cbe 059b b73e f91d 523f
000000f0: 1468 573e f21f 2d3f 91cc 313f 514e 6e3f
00000100: c700 523d 8fa5 b03f 888b f339 5dfe b2be
00000110: 9e46 f03e 892f f4be 98f7 333f 795c 973f
00000120: e4bd 523f 9eef 243f 49d1 343f 2527 983f
00000130: 4958 553f 545c 65bd 238d 003d 098b 4c3f
00000140: 6ac2 4d3f db22 693f f874 4c40 b27c 5c3f
00000150: 141a 203f 78e7 87bf efc8 81bd 8c71 1e3f
00000160: 6ecb 3d3f e13a 4f3f 6b54 d43c 08ff 7bbd
00000170: 6226 55bd e2b5 32be 0cfe 13be 08a6 b0be
00000180: e993 99bd 1c16 313f 8926 973f 1331 673f
00000190: d361 54bf 2ba7 a2c0 40b7 5c3b 1389 303f
000001a0: 4c0e 3f3f 766e 103d e3c5 6cb9 45e7 d63c
000001b0: 3bb8 0ebf 33b7 c03d 3795 653f a069 8c3c
000001c0: 83f4 583d 75e9 a13d afb3 b7be 2bf6 cd3e
000001d0: 6f3f 413f faa4 813b 0ce9 8bbc 404a 3cbd
000001e0: 0bad c53e e11e 7c3f 75d5 783f 76c8 363f
000001f0: 7708 9f3f 47da c03f 9493 9d3f d03d 173d
00000200: af96 bc3f 8a49 bb3f 2428 cc3c ccb3 63bd
00000210: 09d4 b9bf 05d9 f2be ab25 fabc b3f8 b2bc
00000220: 51cc 11c0 bac9 4540 e7a7 613f 8d40 f8be
00000230: fd1f cf3f 4923 ff3e 4af7 3e3f 5dd0 16c1
00000240: b0f1 913f 9787 89bd 9015 9b3c 839f 32bd
00000250: feda b53f 7f92 a53f f65c ae3f c87c 683f
00000260: 988b 3cbc 9c6c 41bd 686f 8f40 d265 c63d
00000270: d5c8 003f 6cea 533f ba62 5cbe b04f 2a40
00000280: a092 413f 52bf 0d3f fff0 c23c 56d0 e2bc
00000290: 1530 b53d 9d00 3b3f 7234 83be d377 37bd
000002a0: f95c 373a 5d6c c93c dd94 6dbf 1008 fa3e
000002b0: a09b 6dbd 2e02 ab3c db5e b73f a80f 663f
000002c0: ff9e 8b3c 7cf6 803f ebea d3bc 8d94 543c
000002d0: fd27 6fbd 86e3 863f c297 b23f 822e 343e
000002e0: 64b1 653c 81a0 3c3f f98a 8b3f bc0e 673f
000002f0: ba7f 9c3f 3372 5f3f 2a55 613f ff25 e9bf
00000300: 2241 b63c 3686 203d fc5f 4dbd 5552 b93f
00000310: 7194 913f d231 0a3f 0560 453f 9a1b a53c
00000320: 2782 1bbf 42df 463f cfbf 5e3f 3a51 65bf
00000330: d9db 6cbe 1f94 39bd 00c8 853c 98a4 433f
00000340: c82b 153f 8764 6d3f bafb b4c0 9994 6abd
00000350: 6c19 783f 786b 43bf 9a9d a3bb 3999 6e3f
00000360: 1a2b 2ebf db61 23bf 98a1 c73d e0ff f4bc
00000370: d759 bcbb 6acb b13f 5081 903f 5325 ac3f
00000380: 4c95 cf3c a3d6 33c0 7398 323f 00ac 483f
00000390: 0299 3ebf e529 3440 5303 13bd 506a 423f
000003a0: 7988 3c3f 599c 6ebc dffb c1bc 0d99 d2bc
000003b0: 27c2 a53f a7a3 2dbc 765a 6cbf 306a 48bd
000003c0: c2ee ab3f c3de b13d 3a9e 213f deb1 ad3f
000003d0: a5fd 173f 2889 d0bc 6966 25bc 76b4 f63a
000003e0: 4e04 863f b6d9 183f a419 363f 5107 5b3f
000003f0: 7942 0d3e c41d 4dbe 34c2 74be 9923 a7bd
-0.0034838924 -0.3534686 -0.02307383 -0.038993284 -1.4146515 -1.5681531 0.06787018 0.017781422
-0.893738 -4.32822 0.659743 1.162827 -2.1387775 1.310601 0.7742524 5.243653
-1.2151834 -0.005129311 -0.006106274 0.027135886 -0.07528553 0.0068536233 0.34836227 0.55523247
-0.06773686 -0.03939668 2.668057 1.3676084 1.465828 0.8121676 -3.3340409 -3.0452638
-0.2340123 0.9210065 0.60312843 0.04366311 0.023174502 -0.26529524 1.3317546 -0.027498936
-0.059349257 0.02186925 1.0930125 1.3077585 -0.081602246 0.07069836 0.11551635 0.82816726
-0.033138525 1.7230341 -0.0020544073 0.00950611 0.03368611 0.1447256 -0.36869338 1.4294691
-0.024915248 -0.23048015 0.35860458 0.82076985 0.21035796 0.6762687 0.6945277 0.9308825
0.051270273 1.3800524 0.0004645253 -0.3495969 0.46928877 -0.47692516 0.70299673 1.1825095
0.82321 0.64428127 0.70631844 1.1886946 0.8333784 -0.055996254 0.0313846 0.7989965
0.8037478 0.9106881 3.1946392 0.8612777 0.6253979 -1.0617514 -0.06337153 0.6189201
0.74138534 0.8094922 0.02591916 -0.061522514 -0.052038558 -0.17452195 -0.1445238 -0.34501672
-0.07498915 0.6917436 1.1808635 0.90309256 -0.8296177 -5.0829062 0.0033678561 0.6895916
0.7463119 0.035261594 -0.00022580432 0.026233325 -0.55749863 0.094099425 0.8968081 0.01714021
0.05296756 0.079058565 -0.35879275 0.40226874 0.75487417 0.0039564343 -0.017078899 -0.045969248
0.38608584 0.9848462 0.9720071 0.7139963 1.2424458 1.5066613 1.2310662 0.036924183
1.4733485 1.4631817 0.024921484 -0.05559139 -1.4517833 -0.47431198 -0.03053554 -0.021847105
-2.2780955 3.0904374 0.88146824 -0.48486748 1.6181637 0.49831608 0.74596083 -9.42587
1.1401882 -0.06715315 0.01893118 -0.043609153 1.4207456 1.2935332 1.362212 0.908154
-0.011507891 -0.04722272 4.4823494 0.096873894 0.50306445 0.82779574 -0.21522036 2.6611137
0.75614357 0.55370057 0.023796557 -0.027687233 0.088470615 0.7304781 -0.2562595 -0.044792008
0.000699475 0.024587804 -0.9280527 0.48834276 -0.058009744 0.020875063 1.4325823 0.8986764
0.017043589 1.0075221 -0.025868854 0.01297487 -0.058387745 1.0538185 1.3952563 0.17595866
0.014019344 0.7368241 1.0901786 0.9025686 1.2226479 0.8728363 0.88020575 -1.821472
0.022247855 0.039190494 -0.050140366 1.4478251 1.1373426 0.5398227 0.7709964 0.020154763
-0.6074547 0.77684414 0.87011427 -0.89577067 -0.2313074 -0.045307275 0.016330719 0.76423025
0.5826993 0.9273152 -5.6557283 -0.05727062 0.9691379 -0.7633586 -0.004993153 0.9320255
-0.6803452 -0.6382119 0.097476184 -0.029907167 -0.0057480144 1.3890202 1.1289463 1.344889
0.025339745 -2.8099754 0.6976387 0.7838745 -0.7445222 2.815057 -0.035891842 0.7594347
0.7364574 -0.014563643 -0.023679672 -0.025707746 1.2949876 -0.0105981 -0.9232553 -0.048929393
1.3432238 0.086850666 0.6313206 1.3569906 0.59371406 -0.025456026 -0.010095217 0.0018822092
1.0470064 0.597072 0.71132874 0.8555804 0.13794889 -0.20030886 -0.23902208 -0.081610866

q.bias f4 [2]
00000000: f87c 34bd 68ac b43d
-0.044064492 0.088219464
