models/sac_Pendulum-v1.pth (torch, 218064 bytes, 18 tensors)

fc1.weight f4 [128, 3]
000000 8e 4d 04 3e 0c 76 b7 3f c2 73 a6 be a2 13 71 3f
       0.1292021 1.43329 -0.3251019 0.9417058
000010 40 b2 aa bd 84 e3 28 3e 1b 3c 18 3f a5 d8 3f 3e
       -0.0833478 0.1649304 0.59466714 0.18734987
000020 a6 5d ce 3e b3 b9 d9 bf b9 77 74 bd 94 e6 71 be
       0.40305823 -1.7009796 -0.05968449 -0.23623115
000030 f0 71 9d 3f e2 7a 13 3f 99 bc 32 3e 56 ad 1d 3e
       1.2300396 0.5760938 0.17454757 0.15398154
000040 dc 2c ab 3f 83 20 1f be 7a 89 02 bf dc ac 69 bf
       1.3373065 -0.15539746 -0.5099102 -0.9127939
000050 de e4 5d be 23 82 1e bf 1c d1 b6 be f2 95 a8 3e
       -0.21669337 -0.6191732 -0.35706413 0.329269
000060 5d 79 27 bf ab 6c 08 bf 7f 4e bd bd a6 55 db be
       -0.6541956 -0.53290814 -0.092434876 -0.42838782
000070 49 a8 12 bf 9c 9c 20 bf 0b d7 2f 3f 39 93 88 bf
       -0.5728803 -0.62738967 0.68687505 -1.0669929
000080 10 c4 ab 3e 5d 97 0c 3f 20 51 10 bf 27 13 f7 3e
       0.3354802 0.5491846 -0.56373787 0.482568
000090 bc c6 16 3f c7 30 0c 3f 89 44 94 3e 2f 73 b9 be
       0.58896995 0.5476193 0.28958538 -0.3622069
0000a0 59 3d 15 bf 02 16 80 be ec cb fa 3e 9d bc b3 3f
       -0.58296734 -0.2501679 0.48983705 1.4041935
0000b0 7a 4b 74 3e 89 d3 9c bf d3 43 68 be 99 a0 40 be
       0.23856917 -1.2252055 -0.22682123 -0.18811263
0000c0 6f c0 98 3e 53 c6 4b bf 5d a0 15 bf 0a 0f 01 bf
       0.29834315 -0.79599494 -0.5844782 -0.5041357
0000d0 a3 e2 73 bd 50 34 37 3e 25 17 b5 3e 3b bd 6c 3f
       -0.05954231 0.1789105 0.3536922 0.9247624
0000e0 75 ef 46 3e f6 54 7c be e2 de e9 be 7b 5d ef be
       0.19427283 -0.24641785 -0.4567786 -0.46751007
0000f0 51 71 58 bf 05 5a 0c bf 16 9b c1 3e 00 d9 1b 3c
       -0.8454791 -0.5482486 0.37813634 0.009512186
000100 ef b2 f3 3e 27 85 e7 be 30 e5 aa 3f 9d 1d 35 bf
       0.47597453 -0.45218775 1.3351192 -0.7074831
000110 fa 28 0b bf f4 37 bd be a0 bc a6 3f 87 ef 5a be
       -0.543594 -0.3695675 1.3026314 -0.21380435
000120 b5 5d 9f 3f be eb 8a bf 2c ad 21 bf 23 a7 96 bf
       1.2450472 -1.0853193 -0.63154864 -1.1769756
000130 7d aa 58 bc a5 40 80 3e 45 bf 80 3d b7 41 48 3f
       -0.013224241 0.2504932 0.06286482 0.7822527
000140 f6 8a c9 be 1d 79 95 be 4c a3 96 bf e4 72 a4 be
       -0.3936383 -0.29193965 -1.1768584 -0.32118905
000150 a7 d0 2b 3e 62 e1 b0 be 24 c2 58 3e 6e fd 8d bf
       0.16778813 -0.34546953 0.21167809 -1.1092966
000160 12 07 2b 3d ca 42 74 3e 19 bf b5 bd da 4a 02 be
       0.04175479 0.23853603 -0.088743396 -0.12723866
000170 5a e2 a7 3d 26 f6 1f 3f 38 ae d7 bf 13 d8 9d be
       0.0819747 0.6248497 -1.6850042 -0.30828914
000180 47 d4 93 3f 60 58 3e bf bd b9 ff be d5 12 94 bf
       1.1549157 -0.743536 -0.49946395 -1.1568247
000190 16 ab 5c be f3 34 7f 3e c7 a5 aa bf 65 7a 3f be
       -0.21549639 0.24922542 -1.3331841 -0.18699034
0001a0 18 82 a9 3e c5 cc 03 bf b8 8e c8 bf 0c e4 83 bd
       0.33107066 -0.5148433 -1.5668554 -0.06439981
0001b0 83 c1 a8 bf 04 bb 9c be d9 c3 d3 3e f3 0d 90 bf
       -1.3184055 -0.30611432 0.41360357 -1.1254257
0001c0 77 09 18 bf b7 a5 99 be 14 a4 92 bf 42 8f 4d bd
       -0.5938944 -0.30009243 -1.1456323 -0.05018545
0001d0 80 a9 40 3d c5 b4 3a bf 7c 83 ee be 94 ea 99 be
       0.047036648 -0.7293208 -0.4658469 -0.3006178
0001e0 bb 8c 5d be 8f a7 91 be 3c 18 58 bc c5 e2 76 bf
       -0.21635716 -0.2844815 -0.013189372 -0.9643977
0001f0 10 60 59 bf f7 39 85 be 33 76 96 bf 32 51 31 bf
       -0.84912205 -0.26020786 -1.1754822 -0.6926452
000200 0d e4 a3 3e 1b a8 01 bf ec 39 b9 3f 41 33 7b 3e
       0.32009926 -0.50647134 1.4470801 0.2453127
000210 4c 1e c3 bf 0d 15 f8 be 23 0b ae bd 8b 3f 4b be
       -1.5243621 -0.4845356 -0.08498218 -0.19848458
000220 d3 50 bb bf 8f 53 ba be bd 0d 40 3c 86 c6 b4 3f
       -1.463404 -0.36391875 0.011722025 1.4123085
000230 aa b6 a4 3d 3a 13 6d be 56 b2 e4 be cc c9 da be
       0.08042653 -0.23151866 -0.4466731 -0.42732084
000240 4f 30 0f 3f 1b 7f 58 3e a4 6e c9 3e 0c d9 4b be
       0.5593309 0.21142237 0.39342225 -0.19907016
000250 18 95 83 3f 15 88 c1 be 89 c4 b1 bc df 5a 56 be
       1.0279875 -0.37799135 -0.02170016 -0.20933102
000260 38 a5 46 be a3 fa 15 bf ab 9d de 3e 57 8c 03 bf
       -0.19398963 -0.58585566 0.43479666 -0.51386017
000270 92 1b 54 3f 95 5c 3e 3f fa d2 87 3e 0f d1 7a bf
       0.8285457 0.7436002 0.2652815 -0.9797525
000280 0a 1e 8a 3f 22 53 02 be 34 f9 2d bf 14 1c 8b bf
       1.0790417 -0.12727025 -0.6795838 -1.0867944
000290 39 b8 ea 3e f7 1a a2 bf 88 e2 d4 3a c9 dc 2b 3e
       0.45843676 -1.2664479 0.0016241828 0.16783442
0002a0 3c 61 cb 3e f1 db c4 bf 4f a4 7e be 14 e2 d6 be
       0.3972262 -1.5379621 -0.24867366 -0.4196936
0002b0 13 66 76 3f 25 5a a3 be 31 e7 84 bf 5c c3 6d bf
       0.962495 -0.31904712 -1.0383054 -0.9287622
0002c0 e3 af 90 be 08 59 2a be d7 bf e7 3e 6e 65 f4 be
       -0.2825919 -0.16635525 0.4526355 -0.47733635
0002d0 c2 d6 32 be 53 9c ce 3f 32 59 01 3d 3e 64 0e bf
       -0.17464736 1.6141456 0.031579204 -0.5562171
0002e0 ab 5f b7 3f 03 12 7a 3e 9e ec d5 3e 75 a3 b3 bf
       1.432607 0.24420933 0.41782087 -1.4034258
0002f0 86 59 92 be 8a 62 c1 bd e4 6e fd bb 67 f3 a4 bd
       -0.28583926 -0.09442623 -0.0077341665 -0.08054238
000300 ef 73 a2 3e ee 2b f4 3f bf 18 09 bf 8c 5e 04 be
       0.31729075 1.9075906 -0.53553385 -0.12926692
000310 80 08 0a 3c 20 33 0d bd 68 85 e8 3e c2 f9 ba 3d
       0.008424878 -0.034472585 0.4541428 0.09129669
000320 08 f2 02 bf 87 d6 20 bf 3d 7e c6 3f e1 ff 85 3e
       -0.5115056 -0.6282734 1.5507275 0.26171783
000330 43 b1 84 3e 7c 25 8b be f5 25 05 bf 59 6f 2d bf
       0.2591649 -0.27177036 -0.5201104 -0.6774803
000340 14 36 30 3f 26 d3 5b 3e c1 2e 0d 3d b4 b6 a5 3f
       0.68832517 0.21467265 0.034468416 1.2946382
000350 ae 7d b4 be 60 9a 8f bf 40 e2 d5 3d 01 a6 9a 3e
       -0.35252136 -1.1218987 0.104435444 0.30204776
000360 ae 6e f4 3e ce d7 37 bf 25 21 b8 3e 54 df f5 be
       0.47740692 -0.71813667 0.35962787 -0.48021948
000370 96 be a3 3d 7c cd 43 3e 58 9f e9 be d5 4d 76 bf
       0.07995336 0.19121355 -0.45629382 -0.9621251
000380 43 45 d7 be a1 d7 70 3f 07 bc 67 3f 4d 40 a1 3e
       -0.4204503 0.94079024 0.9052128 0.3149437
000390 6d 20 4a be 1b 53 d4 bf d1 9d 89 be 05 24 cf 3e
       -0.19738932 -1.6587862 -0.26878217 0.40457168
0003a0 df 67 2d 3f 53 33 00 3f ce 24 12 3e d6 ef 7d be
       0.6773662 0.50078315 0.14271852 -0.24798521
0003b0 14 29 80 3c 75 d2 09 bf 85 01 f1 bf 5b f3 8a be
       0.015644588 -0.53836757 -1.8828589 -0.2713879
0003c0 cf 96 a6 3e 71 5a b0 bf 15 22 66 be 0a 84 46 bf
       0.32536933 -1.37776 -0.22473939 -0.77545226
0003d0 38 9f ae bf 41 98 47 be c5 df 57 bf 4a ed 88 bf
       -1.364234 -0.19491674 -0.8432582 -1.0697415
0003e0 5f 24 c9 bd a4 5f 9e 3e 7a 17 a3 be c6 f3 0f bf
       -0.0982139 0.30932343 -0.3185385 -0.56231344
0003f0 5a b5 4f be 3b 81 03 be df a8 ea bd a1 7c 0f bf
       -0.20284024 -0.12842266 -0.11457991 -0.56049544

fc1.bias f4 [128]
000000 8f b4 91 3d da 03 9b 3e 20 09 8b bf 16 f6 81 be
       0.07114517 0.30276376 -1.086216 -0.2538306
000010 af 87 32 3e f4 88 e5 be c3 86 a2 3e b0 e0 93 bf
       0.17434572 -0.4483105 0.3174344 -1.1552944
000020 35 b5 07 3f 89 00 07 3f 40 5c fa be 58 55 fa be
       0.53010875 0.5273519 -0.48898506 -0.48893237
000030 98 86 33 bf 86 a8 ff 3e eb d4 06 3e 0e df 2c be
       -0.7012725 0.4993326 0.1316716 -0.16881964
000040 df 74 60 bf 9b 3b cf 3e 6a 7b dd bd 30 7d ab 3e
       -0.8767833 0.40475163 -0.10814555 0.33493948
000050 5f a2 1d bf 18 96 6b bf 75 54 16 bf 87 c5 1b bf
       -0.61575884 -0.920259 -0.5872262 -0.6084828
000060 8f e6 e2 be 6c 8e a9 3e 05 d6 93 be 61 c2 64 3d
       -0.44316527 0.33116472 -0.2887422 0.055849437
000070 1e 53 c9 3e 15 bd b0 3e a0 5d 93 3e 4e cc 63 bd
       0.39321226 0.34519258 0.28782368 -0.055614762
000080 04 e7 6f be a5 13 c8 3e 44 f2 a8 be e0 7f 54 3e
       -0.23427969 0.39077488 -0.32997334 0.20751905
000090 d7 0f 3e 3e b1 b0 d2 3e e6 a4 52 be 3f 43 4f 3f
       0.1856073 0.4115043 -0.20570716 0.80961984
0000a0 1e 41 96 3e 11 1c b7 3e e5 f2 04 bb 69 e0 39 be
       0.29346555 0.357636 -0.0020286378 -0.18152012
0000b0 a7 22 44 bd 53 af 17 3f 17 a8 05 be 2f 35 a4 3e
       -0.04788461 0.592519 -0.13052402 0.32071826
0000c0 18 5d 11 bf cc c0 04 3f a1 ba 55 bf f4 15 da 3e
       -0.56782675 0.51856685 -0.834879 0.42594874
0000d0 07 0b 09 bf c1 71 9d 3e 0e ba a1 3d 91 bc 98 be
       -0.5353245 0.3075085 0.07896815 -0.29831365
0000e0 92 b8 5b 3e 2d 71 f6 3e 5c 68 cc 3e f7 ed 35 3f
       0.21457127 0.4813322 0.3992337 0.7106623
0000f0 66 db f8 3d 27 98 50 be e7 7c a3 3c 5a 95 75 3e
       0.12151222 -0.20370542 0.019957019 0.23982754
000100 1a ce 95 3c 06 b5 e1 be b1 8a 48 bf d3 ed 6c be
       0.018286753 -0.44083422 -0.78336626 -0.23137598
000110 09 52 70 bf 25 56 ac 3e d3 7e d9 3d b4 34 71 3e
       -0.93875176 0.33659473 0.10619893 0.23555261
000120 b8 0f bb be 04 82 2e 3f ad 75 30 3f e3 77 1d bf
       -0.3653543 0.6816714 0.6892956 -0.6151106
000130 55 e5 db bd e0 63 0b bf f9 c1 f0 3c 60 72 c0 be
       -0.10737101 -0.5444927 0.029389368 -0.3758726
000140 95 f7 3b 3e 3c 20 84 be a7 77 90 be e3 29 86 bf
       0.18356164 -0.25805843 -0.28216287 -1.0481533
000150 57 fd 0a 3f 07 2f 1a 3f 11 5d 64 3b 3c c3 e1 3e
       0.54292816 0.6022801 0.003484551 0.44094265
000160 ce 47 b9 3e 3b 4e dd bd 7a 05 29 bf 6f e5 96 3d
       0.36187595 -0.10805937 -0.6602398 0.0736798
000170 8c 45 92 be 07 fa b0 be 70 b2 cf 3e d0 39 a8 3e
       -0.28568685 -0.34565756 0.40565825 0.32856607
000180 24 47 90 3e a0 bf 0b bf be a2 c5 be dd ae 68 3e
       0.28179276 -0.5458927 -0.38600725 0.22722955
000190 d1 bb 5c bf a3 c5 9b bf e1 86 21 3f c2 cc e3 3d
       -0.86224085 -1.2169689 0.63096434 0.11123039
0001a0 48 1e 1f 3f aa 7f 93 3d 9e ac b4 3e 37 72 59 3e
       0.6215558 0.07202084 0.35287946 0.21234976
0001b0 1e f7 8a bd 66 3f 4e bd 4e 73 84 bf 4a f3 4f 3e
       -0.06785415 -0.05035343 -1.0347688 0.20307651
0001c0 d6 39 a9 3e 93 94 cf 3e 4c f9 a2 be 06 f3 42 bd
       0.33051938 0.4054304 -0.31830823 -0.047595046
0001d0 df 1e 36 bf a9 d3 37 bf de c6 df 3e e7 4c d4 3e
       -0.71140856 -0.7180734 0.4370641 0.41464922
0001e0 e9 32 1e 3f 0d 9a 42 bd 5c 9a 8c bf c6 08 25 bf
       0.6179643 -0.047510196 -1.0984607 -0.6446651
0001f0 d3 25 b4 bd 2f 22 98 3d e2 39 bc be 28 da 26 bf
       -0.08796277 0.07428395 -0.3676291 -0.6517663

fc2.weight f4 [128, 128]
000000 7b 04 93 3c d1 1e 9a bd 4e 37 79 bd 0e 7f 96 bd
       0.017946472 -0.07525409 -0.06084376 -0.073484525
000010 16 70 8a 3d 30 4e bf bd 13 8e 88 3d 2a 3b de bb
       0.0675966 -0.09341085 0.066677235 -0.0067819552
000020 4a 74 9d bc 8a 72 62 3d 1a d8 47 bc bc 74 50 3d
       -0.01922049 0.055285014 -0.012197519 0.050892577
000030 3c 4f 6e 3d ae 29 9d bd 85 be d5 3c cc b0 88 3c
       0.058181033 -0.076739654 0.026091823 0.016685866
000040 64 af 9b 3c 4c 8e fd 3b f1 15 8e 3c 30 2a 2e bd
       0.019004531 0.0077379104 0.017344447 -0.042520702
000050 52 e3 6f bc 77 fd ab 3d 86 7a 70 3d a0 35 22 bc
       -0.0146416 0.08397954 0.058710597 -0.0099004805
000060 33 3e ab bd a2 b6 ef ba 53 89 76 bd 11 34 93 3d
       -0.08361473 -0.0018288682 -0.060189556 0.07187665
000070 20 1b 77 bd 63 ed 47 bc 07 a3 d0 bc fd ce 81 3c
       -0.060328603 -0.0122025935 -0.025468362 0.01584577
000080 5d 18 b0 3d 6c 23 2b 3b bb d6 30 3d b2 ac 8a 3d
       0.08598397 0.0026113642 0.043173533 0.0677122
000090 90 f5 87 3d a8 0f fa bc d2 c8 e4 bc ea 7a 2e 3d
       0.06638634 -0.030525044 -0.02792779 0.04259769
0000a0 3e dc fa bc 9a 87 29 3d 92 96 c2 bc 64 21 8a bd
       -0.030622598 0.041389085 -0.023753438 -0.0674465
0000b0 8c 5d 13 3d fa 06 5e 3c 79 49 0b 3d 17 d7 b3 3d
       0.035977885 0.013551468 0.034005616 0.087812595
0000c0 23 96 5d 3d 62 22 a3 3d c0 04 9b 3b 11 b7 9b bd
       0.05409826 0.079655424 0.004730791 -0.076032765
0000d0 18 55 8a bd 92 ab 89 bd b1 7a a2 bd eb 98 49 bd
       -0.067545116 -0.067221776 -0.07933558 -0.0492181
0000e0 29 60 a8 bd d2 99 b0 bd 7e 56 58 bd a5 93 b3 bd
       -0.08221466 -0.08623089 -0.05281686 -0.08768395
0000f0 9f 40 7a bd 2d e8 d6 3c 49 c7 96 3d 38 6e f1 bc
       -0.061096784 0.026233757 0.073622294 -0.029471502
000100 25 81 1d bd ce 4f 41 3d 8d 9e 32 bd 42 4b 4b bd
       -0.03845324 0.04719525 -0.043608237 -0.04963232
000110 0e 10 5f 3d 2b d6 ad bd 54 08 32 3c c4 f6 95 3d
       0.05445867 -0.08488115 0.010866243 0.073224574
000120 60 c9 2a 3c 40 34 92 3c 1e d9 52 bd 8f 4a e9 bb
       0.010423988 0.01784718 -0.05147659 -0.007119484
000130 2d 40 9f 3b 60 25 87 3c e2 4b e8 3c f1 4a 9d 3d
       0.0048599453 0.016497314 0.028356496 0.076803096
000140 8e ea 89 bd 71 a2 2d 3b 3d e3 34 bd a7 32 8f bd
       -0.06734191 0.0026494528 -0.044162024 -0.06992083
000150 24 e9 05 bc 03 57 9f bd 8d 21 5b 3d c0 b7 27 3c
       -0.008173261 -0.07780268 0.053498793 0.0102366805
000160 5c a4 6a bd 9e 31 3d 3d 22 a1 af bd 78 53 3f bd
       -0.05728565 0.046189897 -0.085756555 -0.04671046
000170 07 9d d1 bc 3c d2 99 bd ce cd 67 bd 15 a4 9c bc
       -0.025587572 -0.07510802 -0.056592755 -0.01912121
000180 e0 29 78 3d 55 cd ae 3d 2b 59 65 3d bc 1a 59 bd
       0.06058681 0.08535258 0.05599324 -0.05300401
000190 76 da 6c bd 10 9f 95 3d 34 0f 00 3d 97 54 b9 bb
       -0.057825528 0.073057294 0.0312645 -0.005655836
0001a0 56 69 e0 3b 37 00 9d bd 49 c2 f1 bc 7e 09 9d 3d
       0.0068484945 -0.076660566 -0.029511588 0.07667826
0001b0 b0 94 b2 bc 66 0a 4e bc 55 4e 96 bd ea 86 4a bd
       -0.021799415 -0.012575721 -0.073391594 -0.04944507
0001c0 61 91 ec ba e5 ed 6a bd d4 95 33 bc c0 55 13 3d
       -0.0018048697 -0.05735578 -0.010961015 0.03597045
0001d0 aa 11 b1 bd bc e6 ac 3c e8 ea 86 bd 8b 69 46 bd
       -0.08645947 0.021106116 -0.065877736 -0.048440497
0001e0 77 fd 0a 3d b1 9e 83 3d 88 e5 c5 bc 2e c8 2b bd
       0.03393313 0.06426752 -0.0241573 -0.041938953
0001f0 26 af a3 bd 17 7e 59 bd 53 a2 a3 bd 1a 91 e0 bc
       -0.07992391 -0.053098764 -0.07989945 -0.02741294
000200 6a 0e cb 3d f5 36 7a 3b 0e 98 6f 3d 08 f3 2d bf
       0.09914859 0.003817973 0.05849462 -0.6794896
000210 7f 0c 55 3c 87 b7 f0 bf a0 c8 8b bd b5 53 2c 3e
       0.013003468 -1.8806008 -0.068253756 0.16828807
000220 90 5f 2c 3e 8e f3 b4 be d5 5e 3b bd 73 d6 94 be
       0.16833329 -0.35342067 -0.045744736 -0.29069862
000230 4a b2 99 bf 81 6b 72 be a9 e4 cb be 64 89 68 bf
       -1.2007535 -0.23673822 -0.3982289 -0.9083464
000240 78 10 75 3e 84 6f 2e bb 7c 6c fc be 9c 5d ba be
       0.23932064 -0.0026616761 -0.49301517 -0.36399543
000250 91 d1 65 3e b3 f1 4e 3c fe 79 7e 3f 46 2e d8 be
       0.22443224 0.012630868 0.99404895 -0.42222804
000260 ff 51 6d 3f 1a 89 9f 3e e1 5c fb 3d 4c 05 73 3d
       0.9270324 0.31159288 0.122735746 0.059331223
000270 2b 2e 1e 3e ad af 6e 3e ab d9 3f 3d 05 e3 32 3f
       0.15447299 0.23309202 0.046838444 0.69877654
000280 83 c8 8b 3f 73 85 c4 3e 9d 4a b9 3e ff 10 ff 3e
       1.0920566 0.38383064 0.36189738 0.49817654
000290 8f 11 5b 3e 4e 81 c0 bd 09 0d 91 3e 84 1d af be
       0.21393417 -0.09399663 0.28330258 -0.34202206
0002a0 15 f1 18 3e ec 55 70 be 0e b5 42 3e 5d e1 55 3e
       0.14935715 -0.23470277 0.1901438 0.2088675
0002b0 44 67 b5 3e 43 17 9f be de c0 29 3c aa d3 c3 be
       0.35430348 -0.31072435 0.0103609245 -0.38247424
0002c0 cb be c2 be 3e 40 6b 3d e6 50 42 3e 1c 10 56 bf
       -0.38036188 0.057434313 0.18976173 -0.8361833
0002d0 df b0 09 bf 96 5d a8 bf 48 aa 9a 3e aa e4 74 3e
       -0.5378551 -1.315356 0.3020804 0.23915353
0002e0 bf 04 53 3f cb cf a2 bd 84 a7 95 be 7b 6e ce 3d
       0.82429117 -0.079497896 -0.29229367 0.10079666
0002f0 3a aa bc 3d 51 7c 90 3d 91 e1 38 3f df 58 1d 3e
       0.09212156 0.070549615 0.7221919 0.15365933
000300 61 68 b2 3e 9f b9 92 bd 96 fe b6 bf 85 84 6c 3e
       0.3484526 -0.07164311 -1.4296443 0.23097427
000310 67 6e 6d 3d a6 62 7a 3e cc 71 b8 3d cf 83 51 3e
       0.057966616 0.24451694 0.0900608 0.20460437
000320 b7 95 4c be 51 78 b5 bc 9b eb 7d bd 8e 3e 10 bf
       -0.19978987 -0.022152098 -0.06199227 -0.5634545
000330 4e 58 54 3d 62 07 49 be 87 aa b4 3d 04 94 8f be
       0.051842026 -0.19631723 0.08821588 -0.28042614
000340 5c 54 2a 3f c3 3d 68 be 3f ee 8f be c1 a2 ae 3d
       0.6653497 -0.2267981 -0.28111455 0.085271366
000350 3c 5f 23 3d f6 10 0c be 1e 9e f1 3d 44 33 a4 bf
       0.039885744 -0.13678345 0.117977366 -1.2828145
000360 f8 de bc bd ef bf 0f be 99 bd 2b be 5f 17 75 3e
       -0.092222154 -0.1403806 -0.16771545 0.23934697
000370 77 ad 25 3d 01 5c 8c be c9 f0 8f 3e 8a 8b ed 3d
       0.040448632 -0.27413943 0.28113392 0.115988806
000380 28 69 b7 3e eb 06 a5 bd cc 01 60 3f b5 7e 1e 3f
       0.35822415 -0.0805796 0.8750274 0.6191209
000390 5e 39 dc bd b3 ea 9c 3e 3b f1 9b be d7 36 ed be
       -0.107531294 0.3064781 -0.30457482 -0.46330902
0003a0 58 2f 90 3d ca c8 48 3d ca eb 27 be 41 f4 06 bf
       0.0704028 0.049019612 -0.1639854 -0.5271645
0003b0 58 e7 b4 be 4a 49 26 3f a0 d6 6d bf c8 53 c8 be
       -0.3533275 0.6495558 -0.92905617 -0.3912642
0003c0 e5 14 6e bf 0c 04 8a bd c4 e0 4c be eb cb b9 3e
       -0.9300063 -0.06739053 -0.20007616 0.3628839
0003d0 80 a7 3b be b5 ea ed be 5a cf d7 3d 14 be ed 3d
       -0.18325615 -0.4646813 0.10537596 0.1160852
0003e0 c7 55 d3 be ec 42 52 bf d3 5a 1d 3d 1a de e8 be
       -0.4127638 -0.82133365 0.038416695 -0.4548195
0003f0 ce 75 9e bc 1b a2 8e be db be 9a bd 59 7c f3 be
       -0.019343283 -0.27858052 -0.07555934 -0.47555807

fc2.bias f4 [128]
000000 85 1c ac bd 05 52 76 3e 14 b0 47 3e d1 5b 1f bd
       -0.08403877 0.24054725 0.19500762 -0.038905922
000010 9d ed 44 bd 76 08 d8 bc 39 fb 59 3e 61 f3 53 3d
       -0.04807817 -0.026371222 0.2128724 0.051745776
000020 b6 1e a5 bb 91 d7 c1 3d 45 a8 01 be e5 9a b1 bd
       -0.0050390614 0.09464944 -0.12661846 -0.08672122
000030 03 b7 85 3e 0a 6d c8 bc 57 6f 41 bd 4b b1 8f 3d
       0.2611619 -0.024466056 -0.047225323 0.07016238
000040 91 0f 37 be 3c 85 33 3e 4d 38 a1 3e d9 5c 85 3e
       -0.17877032 0.17531294 0.31488267 0.260474
000050 67 f0 3b 3e 68 7d 98 3d f0 c6 0b 3e 2e f4 8b bd
       0.18353425 0.07445794 0.13650107 -0.06833683
000060 29 5e 90 be ea c4 7e 3e f4 d3 0c 3d f8 a1 5d bd
       -0.28196838 0.24879804 0.03438182 -0.054109544
000070 e1 28 07 bc 38 27 b5 3d a8 a5 f9 3d 74 54 98 be
       -0.008249492 0.08845371 0.121897995 -0.29751933
000080 33 47 9e 3e df 29 b0 3c a6 00 94 be 57 84 06 bd
       0.30913696 0.02150434 -0.28906745 -0.032841053
000090 c7 4a 82 3c 51 ec 4d be 8c e2 a0 bd a0 94 7b bd
       0.015904797 -0.20109679 -0.078557104 -0.061421037
0000a0 58 38 0b 3c f8 77 da bc fa 89 c2 bd 52 33 a0 bc
       0.00849732 -0.026668534 -0.09498973 -0.019555721
0000b0 8b 0f 2a bd b1 b7 a5 3e 9a ee 4a be 8d 4b aa 3c
       -0.04151873 0.32366708 -0.19817582 0.020787979
0000c0 8a 4e 7d 3c ba ad c3 3d e9 9d 06 3e c1 8b 83 3e
       0.01546062 0.0955462 0.13146175 0.2569256
0000d0 c5 5a 00 3d 89 d1 19 3d ab 24 b4 3b 79 47 43 3d
       0.031336565 0.037553344 0.005497535 0.047675584
0000e0 4f ce 8d 3d 25 55 a7 3e 1e 4c 95 bc ea c3 a0 bb
       0.06924116 0.32682148 -0.018224772 -0.0049061673
0000f0 40 65 f5 bd 2e 33 27 3e 5d 5c 0f 3d cd 8f 11 bd
       -0.119822025 0.16328117 0.035000194 -0.03553753
000100 4c fd 2a 3d ec 90 b7 bc b7 04 1f bd 4c 2c 0d 3f
       0.04174547 -0.022407971 -0.038822856 0.55145717
000110 eb d5 1f 3e 18 ed 06 bd c5 25 95 3e ac 2f 0e be
       0.15608947 -0.032940954 0.29130378 -0.13885373
000120 6c 43 4e 3d e5 a7 57 bc 32 7a 0b be 24 5e c9 bd
       0.050357267 -0.013162588 -0.13620833 -0.09832409
000130 05 c0 df 3d 23 f5 cf 3b c8 d2 87 3d e7 6e 9f 3e
       0.10925297 0.0063463612 0.06632 0.311393
000140 8b f8 94 bd 46 8d 54 3d 66 06 14 bd 17 a5 99 bd
       -0.07273968 0.05189254 -0.036138915 -0.075021915
000150 31 e0 b4 bc e5 ed ee 3d 30 eb 27 bd 70 bc 81 3d
       -0.022079559 0.116664685 -0.040995777 0.0633477
000160 0d 40 5e 3e 1c c6 1d 3e cc 3c 94 3e 51 ad b2 bd
       0.21704121 0.15407604 0.28952634 -0.08724464
000170 2e 2c 23 3e 40 c8 08 bd 18 09 cc 3d 54 3a cd b9
       0.15934822 -0.0333941 0.09962672 -0.00039144105
000180 66 9d 16 bd 83 65 9c 3e e6 02 97 3d 12 5c 24 be
       -0.0367712 0.30546197 0.073736 -0.16050747
000190 a5 3b 30 ba 03 aa a0 3d ec a8 51 3e 4b 25 05 3e
       -0.0006722755 0.07844927 0.20474595 0.13002507
0001a0 61 d7 8c 3e bf 02 10 3c 05 20 e4 bc 97 ca 50 3e
       0.2750807 0.008789717 -0.0278473 0.20389782
0001b0 21 79 1e 3e 7a 43 0a bd 6b 35 2e 3e da 09 8c bd
       0.15475895 -0.033755757 0.17012565 -0.068378165
0001c0 f1 e5 47 be 1b c4 a9 3d 98 ff 39 3d 56 19 16 bd
       -0.1952131 0.08289357 0.04540977 -0.036645256
0001d0 0e fe 8e bd 8e cc ea 3d 92 6b 10 3d 07 50 13 be
       -0.06982051 0.11464797 0.035258837 -0.14385997
0001e0 b0 47 18 3e 91 96 37 3e 4c 37 22 3e 40 c1 2a 3e
       0.14871097 0.1792853 0.15841407 0.16675282
0001f0 ae 54 74 3d 10 b0 0b be d7 e9 18 3f b9 1c e5 3d
       0.05965107 -0.13641381 0.5973181 0.11187119

logits.weight f4 [5, 128]
000000 27 e0 ac bc 4c b8 eb bf 23 2b b9 bf ac 3e a0 bc
       -0.021102978 -1.8415618 -1.4466289 -0.019561134
000010 c2 aa 5e 3f 4d 71 c6 bd 34 1d 3c bf 77 6e 9e 3d
       0.86979306 -0.09689579 -0.7348206 0.07735913
000020 66 f3 75 3f ed 9a b5 3e 11 89 5e 3f 80 45 f4 bb
       0.9607452 0.35469761 0.86927897 -0.007454574
000030 08 75 d3 bf de 4a 2a bd cb 9c 9d 3c 80 56 60 bf
       -1.652009 -0.041575305 0.019239804 -0.8763199
000040 ac 80 6c 3f 45 5f 40 bf 82 0c 6c 3f 22 c4 c3 be
       0.9238384 -0.7514537 0.92206585 -0.38235575
000050 d8 98 b9 bf 62 64 cf bf bc 9c 68 bf cc 8e d8 39
       -1.4499769 -1.6202509 -0.9086416 0.00041305122
000060 d7 22 30 be f5 a8 3f 3f 2d 20 00 3d 86 62 34 3c
       -0.1720079 0.7486718 0.031280685 0.011009818
000070 4d ba 76 3f 5e 1b c5 bf dc 4d d5 bf f4 c5 04 bf
       0.9637802 -1.5398977 -1.6664386 -0.5186455
000080 c5 d1 89 bf a6 8e 04 c0 4d d2 18 be 27 d4 5f 3f
       -1.0767142 -2.0712066 -0.14923973 0.87433094
000090 87 b6 be 3e ca a9 a9 3f 6f 83 fd ba 6c 27 63 3f
       0.37248632 1.325494 -0.0019341538 0.8873203
0000a0 11 03 e4 3e 9b 8b 90 3f b9 84 fe 3e bb 95 c5 3c
       0.4453359 1.1292604 0.49710634 0.024119249
0000b0 f1 21 8c 39 fe e1 29 3f 0a 92 79 bf 96 8c a8 be
       0.0002672817 0.6636046 -0.9748846 -0.3291976
0000c0 fa a7 71 3f bc 91 6b bf f4 c8 ac bf ea d0 42 3f
       0.94396937 -0.9201925 -1.3498826 0.7610003
0000d0 43 85 79 3c 44 ae c8 3e 46 25 55 3f 22 22 16 bf
       0.015229526 0.39195454 0.8326 -0.5864583
0000e0 76 1a 46 3f e6 96 b5 bf fc 84 4d 3c 0e 3b 62 3f
       0.77384126 -1.4186676 0.012543913 0.8837136
0000f0 fe 9a 56 3f b2 26 99 3e 7c 2c 1b 3d 9c 3d 35 bd
       0.8383025 0.29912335 0.03788422 -0.04424821
000100 1c 7e 68 3d b6 8e 5e 3d b4 eb 11 bc bb 5b 7b be
       0.056760892 0.05433532 -0.008906294 -0.24546711
000110 be 41 44 bf 73 9f f9 bc 20 9e 98 bf bf 5c 62 bf
       -0.76662815 -0.03047154 -1.1923256 -0.8842277
000120 53 83 a3 bf 95 45 9f 3e 75 d5 b0 3e 22 56 8d bd
       -1.2774452 0.31107774 0.34537855 -0.06901194
000130 b6 67 92 bf 48 1c 52 3f ba bf 9c bf 81 03 cb 3d
       -1.14379 0.82074404 -1.224601 0.09912778
000140 c0 ab 46 3f e8 19 e7 be d8 40 30 3d d1 9b 37 3c
       0.7760582 -0.45136952 0.04303059 0.011206583
000150 a4 55 55 3d 69 d9 9b bf 5a 3f 6a bf 9d f6 f8 bf
       0.052083626 -1.2175723 -0.91502917 -1.945026
000160 ac ed 92 bf 4c da 98 bf b5 fe 9a bd a8 83 45 3d
       -1.1478782 -1.1941619 -0.07568113 0.04822126
000170 8f c6 50 bf b6 e0 84 3f 7c 5c 64 bf 01 4f b6 bf
       -0.81552976 1.0381076 -0.8920362 -1.424286
000180 f7 78 93 3f 89 36 e2 3d 58 f8 bc 3e 69 25 87 3f
       1.152129 0.11045558 0.3690822 1.0558292
000190 d4 da 9c 3d 58 13 67 bf 3f 23 21 bf d6 36 77 be
       0.07658926 -0.9026389 -0.62944406 -0.24142012
0001a0 c3 aa 64 3d d1 8d 90 3f 68 08 25 3f 11 37 bb bf
       0.055826914 1.1293279 0.6446595 -1.462618
0001b0 ad 79 c5 bf 3f 88 8a 3d 7e c0 a5 bf 72 c0 05 be
       -1.5427758 0.06764268 -1.2949369 -0.13061693
0001c0 90 73 29 3f 7d f5 43 3f d1 6c 5f bf ef 1b 56 3d
       0.6619196 0.7654646 -0.87275416 0.052272733
0001d0 e8 95 db 3c 9b 3b 92 bf f5 a2 30 3e 2a 51 35 bf
       0.02680488 -1.142444 0.17249663 -0.7082697
0001e0 ac 45 fb bf 72 e3 25 3f 77 9f 1f 3f 99 0d 04 3f
       -1.9630637 0.6480018 0.623527 0.5158325
0001f0 c8 fe 95 bf 79 de 81 bf ec 78 c9 3f 58 dc d2 bf
       -1.1718378 -1.0146018 1.5740027 -1.6473494
000200 ba 39 bf bb 57 76 39 3d 5e 49 2f 3f ea 88 50 3d
       -0.005835739 0.045278873 0.68471324 0.05091182
000210 a7 83 c4 3e 27 c0 6b bd a5 58 bd 3e 23 bb 51 bd
       0.38381693 -0.057556298 0.36981693 -0.051203858
000220 6c 7b 00 3f 53 50 a0 3f 41 82 03 3f 15 17 a4 bd
       0.50188327 1.2524513 0.51370627 -0.08012215
000230 7e e2 2d bd 44 e0 63 bd 63 cc 0c 3d b7 fd 09 3d
       -0.042452328 -0.0556338 0.034374606 0.033689227
000240 18 09 ff 3e 44 e3 03 3e fc d7 49 3e aa 59 38 3f
       0.49811625 0.12879664 0.19711298 0.72011817
000250 5c 8e 29 bd ff 79 9e bc b7 6e 5a bd 09 c7 9a bd
       -0.04139553 -0.019345282 -0.053328242 -0.07557494
000260 0a 45 1b bf a3 61 3a 3e 87 c9 b2 3c d0 99 31 bd
       -0.6065222 0.18201308 0.021824611 -0.043359578
000270 1b e6 d3 3e a8 9f 02 be d8 7d ad bc 05 a8 a3 3d
       0.41386494 -0.12756217 -0.021178171 0.079910316
000280 e7 d1 83 3d 0c ce d0 be 96 b0 d0 be 53 74 fd 3e
       0.0643652 -0.407822 -0.40759724 0.4950281
000290 c2 ed 9a bf bd c1 a3 3e a1 3e 89 3d 4a 25 f1 3e
       -1.2103808 0.31983748 0.06701399 0.47098762
0002a0 9b 74 e0 3e 73 37 3e 3f e7 48 96 bf bd c6 88 3d
       0.43838963 0.7430336 -1.1740998 0.06678531
0002b0 28 0f 35 bd eb d3 37 be 0c ac ee be c4 dc df 3d
       -0.044203907 -0.17951934 -0.46615636 0.109307796
0002c0 86 e7 3b 3e 4b e4 b1 bd 74 a8 ed 3d 09 c2 c9 3e
       0.18350038 -0.086861216 0.116043955 0.3940585
0002d0 82 3c 5e bf 12 c2 b5 bf 44 8b 9b 3e a9 ea a3 bd
       -0.8681108 -1.419985 0.3037969 -0.08003742
0002e0 16 55 f7 3e b9 9c 8e 3e b6 7e 45 bc c2 17 89 3e
       0.48307103 0.27853945 -0.012054136 0.26775938
0002f0 db 0a c4 3e e0 92 54 bf e7 7f 88 3d 21 9f 93 3d
       0.38289532 -0.83036613 0.066650204 0.07208086
000300 48 0a 7a 3d 45 84 64 3c bb 5c 6b 3c f8 aa a3 be
       0.06104496 0.013947551 0.01436537 -0.31966376
000310 76 1a 44 40 8e 50 a3 bc 13 77 c6 be e7 c2 0d bf
       3.064115 -0.019935872 -0.3876272 -0.5537552
000320 a7 ed ff bd 23 89 d7 be ca de 98 3e 7e 18 98 bd
       -0.124965005 -0.42096815 0.29857475 -0.074265465
000330 a8 a3 b6 bb 44 be 53 3e c0 e2 69 bd da 98 a2 be
       -0.0055737086 0.2067805 -0.05710101 -0.3175724
000340 b8 1c 80 3e 1c 28 eb bd 6b 87 c5 bd 7e 5e 94 3d
       0.2502191 -0.1148226 -0.096449696 0.072445855
000350 74 d6 4e 3d 41 2e 92 3d 68 df a8 be 98 03 93 bd
       0.050497487 0.071377285 -0.32982945 -0.0717842
000360 53 26 96 3d 68 c9 04 be 60 d5 e3 3f 23 cd 96 bd
       0.073315285 -0.12967455 1.7799492 -0.073633455
000370 59 c3 c6 3e 25 bb 24 3f 16 92 0d be 75 29 3a 3d
       0.38820913 0.6434806 -0.13825259 0.045449693
000380 eb 16 07 3f ef f4 c3 3d 82 75 48 c0 17 ae 13 3f
       0.52769345 0.09568202 -3.132172 0.57687515
000390 cd e2 85 3d 41 cc 00 be 51 aa 81 3d 0e 5e 03 bf
       0.065373994 -0.12577917 0.063313134 -0.5131539
0003a0 53 05 e6 bf 91 dc 0a 3f be 90 93 3e 69 cf d8 bc
       -1.7970375 0.5424281 0.28821367 -0.026466088
0003b0 b2 88 6e bd 80 f3 dd bb 5d 90 6e 3e e6 1c 75 be
       -0.05823583 -0.006773412 0.23297258 -0.23936805
0003c0 e0 92 1d 3f ee 64 0b 3f 4f d7 ba 3c f3 5b 0d bd
       0.6155224 0.5445088 0.022807745 -0.034511518
0003d0 19 e9 a8 bd 43 08 0f 3d 4f 98 9d be c3 e9 df be
       -0.08247585 0.03491999 -0.30780265 -0.43733034
0003e0 c8 22 0c bd 36 3e 7d 3e f5 cb ef 3e bf 66 95 3f
       -0.034212857 0.24730763 0.46835294 1.1671981
0003f0 1c af 13 be 38 ef 2f bf 91 59 a4 bf c1 f0 57 bc
       -0.14422268 -0.68724394 -1.2839833 -0.013179959

logits.bias f4 [5]
000000 ef 87 43 3c cc 52 d2 3b f3 32 e9 3d c9 54 48 3e
       0.011934265 0.0064185616 0.11386671 0.19563593
000010 75 ea 82 3d
       0.063923754

fc1.weight f4 [128, 3]
000000 f6 31 ac be be 32 d7 be 86 8e 35 bf 36 3c c4 3e
       -0.33631867 -0.420309 -0.709206 0.38327187
000010 e3 f5 25 3d 50 da 05 bf f3 ab 24 bf 60 9a dd 3e
       0.0405177 -0.52286243 -0.64324874 0.4328184
000020 cc 1a 50 be 76 06 85 bf ab 72 4d 3e 06 8a ba 3e
       -0.20322722 -1.0392597 0.20063274 0.3643343
000030 db e1 a5 bf 87 d7 b2 be f9 56 e0 be 49 17 af 3e
       -1.2959551 -0.3493006 -0.43816355 0.34197453
000040 58 f4 91 bf 0a de 97 3d 4a 8a e6 be 35 3b a4 be
       -1.1402693 0.074153975 -0.4502738 -0.3207642
000050 c9 c4 38 be 52 8d 60 bf 8b 39 5f 3f b3 95 31 3f
       -0.18043818 -0.8771564 0.8719718 0.6936905
000060 92 5d 4b 3e ea 7d 3f c0 ed 98 28 bf 3e 26 2f bf
       0.19859913 -2.9920602 -0.65858346 -0.6841773
000070 9e c7 28 bf bf 74 34 3e 47 31 20 3f a9 21 c0 3f
       -0.6592959 0.1762266 0.6257519 1.5010272
000080 94 48 89 3e 77 02 e7 be 81 3a 97 bf 2a aa 66 be
       0.26813185 -0.45119068 -1.1814729 -0.2252585
000090 93 72 4a 3f 5a c2 b8 3f 2e 8b ca 3e 90 a1 14 3f
       0.79081076 1.4434311 0.3955931 0.58059025
0000a0 c2 7b 1a 40 30 4e 15 3f aa d0 2f bf a4 9b a3 3f
       2.4138036 0.5832243 -0.6867777 1.2781873
0000b0 00 ec 78 3e 15 b4 5f bf 49 cf 98 bf c3 03 16 bf
       0.24308777 -0.8738416 -1.1938258 -0.5859949
0000c0 93 c9 81 3e 60 9c 52 bf 31 fb b8 be 7a 16 66 3f
       0.253491 -0.8226986 -0.36129144 0.89878047
0000d0 2f dc 0f c0 97 fc d0 be 66 0f bb 3f 6d 80 7f 3f
       -2.247814 -0.4081771 1.4614074 0.9980534
0000e0 fd 05 06 3f c8 c2 26 c0 98 3b ac 3e e2 6f 31 bf
       0.5235289 -2.6056385 0.33639216 -0.69311345
0000f0 85 a9 18 bf fe 9b 39 bd 33 af 36 be fb b3 8b bf
       -0.59633666 -0.04531478 -0.1784027 -1.0914301
000100 87 0b 12 3f ea f5 b1 3e c6 70 50 3d 9a 4f 02 c0
       0.5704884 0.3475793 0.0508888 -2.0361085
000110 1a 27 ec be 92 89 42 bf 7b 4e 89 bf 09 62 1a 3f
       -0.46123582 -0.75991166 -1.0727075 0.6030584
000120 e2 56 0a bf 29 0a 42 bf 76 24 2e 3e 63 2e 30 3e
       -0.5403882 -0.75796753 0.17006096 0.17205195
000130 1e 71 43 bf 4d 22 61 bf 04 e1 1d bf 86 b8 0d 3f
       -0.7634448 -0.87942964 -0.6167147 0.55359685
000140 37 f4 ae be ea 60 05 bf d6 94 b3 be 9f 11 0b bf
       -0.34170696 -0.52101004 -0.3507449 -0.5432376
000150 7d 16 26 bf 4d e6 b1 bf e4 75 b4 be 00 7d 01 3f
       -0.64878064 -1.3898407 -0.35246193 0.5058136
000160 9e c8 80 3f 57 99 9e 3e d8 bc ac 3f 76 9b 27 40
       1.0061224 0.30976364 1.349513 2.6188636
000170 de 84 31 3f e7 e8 bd be 1f 46 dc 3c 59 6f 4f 3e
       0.69343364 -0.37091753 0.026888905 0.2025732
000180 e4 4d a7 bf 50 70 99 3f 99 1c d0 3e 61 ce 3e bd
       -1.3070645 1.19874 0.40646818 -0.046583537
000190 5e 00 07 bf 9f a3 21 bd b7 1a ea 3f db 81 ea be
       -0.52734935 -0.03946268 1.8289403 -0.45802197
0001a0 fa ac e4 bd 6d 13 b1 be ab 0b 65 3f c1 1a 03 3e
       -0.11165805 -0.34585133 0.8947093 0.12803175
0001b0 fe 8c 2f bf bc d9 95 be c5 e1 68 be 78 91 01 3f
       -0.6857451 -0.2926768 -0.22742374 0.5061259
0001c0 0a a8 37 bf b9 f8 e7 3e 5b f2 91 3e 61 30 ce bf
       -0.7174078 0.45306948 0.28505215 -1.6108514
0001d0 9e 3c 4a be 34 e0 ee be 15 b9 90 be ac 3c 09 be
       -0.19749686 -0.46655428 -0.28266206 -0.1340205
0001e0 17 57 66 bf 11 11 b5 3f 70 80 89 3e 52 a3 97 3f
       -0.8997664 1.4145833 0.26855803 1.1846716
0001f0 d9 52 37 c0 41 c0 36 bf 6d 74 9e be 0c cf 99 3f
       -2.8644316 -0.71387106 -0.309482 1.2016311
000200 d1 3c 7c 3e 9a ce 10 3e fc bd c6 be dc 19 22 be
       0.24632575 0.14141312 -0.38816822 -0.15830177
000210 ef f5 ba be 95 94 a9 3e 1a 20 ae 3d a2 18 65 3f
       -0.36515757 0.33121172 0.08502217 0.8949071
000220 42 25 d4 bf ec 6f d1 be e7 40 f3 be b0 21 07 c0
       -1.657387 -0.40905702 -0.47510454 -2.1114311
000230 80 22 f2 be 30 1a eb be d8 0c 1f bf 6d e0 08 3e
       -0.47291946 -0.45918417 -0.62128973 0.13366862
000240 8c 2f 70 3f c5 4a 46 3d 24 68 14 bf 94 fb 9c 3f
       0.9382255 0.04841115 -0.57971406 1.2264276
000250 3e c1 81 3f 23 95 b3 3e f3 09 a4 3e 49 8a fa bf
       1.0137098 0.3507472 0.3203884 -1.9573451
000260 b7 5d e9 be f3 e1 9e 3f 1a fd 90 bf 70 53 e2 be
       -0.4557931 1.2412704 -1.132724 -0.44204283
000270 d9 4f f4 be 52 e5 96 3e 9c ce 39 3f f2 38 5b bf
       -0.4771717 0.29471833 0.72580886 -0.85633767
000280 70 e5 1c 3f f6 ce 82 3e d7 2b ce 3f ae d3 1a 3f
       0.61287594 0.25548524 1.6107129 0.6047925
000290 2d 14 7c 3d 94 c3 f9 be 9e 1e af 3f 91 a3 64 3e
       0.06154268 -0.48782027 1.3681219 0.2232802
0002a0 2a d3 66 bf 3a 6b 5f bf 55 99 9b be 89 c8 a1 3f
       -0.9016596 -0.8727299 -0.3039042 1.2639323
0002b0 48 6d a5 3f fe 6e f8 3e e2 d0 10 3f 69 44 d5 bf
       1.2923975 0.4852218 0.5656873 -1.6661502
0002c0 be 86 ce be de 2b 8a 3f e6 4f 84 bf 3d 26 13 bf
       -0.40337175 1.0794637 -1.0336883 -0.5748022
0002d0 e4 be 0e bf ad 76 67 bf b7 5a 54 3e a9 41 37 3f
       -0.55760026 -0.9041546 0.2073773 0.71584564
0002e0 e1 4a 9e be 19 78 17 bf 6b 0a ce 3f 86 d5 b0 bf
       -0.30916503 -0.5916763 1.6096929 -1.3815162
0002f0 bb 73 16 bf 3d c8 8b 3f 70 fa db 3f 81 15 fd 3e
       -0.5877034 1.0920483 1.7185802 0.4943047
000300 9c b1 30 bd 69 1e f1 bf 8e b5 e4 be ef fb 29 3f
       -0.04313813 -1.8837405 -0.44669765 0.66400045
000310 4b 62 f4 3e 87 15 12 3f de ef 17 3e 26 14 dd bf
       0.47731242 0.570641 0.14837596 -1.7271774
000320 e1 15 0f 3e 27 13 43 3e 1b ee ae bf 27 68 32 be
       0.1397319 0.19050275 -1.3666414 -0.17422543
000330 47 04 9e bf 04 7a 84 3f a0 00 95 3e b1 17 52 be
       -1.2345055 1.0349736 0.2910204 -0.2051685
000340 d4 39 fd 3e 29 d2 0f bf 87 1b 27 be f8 e9 36 3f
       0.49458182 -0.56180054 -0.16319095 0.7145076
000350 31 5e c3 3e 78 a8 4d 3c 01 87 53 bf f4 0d 10 bf
       0.381578 0.012552373 -0.82627875 -0.5627129
000360 70 b3 3c be 1a ef 14 3f 73 e8 b8 be 87 1b 68 be
       -0.18427825 0.5817734 -0.36114845 -0.22666751
000370 de 13 f9 bf 15 08 a3 be 83 10 6e bf c5 e3 1f bf
       -1.9459188 -0.31842104 -0.92993945 -0.62456924
000380 18 fb 81 be ed 59 63 bd 7b aa 3d 40 f9 97 eb 3e
       -0.25386882 -0.05550568 2.9635303 0.46014383
000390 89 c9 21 3f 47 27 f2 bf 3f bf ff be ed 54 5a be
       0.63198143 -1.8918236 -0.49950597 -0.21321459
0003a0 b8 8f d1 bd 17 d3 84 3e fa ff 80 be 11 2b bb bf
       -0.1023249 0.259423 -0.25195295 -1.4622518
0003b0 66 f9 27 bf 0c 78 eb 3e aa f2 d0 be f1 32 d3 3e
       -0.65614927 0.45990026 -0.40810138 0.41249803
0003c0 6e f1 95 bf c9 ea 75 3f 17 77 ba 3e 84 b0 23 bf
       -1.1714303 0.9606138 0.36418983 -0.63941216
0003d0 a5 53 3c 40 09 54 f1 3e 63 a9 01 3f d3 88 b9 3f
       2.9426053 0.47134426 0.5064909 1.449488
0003e0 9f 70 05 bf a5 d8 90 bf 12 22 73 3f e7 ee b0 3e
       -0.5212497 -1.1316115 0.9497386 0.34557268
0003f0 be 86 a8 bf 79 9c 90 3f 56 3c 3e be d3 6c 62 be
       -1.316612 1.1297752 -0.18577704 -0.22111826

fc1.bias f4 [128]
000000 fb 93 c9 3f d9 3c 75 be 6f 20 ee 3e eb f6 87 bf
       1.5748285 -0.23948993 0.4650912 -1.0622228
000010 c0 fb 5e bf 2c cb a2 3f 81 17 16 3f ae 4a d2 be
       -0.8710289 1.2718253 0.58629614 -0.410726
000020 5f 09 64 bf e7 d1 13 3f 69 30 2a 3e 3d a3 fe 3d
       -0.890768 0.5774216 0.1662003 0.12433479
000030 5e 1e d6 bd 87 9d eb 3b 68 ec 34 3e 0d 98 04 bf
       -0.10455011 0.0071904096 0.17668307 -0.5179451
000040 c5 6a 7b 3d f0 08 69 be 3f d6 5c bf 67 76 fa 3e
       0.06138112 -0.22757316 -0.86264414 0.4891846
000050 ac e9 47 3f 2f 36 41 3f 11 67 3e 3f 4e 35 84 bf
       0.7809093 0.754733 0.74376017 -1.0328767
000060 2d 69 ce 3e 3a 67 99 bd 1e 90 5c bf 76 b4 16 bf
       0.40314618 -0.07490392 -0.86157405 -0.5886911
000070 14 d0 86 3e 51 2d 87 3f 30 92 7d be ef 38 51 3f
       0.26330626 1.0560704 -0.24762797 0.817275
000080 02 71 3b 3f 30 80 42 3f f4 af e0 3e e0 18 36 3f
       0.7321931 0.7597685 0.43884242 0.71131706
000090 63 48 3b 3f 2a 38 3d 3e 04 11 00 3f 6c 14 b1 3e
       0.7315733 0.18478456 0.50025964 0.34585893
0000a0 41 7a a2 3e 4b eb 5f 3c 5b b5 f2 3e e2 5e 87 3f
       0.31733897 0.013666938 0.47403988 1.0575831
0000b0 de 54 3b 3f 3e 54 13 3d a3 b8 a6 bd 28 94 01 3f
       0.7317637 0.03596901 -0.081406854 0.50616693
0000c0 94 29 2d 3f ac a0 3c bf 5b b5 7e 3e bb b3 2f bf
       0.6764157 -0.73682666 0.24873869 -0.6863362
0000d0 0d af 0c 3f 44 09 25 3f b5 9d 51 3e 0c 61 f6 bc
       0.54954606 0.64467263 0.20470317 -0.030075572
0000e0 de 24 21 3f db 36 12 bf 28 8b 0b 3f a6 fd 85 3f
       0.6294688 -0.5711495 0.5450921 1.0468032
0000f0 63 8c 5c bf d9 5d cd 3c d6 17 54 bf a9 3b 67 be
       -0.86151713 0.025069164 -0.8284887 -0.22581352
000100 59 37 47 3f 9a c0 6b 3e c6 2c de 3e ea 1f 89 bd
       0.7781883 0.2302269 0.43393534 -0.0669554
000110 c4 d3 3e 3f 90 cb 43 bf 61 67 08 3f e2 82 df be
       0.7454188 -0.76482487 0.53282744 -0.43654543
000120 91 67 6d 3f 81 eb 88 bb e7 91 19 3f 49 d5 91 be
       0.92736155 -0.004178465 0.59988254 -0.28483036
000130 3e d0 ab bf 6f a1 f8 3e f4 4f 43 be bd 39 82 3f
       -1.3422925 0.48560664 -0.19073468 1.017387
000140 0f 12 32 3f e1 0f 69 bd f1 0a c9 be 27 c3 5a 3f
       0.69558805 -0.05689991 -0.3926616 0.8545403
000150 8d 96 05 3f c6 8b 12 3f 86 d4 3a 3f 3f 0f 76 3f
       0.5218285 0.5724453 0.72980535 0.96117014
000160 1a b7 48 bf db 0b 48 be 20 3e 17 3f 8c d9 12 bf
       -0.7840439 -0.19535773 0.5907917 -0.573632
000170 15 59 c1 bf 74 c0 00 bf a4 5a 43 3f 60 9d 10 3f
       -1.5105311 -0.5029366 0.7631018 0.56490135
000180 4b c5 8c be b9 b0 af 3e be d3 5b 3f 3c 0b 3c 3f
       -0.27494273 0.34314516 0.8586997 0.7345464
000190 14 8f 7d 3f a0 77 11 bd 97 5e 96 3e ff fc 83 3f
       0.99046445 -0.035514474 0.2936904 1.0311583
0001a0 55 59 16 3f 28 4c cb bd dd a6 c1 3c fc 78 45 3f
       0.5873006 -0.09926635 0.023639137 0.7713773
0001b0 e9 23 5a 3f 00 40 cb be a6 c4 1c be d1 19 53 3f
       0.85211045 -0.39697266 -0.1530939 0.8246127
0001c0 31 03 7c 3e 4f 1a a0 bc 75 e9 eb 3e 34 88 35 bf
       0.24610592 -0.019543795 0.4607655 -0.70910954
0001d0 62 18 47 3f 0d 82 20 be 8a b7 b6 bf 75 8a 9d bf
       0.7777158 -0.1567461 -1.4274762 -1.2307879
0001e0 e3 b0 06 3f bb c8 9c 3f dd 0c a5 3d ba 7d 90 3f
       0.5261366 1.2248758 0.08059094 1.1288369
0001f0 21 c3 a5 3c a9 fc 16 3f 7a 66 74 3f ec fb 35 3f
       0.020234646 0.5897928 0.95468867 0.7108753

fc2.weight f4 [128, 128]
000000 ae 18 0b 3e 32 ff 91 bd d6 0f ee 3e bd d1 1e be
       0.13583633 -0.07128753 0.46496457 -0.15509696
000010 ae e8 9c bd 51 94 b6 3d ca bf 5c 3e 2a a9 ab be
       -0.07661568 0.08915008 0.21557537 -0.335275
000020 9a 7c 92 bd 81 38 a6 3e bc 4d 32 bd 15 2e a6 3e
       -0.07152672 0.32464984 -0.043531165 0.32457033
000030 c2 9a 53 be 43 44 29 bd 5d cd 85 3d 83 1f 12 be
       -0.20664504 -0.041324865 0.065333106 -0.14269833
000040 10 79 8a be 8f 56 37 be 1b a8 a1 be 28 0e cd 3d
       -0.27045488 -0.17904113 -0.31573567 0.10012466
000050 db 6a 66 3e b8 0c 55 3e f8 f3 8f 3e 28 6c 35 be
       0.225017 0.20805633 0.2811582 -0.1771704
000060 bf 9c 1b 3f 1a 34 a6 bd 80 a1 90 be cb 16 fa bd
       0.6078605 -0.08115406 -0.28248215 -0.12211379
000070 d5 86 b5 3d a6 b1 e7 bc 92 c0 27 bd 76 15 34 3d
       0.08863608 -0.028282952 -0.040955134 0.04396578
000080 bb c2 67 3e 73 28 1e 3e 9f 96 09 3f 07 a7 a5 3e
       0.22632878 0.15445118 0.53745455 0.32353994
000090 f3 6b 3a 3e 0a b7 fc 3c c4 39 32 3e c4 08 56 3e
       0.18205242 0.030848999 0.17404848 0.20901781
0000a0 85 69 d2 3b 4a d3 85 bd 8e 36 d7 3c 5d 6a 06 3d
       0.0064212703 -0.06534441 0.02627113 0.03281628
0000b0 41 9d a4 3d 3e 9e 04 bf 8f 6b c2 bd 0d d8 63 3e
       0.08037806 -0.5180396 -0.094931714 0.22250386
0000c0 79 b5 3f 3d c8 2d 28 3f 47 b8 1c be 50 6b 54 3e
       0.046803925 0.65694857 -0.15304671 0.20744061
0000d0 df 47 71 3e 1d ef d2 3d e1 08 34 3f 01 5f d1 3d
       0.23562573 0.102995135 0.7032605 0.10223199
0000e0 48 dd 98 3e 3b 87 7b bd f8 47 c0 be 2c 7c 6c be
       0.29856324 -0.061408263 -0.37554908 -0.23094243
0000f0 e2 dc 2e bf df 33 86 be 7d c6 8c bf 72 de 06 be
       -0.6830579 -0.2621145 -1.0998074 -0.13170794
000100 35 49 8d 3e d2 6a 39 be 4d 15 51 3e 24 fc ec be
       0.27594915 -0.18107155 0.20418282 -0.46286118
000110 36 c8 ae 3e 35 93 03 be fc 04 84 3d 3e 70 cf bd
       0.34137124 -0.12849124 0.06446263 -0.101288304
000120 65 0e 30 3e c5 0b 95 3e c6 ab 9d 3e d1 8f f3 3d
       0.17192991 0.29110542 0.30795115 0.11892665
000130 17 e0 78 be bf 8b 03 3d 86 91 84 be ce 47 c7 3d
       -0.24304233 0.032115694 -0.25892276 0.097304925
000140 69 5c 98 3e e9 e3 c2 3d 2e 8b 08 bd 6f 20 de 3d
       0.29758003 0.09516127 -0.033335857 0.1084603
000150 53 c3 21 3f 93 d5 22 3e 6e f6 3c 3e 69 a6 1c 3e
       0.63188666 0.15901785 0.1845338 0.15297855
000160 f7 d2 f4 bd d1 be 03 be 20 30 62 3e f5 a0 80 be
       -0.11954301 -0.1286576 0.2208867 -0.251228
000170 20 f7 a4 bd 76 ab e6 3d 76 c4 ed 3d 17 86 1d 3e
       -0.08054948 0.11263172 0.116097376 0.15383182
000180 da f0 97 be 88 75 54 3e eb b1 00 3e eb f8 12 3d
       -0.29675943 0.2074796 0.1256787 0.035881918
000190 dd 31 f9 3d 49 69 00 3e 4b 9d b9 3d f4 78 40 3d
       0.12167714 0.12540163 0.090632044 0.04699035
0001a0 5a 28 2b bb 07 c8 14 3e 3e 76 31 bd ba 99 42 be
       -0.002611658 0.1452943 -0.043325655 -0.19003955
0001b0 43 66 45 3d 5f 67 ab be 8d c2 6d 3c e9 ea 15 3e
       0.048193227 -0.33477303 0.014511717 0.14640392
0001c0 7e e1 9b be db a3 52 3e 82 33 3a 3c d1 a2 fd 3e
       -0.30445474 0.20570318 0.0113648195 0.49538282
0001d0 e3 a2 0a 3e 2d 9e 8a bd 4d 3d 18 3e de c4 9e be
       0.13538699 -0.06768451 0.14867134 -0.31009573
0001e0 60 c3 c5 3e 29 c6 84 3d 9f b7 87 bd 97 b5 ca 3c
       0.38625622 0.064831086 -0.0662682 0.024744792
0001f0 af fd b3 bd f6 f7 dd 3e d6 ce 88 3e de 00 ad 3e
       -0.08788621 0.43353242 0.26720303 0.33789724
000200 06 d6 7b 3a fa 8d 0a bd 1f 21 a9 3d c4 91 0b 3d
       0.0009606782 -0.033826806 0.082582705 0.03407456
000210 99 3e 8f 3d 73 82 79 3d 3d 21 ba bb 7e e2 3b 3d
       0.069943614 0.06091542 -0.005680232 0.045870297
000220 50 43 f4 bb d8 f4 6d 3d 81 c3 43 bb fb d5 2d 3d
       -0.0074543133 0.05809483 -0.0029871168 0.042440396
000230 3e 4d a6 3c 7d 48 56 bd cf 1d 87 3d 99 d6 a9 3d
       0.020300504 -0.052315224 0.065974824 0.082928844
000240 12 aa a5 bc a0 56 d6 bc ab aa c0 bd 55 8a 56 3d
       -0.020222697 -0.026164353 -0.09407552 0.052378017
000250 a1 07 8d bd 35 b8 b9 bd 88 03 b2 3d 96 74 02 3c
       -0.06886221 -0.09068338 0.0869208 0.007962367
000260 5e f9 93 3d 29 48 8c bd fb 4a 26 bd 4d 21 b5 bc
       0.072252974 -0.06849701 -0.04059885 -0.022110606
000270 47 6a 91 3d dd d8 a3 bd 42 4d bc bd 21 17 0e bd
       0.07100349 -0.08000348 -0.09194423 -0.034690026
000280 c1 ed 60 bd 56 5e a6 3d 3e b0 38 3d e5 0a 8d bd
       -0.05491424 0.08123462 0.045089953 -0.068868436
000290 0f 95 1b bd 63 f7 7a bc 77 e7 6c bd c8 10 84 bd
       -0.03798395 -0.015317771 -0.05783793 -0.06448513
0002a0 83 cc 8e 3d 10 c5 70 bd 93 6b 23 3d 94 58 e3 bc
       0.06972601 -0.058781683 0.039897513 -0.027752198
0002b0 16 14 9b bd 1b 09 24 bd 3f 15 a0 bc 7c 2d 88 bd
       -0.075721905 -0.040047746 -0.01954138 -0.066493005
0002c0 10 9a 54 bd 99 06 a0 bc b3 45 7a bd 05 37 93 3d
       -0.051904738 -0.019534396 -0.061101627 0.071882285
0002d0 10 e1 c2 bd 8d 7e be bc 3b f1 2e 3d 20 77 8c bd
       -0.095155835 -0.023253703 0.042710524 -0.06858659
0002e0 66 b2 6a bc 61 08 b4 bd 8e 40 bb bd 55 ff 41 3d
       -0.01432476 -0.08790661 -0.09143172 0.047362644
0002f0 14 2a 12 3c df 78 2c 3c c3 25 8f 3d be 5e 97 bc
       0.008921165 0.010526865 0.06989624 -0.018477794
000300 bb 59 70 bd 98 88 d7 bd d5 b5 b2 3b 94 98 8b bd
       -0.058679324 -0.105241 0.005453805 -0.06816211
000310 4b d6 96 3d 76 2f c8 bb 6b 1c 84 3d 74 d4 57 bc
       0.07365092 -0.0061091734 0.06450733 -0.013173211
000320 c3 59 23 bd e4 8c b8 bd db 19 b4 3d f0 26 b8 bd
       -0.039880525 -0.09011248 0.08793994 -0.08991802
000330 c2 fe 7f 3d ee a2 34 bd 66 83 80 bd 28 be 26 bd
       0.062498815 -0.044100694 -0.06275062 -0.04070869
000340 38 70 0a 3d e4 1e 68 3d 61 5f 9e bd fd 3f 99 bd
       0.033798426 0.056670085 -0.07733036 -0.07482908
000350 3a 11 e6 3c e4 cd fc 3c 95 4e 70 bd 14 fa f7 3c
       0.028084386 0.030859895 -0.05866869 0.030270614
000360 64 03 e6 bc c1 d0 95 bd 3d 27 2e 3d 7e bd 94 bd
       -0.028077789 -0.07315207 0.04251789 -0.07262705
000370 1d 3f a3 bc 3b 3a 04 bd df 85 1b bd 23 d4 cf bc
       -0.019927556 -0.032282095 -0.037969466 -0.02536971
000380 52 eb 77 bd 7f 36 ae 3d 71 26 99 bd 9e d2 28 3d
       -0.060527153 0.08506488 -0.07478035 0.041216485
000390 e2 c9 d1 bb 93 e5 82 3b c8 b1 03 3c 55 b9 34 bd
       -0.00640224 0.0039946525 0.008037992 -0.04412206
0003a0 9d 2c 4e bb 00 02 a3 3d 5a 53 75 bd cb 9b 19 3d
       -0.0031459697 0.07959366 -0.059893943 0.03750209
0003b0 cc b5 a3 bd 05 b4 3f bd 23 61 4b 3d 18 2f cb 3c
       -0.079936594 -0.04680254 0.049653184 0.02480273
0003c0 66 3e 9c bd 14 6d 76 bd da c3 3e 3d b3 60 2c bc
       -0.07629089 -0.06016262 0.046573497 -0.010521102
0003d0 a1 55 96 3d e2 26 ce bd 40 2b 03 3c 18 09 ca bd
       0.07340551 -0.1006601 0.008005917 -0.09865016
0003e0 ee 8f 26 3d 32 bc be bc 7e 0f a9 bc 77 0c b6 bc
       0.040664606 -0.023283098 -0.02063727 -0.02222274
0003f0 21 9e 03 bb 6c df 6f bd ac 82 7f bd 01 e3 23 3d
       -0.0020083266 -0.05856268 -0.062380478 0.04001141

fc2.bias f4 [128]
000000 6b e4 87 3d 20 4d 91 bd 77 ee fb bb 36 11 42 3e
       0.06635364 -0.070947886 -0.0076883393 0.18951878
000010 6b 8e f7 3d f5 04 63 bc 13 a9 8b bc 52 71 1f 3d
       0.12087711 -0.013856162 -0.017048394 0.03892643
000020 18 c5 30 3e f7 ea d9 bc 97 1c 2d 3e 4e 85 b4 3e
       0.17262685 -0.026601298 0.16905437 0.35257953
000030 f8 56 71 3e 1f 02 dd bd 7b f6 01 bd e4 9a b3 bc
       0.23568332 -0.1079142 -0.031729203 -0.021924444
000040 50 ae e5 3d 8e 48 d4 3e 8f 9f d5 3e cb 1e a9 3d
       0.11214888 0.41461605 0.41723296 0.082578264
000050 6c d5 8a 3d 13 87 d1 3c d2 13 64 3c a0 77 7b 3c
       0.06778988 0.025577104 0.013920741 0.015348345
000060 97 3a 2d 3e 0a 9a 84 3d 5c 19 0a 3e 74 fb c3 bd
       0.16916882 0.06474693 0.13486236 -0.09569445
000070 db 8e 08 3e 4c 39 46 bd be 9a 9d 3e c0 e7 21 3f
       0.13335745 -0.048394486 0.3078212 0.6324425
000080 19 73 39 3d 29 1a 8c 3e 83 ff 87 3d 7d d1 2c 3e
       0.04527578 0.2736371 0.06640532 0.16876788
000090 30 de 2c bc 3e f5 26 bd 7b c6 d7 3c a2 df 65 3d
       -0.0105510205 -0.040761225 0.02633976 0.056121476
0000a0 c2 b4 60 3f 91 98 c4 bd 9b 4b 3f 3e b6 29 21 bd
       0.87775815 -0.09599412 0.18681185 -0.03934642
0000b0 59 76 7d 3e d8 e2 92 bd c8 c1 e8 3d 2f bf 38 3e
       0.24752177 -0.07172173 0.11365086 0.18041681
0000c0 fb 4a 62 3e 86 17 7d 3d 99 9b 48 bd dc 6c 8e bd
       0.22098915 0.06179001 -0.048976514 -0.06954357
0000d0 70 ad 77 3e fa 0a 9e 3d 9b 7d ff 3d 6a d3 40 3e
       0.24187255 0.07716937 0.12475129 0.18830648
0000e0 2f 68 86 3d eb 0c a8 3d 20 a2 bf bb 03 87 d2 3e
       0.0656284 0.08205589 -0.005848184 0.4111863
0000f0 14 6f fb 3d 00 59 46 3b b9 5b 40 3e 8b 82 95 3d
       0.12277046 0.003026545 0.1878499 0.0730029
000100 e7 cf c8 3e ae c6 82 3c 00 0e a9 3e ce ed 48 3e
       0.39221117 0.015963878 0.33018494 0.19621965
000110 bf 71 03 3e 7f da 06 3e 44 99 c2 bc bc 64 c1 ba
       0.1283636 0.13169287 -0.023754723 -0.0014754753
000120 28 47 46 be 0e 10 15 3e 76 dc 31 3d bb ee aa 3d
       -0.19363081 0.14556906 0.04342314 0.083463155
000130 91 6d be 3d 4a 37 81 3d c4 b3 bb 3e 02 6e 25 3e
       0.09298242 0.06309374 0.36660588 0.16155246
000140 d8 1d 23 3e 08 45 8c 3c f5 d8 46 bd e4 94 b9 bd
       0.15929353 0.01712276 -0.04854675 -0.09061602
000150 73 f3 e3 3c 42 25 1f 3e 57 2f ad bd 34 3e 71 3e
       0.027826047 0.15541556 -0.08456295 0.23558885
000160 28 d4 84 3e ed c1 49 bc d4 3f 58 3e 8e c7 54 bd
       0.25943112 -0.012314302 0.21118098 -0.051948123
000170 98 70 14 3d 27 7c c3 bd 57 7e 07 be cc 07 c3 3d
       0.03624019 -0.095451646 -0.13231789 0.095229715
000180 00 01 cb 3d cb a1 18 3d 95 04 57 3d 17 f7 b4 3d
       0.099123 0.037263673 0.052494604 0.08836191
000190 28 a1 b5 3e be 09 64 3e 8b b8 f7 3d 93 c1 85 3d
       0.35474515 0.22269341 0.12095746 0.06531062
0001a0 18 7b f7 3d 01 a9 c1 3d ab 50 31 3e 0e cc df 3e
       0.12084025 0.09456063 0.17315929 0.4371037
0001b0 d8 1f c3 3d e7 dc 05 3e 58 a2 bc 3e c1 46 0d 3f
       0.09527558 0.13072549 0.36842608 0.55186087
0001c0 40 40 b5 ba 4b bf 0e 3e 14 8a f1 bc cf 98 21 bc
       -0.0013828352 0.1394016 -0.029484786 -0.009863093
0001d0 66 05 ca 3e f3 b0 ad 3e 1f 48 c2 3d e0 65 08 3e
       0.39457244 0.33924064 0.09486412 0.13320112
0001e0 4e 1b 21 3e b6 45 02 3e 4c 41 20 3e 7b 3f 0c 3e
       0.15733072 0.12721905 0.15649909 0.13696091
0001f0 c3 42 03 3e bb a8 f4 3c ae d3 04 3d 9e 6c 04 bc
       0.12818436 0.029865613 0.032428436 -0.008082537
