models/sac_Acrobot-v1.pth (torch, 219578 bytes, 18 tensors)

fc1.weight f4 [128, 6]
0	0x3f34270e	0.7037209
1	0x3f3f2b64	0.74675584
2	0xbeb6c5de	-0.35697836
3	0x3f12c3b4	0.5732987
4	0x3d213384	0.03935577
5	0x3d80fb1c	0.06297895
6	0xbf002aab	-0.50065106
7	0x3f2ce214	0.6753247
8	0xbdb93c62	-0.0904472
9	0xbf2482a9	-0.6426187
10	0x3ee79374	0.45229685
11	0x3e886fce	0.266478
12	0x3ef1b6e9	0.47209862
13	0xbea5dad1	-0.32393506
14	0xbe020288	-0.12696278
15	0xbd3d6398	-0.046237558
16	0x3e6ed894	0.23324805
17	0xbdc4cd2b	-0.09609445
18	0xbee160a4	-0.44019043
19	0x3f90c816	1.1311061
20	0xbf60d4bd	-0.8782461
21	0xbf43adf4	-0.76437306
22	0x3dfdf7d1	0.12400783
23	0x3e42eb5e	0.19035098
24	0xbfcd4cd7	-1.6039075
25	0xbf49a4ce	-0.78767097
26	0x3ec85f19	0.39135054
27	0x3e834a1b	0.25642475
28	0x3ece4f4b	0.4029487
29	0xbee6a7b7	-0.4504983
30	0x3e6ed491	0.23323275
31	0x3de03738	0.10948032
32	0x3eac6e53	0.3367792
33	0x3ec72b70	0.38900328
34	0xbf03a20a	-0.51419127
35	0xbcde9e6a	-0.027175147
36	0xbe32924c	-0.1743862
37	0x3e90226c	0.28151262
38	0x3f037eb3	0.513652
39	0xbed5f839	-0.4179094
40	0x3ec068b6	0.37579888
41	0xbe57bbba	-0.21067706
42	0xbb25ea64	-0.002531671
43	0x3f180666	0.59384763
44	0x3dab3552	0.083597794
45	0xbf5999d9	-0.8500038
46	0x3e7a1802	0.24423221
47	0x3eec8424	0.46194565
48	0xbf11cdc8	-0.5695462
49	0x3f300d18	0.6876998
50	0xbf779a2c	-0.9671962
51	0xbec76681	-0.38945392
52	0xbe2b3917	-0.16720997
53	0x3e1de78c	0.1542036
54	0xbe080cfe	-0.13286206
55	0xbdf89504	-0.121377975
56	0x3f0354b9	0.5130115
57	0xbe4b3563	-0.19844584
58	0x3e9f6ecc	0.3113922
59	0xbd91acaa	-0.07113011
60	0x3dfb591f	0.12272858
61	0xbf00a3e4	-0.5025008
62	0xbd36c855	-0.044624645
63	0xbf206924	-0.6266043
64	0xbe147307	-0.14497004
65	0xbd427f16	-0.04748448
66	0x3ead7011	0.33874562
67	0xbec9d1e1	-0.39417937
68	0xbd59c8bd	-0.053169955
69	0xbe9e74db	-0.3094853
70	0x3ebf6c6f	0.37387416
71	0x3ea6f8ee	0.32611793
72	0xbcf96961	-0.030445756
73	0xbec5dcb0	-0.38644934
74	0xbf40742f	-0.7517728
75	0xbf5351cb	-0.8254668
76	0xbe4e01a4	-0.20117813
77	0x3e1880b3	0.14892845
78	0x3e8e9d25	0.27854267
79	0xbd4fbabc	-0.050715193
80	0x3edd9bab	0.43282828
81	0xbe9aca60	-0.30232525
82	0x3ea04ca0	0.3130846
83	0xbca42605	-0.02003766
84	0x3d964105	0.0733662
85	0x3f40ce6b	0.7531497
86	0xbdd8c09b	-0.105836116
87	0xbf72d344	-0.94853616
88	0x3b65712f	0.003501009
89	0xbdbb7e16	-0.09154908
90	0x3e0e998e	0.13925764
91	0xbf38e0a9	-0.72217804
92	0xbdbae96e	-0.091265544
93	0x3f2d1a81	0.67618567
94	0xbe95eef6	-0.29283875
95	0xbe809f69	-0.2512162
96	0x3e63e84f	0.22256587
97	0x3f2a9651	0.66635615
98	0xbef3dd65	-0.47629848
99	0xbf38edfb	-0.7223813
100	0xbe2df9b0	-0.1698978
101	0x3e211cdc	0.15733665
102	0xbf1aa498	-0.604074
103	0xbdfa4976	-0.12221043
104	0xbdeada31	-0.11467398
105	0xbf5c5823	-0.86071986
106	0xbf167fb9	-0.5878864
107	0xbe113959	-0.14182033
108	0xbf1a57a1	-0.6028996
109	0xbf64d402	-0.89386
110	0x3f7080a2	0.9394628
111	0xbe044de7	-0.12920342
112	0x3dddffa0	0.10839772
113	0xbe0eeaa3	-0.13956694
114	0xbf4921a5	-0.7856696
115	0xbf3011a0	-0.68776894
116	0x3eebe8f5	0.4607617
117	0xbf38980c	-0.72107005
118	0xbead662b	-0.3386701
119	0xbe81f9dc	-0.2538594
120	0xbdda5ae3	-0.106618665
121	0xbe8412c7	-0.25795576
122	0x3e852e1d	0.26011744
123	0xbe705e2e	-0.23473427
124	0xbf232474	-0.637275
125	0xbe969f4d	-0.29418412
126	0xbebc6f3e	-0.3680362
127	0xbf823a33	-1.0174011
128	0x3f115b76	0.56780183
129	0x3e555f97	0.20837246
130	0xbd86c991	-0.065814145
131	0xbd321cea	-0.043484606
132	0xbf910c95	-1.1331965
133	0x3e8837e2	0.26605135
134	0xbe496976	-0.19669136
135	0xbe778b51	-0.24174239
136	0xbf18dc62	-0.5971128
137	0xbf01e84e	-0.50745094
138	0xbee65c5d	-0.44992343
139	0xbf8904b4	-1.070456
140	0x3f3916ab	0.72300214
141	0xbf3c5005	-0.735596
142	0x3e499a85	0.19687851
143	0x3dbe66f6	0.09296982
144	0xbe46b09d	-0.1940331
145	0xbe5e919b	-0.21735232
146	0x3ea195dd	0.3155965
147	0x3f62b607	0.88559
148	0x3e269456	0.16267523
149	0xbcd9e4df	-0.026598392
150	0xbe0a640f	-0.13514732
151	0xbe0e396c	-0.13889092
152	0x3f1e934d	0.61943513
153	0x3c81a3ac	0.015825115
154	0x3eb0936d	0.34487477
155	0xbeaf95ec	-0.3429407
156	0x3e361eb1	0.17785145
157	0x3df794aa	0.12088902
158	0xbe08e066	-0.13366851
159	0xbf8aae87	-1.0834512
160	0x3e80a78e	0.25127834
161	0x3e949212	0.29017693
162	0xbf6c34b4	-0.9226792
163	0xbdcbaa29	-0.09944565
164	0xbe3dddea	-0.18541685
165	0xbfc5a919	-1.544223
166	0xbe9694f8	-0.2941053
167	0x3e651afa	0.22373572
168	0xbd9010a8	-0.07034427
169	0xbf86b7eb	-1.0524877
170	0xbf034293	-0.5127346
171	0x3ef46c1f	0.4773874
172	0x3dccc0ab	0.09997686
173	0xbe3a4f79	-0.18194379
174	0xbf6d678c	-0.92736125
175	0xbf043980	-0.5165024
176	0xbf5e11d2	-0.8674594
177	0x3f4f1d58	0.8090415
178	0xbe0e36ea	-0.13888136
179	0xbe9bc7be	-0.3042583
180	0x3e93b5ec	0.28849733
181	0x3e4a4c44	0.19755656
182	0x3e93354e	0.28751606
183	0xbeb6ea04	-0.35725415
184	0x3ec21468	0.37906194
185	0x3e92537a	0.28579313
186	0xbeaa624a	-0.33278114
187	0xbed8a1b2	-0.42310864
188	0xbf342218	-0.7036452
189	0xbf3dfed8	-0.74216986
190	0x3ceec2df	0.029145656
191	0x3ded9d4b	0.11602267
192	0x3ca90679	0.02063297
193	0x3f437f9b	0.76366585
194	0x3e6928a4	0.2276941
195	0xbbfd2396	-0.0077251894
196	0xbd70059a	-0.058599092
197	0xbd8113f3	-0.06302633
198	0xbe8ecd73	-0.2789112
199	0x3e944619	0.2895973
200	0xbf0fc067	-0.5615296
201	0xbd44caa2	-0.04804481
202	0x3ea08c9b	0.31357273
203	0x3e71a1e1	0.23596908
204	0xbf214b62	-0.6300565
205	0xbd3507b2	-0.044196792
206	0xbf02aa9a	-0.5104157
207	0xbe853392	-0.26015908
208	0x3ea5e7e5	0.32403484
209	0x3ee55688	0.4479258
210	0xbe9b9ae4	-0.3039161
211	0x3fb010f4	1.3755174
212	0xbed6f0ff	-0.4198074
213	0xbd897672	-0.06712045
214	0x3e34f0b4	0.17669946
215	0x3e5b2b9a	0.21403351
216	0xbdedcdf3	-0.11611547
217	0x3d084bde	0.033275478
218	0x3e89a0a2	0.26880366
219	0xbf544345	-0.82915145
220	0xbe408893	-0.18802099
221	0x3e69c663	0.22829585
222	0xbee8ac8f	-0.45444152
223	0x3f1ab6cc	0.60435176
224	0xbf211d64	-0.6293547
225	0x3f565b96	0.837335
226	0x3e9241ae	0.28565735
227	0x3f089745	0.5335582
228	0xbedf7f1c	-0.43651664
229	0xbf4a2342	-0.7896005
230	0xbb2e06a9	-0.0026554263
231	0x3f31e992	0.69497025
232	0x3da5776b	0.08079418
233	0x3e13b3b0	0.14424014
234	0x3e0b61a4	0.13611466
235	0x3e9870c8	0.29773545
236	0xbe81bd42	-0.25339705
237	0xbe959cec	-0.29221284
238	0xbe9120f7	-0.28345463
239	0xbe6e6423	-0.23280387
240	0xbf09eace	-0.5387391
241	0xbeeb00bb	-0.45898995
242	0xbe3ab9fa	-0.18235007
243	0xbe0670a6	-0.1312891
244	0xbd80ad0c	-0.06283006
245	0xbd5f4d2f	-0.054516967
246	0xbf4a4d86	-0.7902454
247	0xbdd3e3e8	-0.10346204
248	0xbeb515b6	-0.35368127
249	0x3f735ba5	0.95061713
250	0x3cf322d2	0.02967969
251	0xbf1262dd	-0.57182103
252	0x3ac753d1	0.0015207474
253	0xbf7f1cd0	-0.9965334
254	0x3f0ff595	0.56234103
255	0xbe75b401	-0.23994447

fc1.bias f4 [128]
0	0xbf0b3383	-0.54375476
1	0xbd9ce6b5	-0.076611914
2	0x3d71ff74	0.05908151
3	0xbdfc1940	-0.123095036
4	0xbf2269a3	-0.6344244
5	0xbecea29c	-0.40358436
6	0xbe42857b	-0.18996231
7	0xbe317eeb	-0.17333572
8	0xbf6387b4	-0.8887894
9	0x3da7b6df	0.08189177
10	0x3e144d8d	0.14482708
11	0xbf0b9d9c	-0.5453737
12	0xbf0f7ae0	-0.5604687
13	0xbf43eda5	-0.7653449
14	0xbe8fe3f4	-0.28103602
15	0xbe2393fd	-0.15974422
16	0xbee5da0d	-0.44892922
17	0xbf24c140	-0.64357376
18	0x3db71d26	0.089411065
19	0xbe31a47a	-0.17347899
20	0xbf662b74	-0.89910054
21	0xbe2092b2	-0.1568096
22	0xbf7e1114	-0.9924481
23	0xbe8e845f	-0.27835366
24	0xbd841640	-0.06449556
25	0xbf80a1e4	-1.0049405
26	0x3c7c9160	0.0154155195
27	0xbedd82cd	-0.43263856
28	0xbe9dba7a	-0.30806333
29	0xbf1f2426	-0.62164533
30	0xbe7fda25	-0.2498556
31	0x3d28168c	0.041037127
32	0xbefd9d8d	-0.49534264
33	0xbdbec165	-0.09314231
34	0xbf19cc11	-0.60077006
35	0xbea7b982	-0.3275872
36	0xbf69bedd	-0.9130686
37	0xbecccdc7	-0.40000746
38	0x3dc5ba08	0.09654623
39	0xbeb54018	-0.35400462
40	0x3e14295d	0.14468904
41	0xbf825290	-1.0181446
42	0xbe8765a4	-0.26444733
43	0xbdfeeb12	-0.1244718
44	0xbee2ae4b	-0.442736
45	0x3dc82c4c	0.09774074
46	0x3e22e8f0	0.15909171
47	0xbf285246	-0.6575054
48	0xbe78ce9b	-0.24297564
49	0x3d2a1017	0.04151925
50	0xbf4ec7fb	-0.80773896
51	0x3dd597b5	0.104293264
52	0xbb93510e	-0.0044957465
53	0xbdc10a0a	-0.09425743
54	0xbf27a487	-0.65485424
55	0xbf0ebf8a	-0.55761015
56	0xbec0b671	-0.37639192
57	0xbeb018cb	-0.34393916
58	0xbdb2ea82	-0.08736135
59	0xbeb5e235	-0.35524145
60	0x3d7e3f11	0.062071864
61	0xbe22a448	-0.15882981
62	0x3ed72ec1	0.42027858
63	0xbd97bb78	-0.07408804
64	0xbf3dbf9f	-0.74120516
65	0xbe72004c	-0.23632926
66	0xbe5dae13	-0.21648435
67	0xbf02eb57	-0.5114035
68	0xbe62a227	-0.22132169
69	0xbe764f34	-0.24053651
70	0xbee1672e	-0.44024032
71	0xbedcaeaa	-0.43102008
72	0xbe35a18f	-0.17737411
73	0xbf638acf	-0.8888368
74	0xbeef8815	-0.4678351
75	0xbee20da9	-0.44151047
76	0xbe892bb6	-0.2679116
77	0xbed366ec	-0.4128946
78	0xbec124f0	-0.37723494
79	0xbe5b0630	-0.21389079
80	0xbee2a4d8	-0.4426639
81	0xbeb0fbd8	-0.34567142
82	0xbe78562d	-0.24251623
83	0xbefb3d9f	-0.4907045
84	0xbef8bbb2	-0.485807
85	0x3d09160a	0.033468284
86	0xbefcf657	-0.49406692
87	0x3e14d157	0.14532982
88	0x3dc0b24e	0.09409009
89	0xbf29057f	-0.6602401
90	0x3e40dec3	0.18834977
91	0x3e295979	0.16538037
92	0xbba7c6fd	-0.005120157
93	0xbea328aa	-0.31866962
94	0xbe3dc794	-0.18533164
95	0xbf0a7b0c	-0.54094005
96	0xbf344aa4	-0.7042639
97	0xbd7eabd7	-0.062175598
98	0xbe98b162	-0.29822832
99	0xbd95ec5d	-0.07320473
100	0xbe3720b7	-0.17883573
101	0xbf1024d1	-0.5630618
102	0xbe15e5bc	-0.14638418
103	0x3d9afb81	0.07567502
104	0xbc991a70	-0.018689364
105	0xbe8fd7ca	-0.2809432
106	0xbf25df4c	-0.6479385
107	0xbf196396	-0.5991758
108	0x3e48e575	0.19618781
109	0xbdb5a3af	-0.08869111
110	0x3e5233ab	0.20527522
111	0xbe214a27	-0.15750943
112	0xbe4d727a	-0.200632
113	0x3e2b1aad	0.16709395
114	0xbe8ca255	-0.274676
115	0xbf016051	-0.5053759
116	0x3e1869bc	0.14884084
117	0x3e9f32b3	0.31093368
118	0x3c8b4f6f	0.01700565
119	0xbe86dad6	-0.26338834
120	0xbf180961	-0.5938931
121	0xbf71e690	-0.94492435
122	0xbea82930	-0.32843924
123	0x3c1348cf	0.008989527
124	0xbea8e246	-0.32985133
125	0xbf11e003	-0.5698244
126	0xbe0d02c2	-0.13770583
127	0xbe96e436	-0.29470986

fc2.weight f4 [128, 128]
0	0xbdc06ddf	-0.09395956
1	0xbdafaa9d	-0.08577464
2	0xbd6e6c16	-0.058208548
3	0xbcf58680	-0.029971361
4	0x3d87006c	0.06591877
5	0xbb37614a	-0.0027981573
6	0x3d6315fd	0.05544089
7	0xbd3c5e91	-0.045988623
8	0x3ca12c4e	0.019674446
9	0xbbbc90f9	-0.005754587
10	0xbe1e38b0	-0.15451312
11	0xbca1171e	-0.019664343
12	0xbd19b76d	-0.037528444
13	0xbd79df17	-0.06100377
14	0xbdeee5e2	-0.116649404
15	0x3d31da8e	0.04342132
16	0x3cac512e	0.021034803
17	0x3d53cc6e	0.05170863
18	0x3d4ce1d4	0.050020054
19	0xbd527d2a	-0.051388897
20	0xbd0df3a7	-0.034656193
21	0xbba5b6d3	-0.0050571947
22	0xb9b31972	-0.000341605
23	0xbd6e9365	-0.058246035
24	0xbde9fe27	-0.11425429
25	0xbba008ab	-0.004883846
26	0xbdf4cf4c	-0.11953601
27	0x3b4553a2	0.0030109663
28	0x3d79b83a	0.060966708
29	0xbd63b3aa	-0.055591263
30	0xbd88872c	-0.06666407
31	0xbb2ee891	-0.0026688913
32	0xbd95829a	-0.07300301
33	0xbd86cf69	-0.06582529
34	0x3daf399f	0.08555912
35	0xbd1d7231	-0.03843898
36	0xbd5051b0	-0.050859153
37	0xbd531bc7	-0.051540162
38	0xbdb0bf70	-0.08630264
39	0xbd88c329	-0.06677849
40	0xbda84d32	-0.08217849
41	0x3cec01dc	0.02880948
42	0x3cb2e976	0.021839838
43	0xbd8e8fe3	-0.06961038
44	0xbdf12d43	-0.11776211
45	0xbd790405	-0.06079485
46	0xbd9cd6b2	-0.076581374
47	0xbd582705	-0.052771587
48	0xbdf8924b	-0.12137278
49	0xbca32983	-0.019917255
50	0xbdb55bd7	-0.08855408
51	0xbdfd18a7	-0.12358218
52	0xbdc66660	-0.09687495
53	0x3cd0d4fa	0.02549218
54	0xbd4e98ac	-0.050438568
55	0xbd4cf22e	-0.050035648
56	0x3d71e0c4	0.059052244
57	0x3d929ab6	0.07158415
58	0x3cbc639a	0.022996712
59	0xbdd53655	-0.10410754
60	0xbdb2d51a	-0.08732052
61	0xbd8d1ad3	-0.06889882
62	0x3d923ae2	0.07140137
63	0xbd02a422	-0.03189481
64	0xbd9b0ad6	-0.07570426
65	0xbcd99e3e	-0.026564714
66	0xbdc1a5f8	-0.09455484
67	0xbd8f055b	-0.06983443
68	0xbd2030ba	-0.03910897
69	0x3d1c15b3	0.03810663
70	0xbc188cd5	-0.009310921
71	0xbcd4d55e	-0.025980648
72	0xbd08de8d	-0.033415366
73	0xbd64fe1d	-0.055906404
74	0x3cfd3c58	0.030912563
75	0x3c0c4383	0.008561018
76	0xbcbad691	-0.022807391
77	0xbdaefa51	-0.08543838
78	0x3d1c64bb	0.038182
79	0xbc1fe976	-0.009760251
80	0xbdd3607e	-0.10321139
81	0xbc3685e1	-0.011140318
82	0x3d2630e6	0.040573977
83	0x3da298d8	0.07939309
84	0x3a88aed0	0.0010428075
85	0xbd72e840	-0.059303522
86	0xbc73e393	-0.014885801
87	0x3d0a3664	0.033743277
88	0xbe1a11ee	-0.15045902
89	0xbd300897	-0.042976942
90	0xbd9b770b	-0.07591065
91	0xbd52341e	-0.051319234
92	0xbc189887	-0.009313709
93	0xbd77d72d	-0.060507942
94	0xbce28816	-0.027652781
95	0x3d251a24	0.040308133
96	0xbca6a1ef	-0.020340888
97	0xbe0c4259	-0.13697185
98	0x3cee74e9	0.029108481
99	0xbcf9d53f	-0.030497191
100	0xbd14f38d	-0.03636508
101	0xbd667a0c	-0.056268737
102	0xbc762b85	-0.015025024
103	0xbe0da838	-0.13833702
104	0xbc5ba97c	-0.013407107
105	0xbd6f39cd	-0.058404732
106	0xbd913d42	-0.07091762
107	0xbbfef29e	-0.007780387
108	0xbde8969a	-0.1135685
109	0xbd7b0982	-0.061288364
110	0xbca33585	-0.019922981
111	0xbdaa806b	-0.08325275
112	0xbdd76f6e	-0.105193004
113	0xbd82f0bf	-0.06393575
114	0xbc4fe0d6	-0.012687882
115	0xbe04ff16	-0.12987933
116	0xbdd40d5c	-0.103541106
117	0xbd62931f	-0.055316087
118	0x3c22f510	0.009946123
119	0x3c4ca5f0	0.012490734
120	0xbdf3e964	-0.1190975
121	0x3ca0bbe9	0.019620853
122	0x3bb24163	0.0054399236
123	0x3b79b740	0.003810361
124	0xbd906dc7	-0.07052188
125	0xbd310a44	-0.04322268
126	0xbda5af2a	-0.080900505
127	0xbe06d9a6	-0.13168964
128	0x3e5169d6	0.2045053
129	0x3f118d12	0.5685588
130	0x3e99e790	0.3005948
131	0xbe71b067	-0.23602448
132	0x3eab982d	0.33514538
133	0x3d4901dd	0.049074043
134	0x3ea68585	0.32523742
135	0xbf0d9348	-0.5530286
136	0xbea8c78e	-0.32964748
137	0x3e4b7db0	0.19872165
138	0xbf1fa8e2	-0.6236707
139	0xbf86edfd	-1.0541378
140	0xbf83bead	-1.0292565
141	0x3eeeb9a7	0.46626016
142	0x3e89f936	0.26947945
143	0x3ea67e57	0.32518265
144	0xbf412811	-0.7545176
145	0xbf423438	-0.7586093
146	0x3ddb5b67	0.10710793
147	0xbd2b452d	-0.041814018
148	0xbe3793bd	-0.17927451
149	0x3e6562d7	0.22400986
150	0xbf5d3003	-0.86401385
151	0xbee803c1	-0.45315364
152	0x3ee47107	0.44617483
153	0x3e431b91	0.19053484
154	0x3eaa54ef	0.33267924
155	0xbea7f69e	-0.3280534
156	0xbdf3f54f	-0.11912023
157	0xbe5cec9d	-0.21574636
158	0xbf2fa3ab	-0.6860911
159	0xbf38ffaf	-0.7226514
160	0xbe38f5d7	-0.1806253
161	0xbd811ac3	-0.063039325
162	0xbe432826	-0.19058284
163	0x3d89884c	0.0671545
164	0xbe32d283	-0.17463116
165	0x3d9aa052	0.0755011
166	0x3e601353	0.21882372
167	0xbe54e8dd	-0.20791955
168	0x3d28fdd8	0.04125771
169	0x3e99a16a	0.30005962
170	0xbebdf223	-0.37098798
171	0x3db674f9	0.089090295
172	0x3e88e373	0.2673603
173	0x3e968bf9	0.29403666
174	0xbe349520	-0.17635012
175	0x3d40bbc8	0.047054082
176	0xbea0e07b	-0.31421265
177	0xbed196e2	-0.40935427
178	0xbe87d245	-0.2652761
179	0x3d8fa984	0.070147544
180	0xbfd5fc02	-1.6717532
181	0xbf144122	-0.57911885
182	0xbefcce38	-0.49376082
183	0x3e7a044c	0.24415702
184	0x3b55c165	0.0032616493
185	0xbeda49dd	-0.42634478
186	0xbe2f91a5	-0.17145403
187	0xbe2a1138	-0.16608131
188	0xbf4c702a	-0.7985865
189	0xbec679b6	-0.38764733
190	0xbf9b408c	-1.2129073
191	0xbf08207a	-0.53174555
192	0xbd30a138	-0.0431225
193	0x3ea496dd	0.3214635
194	0xbf154732	-0.5831176
195	0x3cb2b237	0.021813495
196	0xbec8f21a	-0.3924721
197	0xbe28b884	-0.16476637
198	0x3f621f58	0.88329077
199	0xbd4a4a52	-0.049387284
200	0xbd4f65d5	-0.050634224
201	0xbdecf3ed	-0.11569963
202	0x3e85b071	0.26111177
203	0xbebf9ebf	-0.374258
204	0xbf77fcf8	-0.96870375
205	0xbe6c50cf	-0.23077701
206	0x3e817339	0.2528322
207	0x3ecf7dde	0.40525717
208	0xbe12c779	-0.14333905
209	0x3eb1eeef	0.34752604
210	0xbe970bfd	-0.29501334
211	0xbec95ca9	-0.39328507
212	0xbf8aec42	-1.085335
213	0x3d2899fe	0.041162483
214	0xbd8401cf	-0.064456575
215	0xbebeed95	-0.37290636
216	0xbe6db519	-0.23213615
217	0xbfd0a7e7	-1.630124
218	0x3d29f672	0.041494794
219	0xbd5b3be7	-0.053523924
220	0xbf84234a	-1.0323269
221	0x3e6d6770	0.2318399
222	0xbe646eb3	-0.22307853
223	0xbe09a6d4	-0.13442546
224	0x3f276261	0.6538449
225	0x3e218320	0.15772676
226	0x3e0cb7c9	0.13741983
227	0xbfb5340a	-1.4156506
228	0xbedf0f3b	-0.43566307
229	0xbdcb3c73	-0.09923639
230	0xbe814119	-0.25244978
231	0xbe0ea3c5	-0.1392966
232	0xbea7c0d3	-0.327643
233	0x3ead5e3d	0.3386096
234	0xbe01147b	-0.12605469
235	0xbeb078aa	-0.3446706
236	0x3e6c5986	0.23081025
237	0x3dce0f8d	0.1006156
238	0xbf410e6e	-0.7541264
239	0xbf05742b	-0.52130383
240	0x3ee5dfaa	0.44897205
241	0xbd4a6ceb	-0.04942028
242	0x3e7cbba6	0.24680957
243	0xbd88fede	-0.06689237
244	0xbc9ce21b	-0.019150784
245	0xbf245e34	-0.6420624
246	0x3ec08146	0.37598628
247	0xbe276196	-0.1634582
248	0x3d6d0eea	0.05787555
249	0xbe06cda4	-0.13164383
250	0x3e5d7248	0.21625626
251	0xbdad2b23	-0.08455493
252	0xbdf610b9	-0.12014908
253	0xbe06560b	-0.1311876
254	0xbed6fa3d	-0.41987792
255	0x3c3bb61f	0.011456995

fc2.bias f4 [128]
0	0x3c127aea	0.008940438
1	0x3e6a1f8c	0.22863597
2	0x3d203efd	0.03912257
3	0xbe3bb45c	-0.1833052
4	0xbe9abdcd	-0.30222932
5	0x3d9426f2	0.07233991
6	0xbe531917	-0.2061504
7	0xbe53f03f	-0.20697115
8	0xbddf685e	-0.10908578
9	0xbe2d3d7c	-0.16917986
10	0x3dacfe7c	0.084469765
11	0x3c739b20	0.014868528
12	0x3c6e83c0	0.014557779
13	0xbe0bdb4a	-0.13657871
14	0xbe86f8ae	-0.26361603
15	0xbdee00ce	-0.11621247
16	0x3b326229	0.0027219153
17	0xbe1433ad	-0.14472838
18	0x3d818569	0.06324274
19	0x3b8455c1	0.004038543
20	0xbe81301d	-0.2523202
21	0xbe54e151	-0.20789076
22	0x3d5b3dd9	0.05352578
23	0x3d8ec4d7	0.06971138
24	0xbec82bbd	-0.3909587
25	0x3dc43a75	0.09581462
26	0xbda3769e	-0.07981609
27	0x3c08e79f	0.008356004
28	0xbddb814e	-0.10718022
29	0xbd48b7eb	-0.049003523
30	0xbe0eca2b	-0.13944308
31	0xbdbbd552	-0.09171547
32	0xbe9392f8	-0.28823066
33	0x3b2d93fb	0.0026485908
34	0xbe17eda5	-0.14836748
35	0xbdd88b94	-0.105734974
36	0xbe86cb69	-0.26327065
37	0xbdbac8f9	-0.09120364
38	0xbe8d0961	-0.27546218
39	0xbdb5de33	-0.08880272
40	0xbdeed523	-0.11661746
41	0xbd87e02a	-0.06634553
42	0xbe99ff4e	-0.30077595
43	0xbe997d34	-0.29978335
44	0xbedc5afd	-0.4303817
45	0xbe0f7a45	-0.14011486
46	0xbcd3427e	-0.025788542
47	0xbdc99f05	-0.09844784
48	0x3e62a0da	0.22131673
49	0xbe98459e	-0.29740614
50	0xbe92a2d5	-0.28639856
51	0xbd993703	-0.07481196
52	0xbed5d0f5	-0.41760984
53	0xbded37ee	-0.11582933
54	0xbdba9c3c	-0.091118306
55	0xbd87d6b9	-0.06632752
56	0x3ddd9d3e	0.10821007
57	0xbdefb754	-0.11704889
58	0xbf0707bd	-0.5274618
59	0xbebdeee3	-0.3709632
60	0xbeb563d3	-0.35427722
61	0x3d088752	0.033332177
62	0xbc844018	-0.016143844
63	0xbe6de243	-0.23230843
64	0xbd61fe43	-0.055174123
65	0x3e2b46fc	0.16726297
66	0xbddd2baa	-0.10799344
67	0xbd4e8c5c	-0.050426826
68	0xbe35f804	-0.17770392
69	0x3e1bd475	0.15217765
70	0xbdd7f16a	-0.10544093
71	0x3e37ca7a	0.17948332
72	0x3e058277	0.1303805
73	0xbe060807	-0.13089
74	0xbe7b4dba	-0.24541369
75	0x3e4b1158	0.19830835
76	0xbdf95c92	-0.121758595
77	0xbeda132d	-0.42592755
78	0x3e01e18d	0.12683697
79	0xbeb55a59	-0.35420492
80	0xbe1b7ca3	-0.15184264
81	0xbe4c1c96	-0.1993278
82	0x3c0ac97f	0.008470892
83	0xbeba79fe	-0.36421198
84	0xbdc82742	-0.09773113
85	0xbdeb534b	-0.11490496
86	0xbe4cec91	-0.20012118
87	0xbd8e375e	-0.06944154
88	0xbd8ecd43	-0.06972744
89	0xbedf5ade	-0.43624014
90	0xbd79d276	-0.060991727
91	0xbe56f0e2	-0.20990327
92	0xbec4bd45	-0.3842565
93	0xbe7eb359	-0.24873103
94	0x3cd887d3	0.026431954
95	0xbcd96b66	-0.02654047
96	0xbda298b9	-0.07939286
97	0xbdbde284	-0.0927172
98	0xbeeb854b	-0.46000132
99	0xbdc38e72	-0.09548654
100	0xbebfd7bd	-0.37469283
101	0xbd1b88d9	-0.037972305
102	0xbb8a3a53	-0.0042183786
103	0xbdbde199	-0.09271545
104	0xbce8e662	-0.028430168
105	0xbe2c14e4	-0.16804844
106	0xbeb3a547	-0.35087034
107	0x3be9dc75	0.007136876
108	0xbd8c4549	-0.068491526
109	0xbe3502f8	-0.17676914
110	0xbc7e6389	-0.015526661
111	0xbe8449b8	-0.25837493
112	0xbe6d655e	-0.231832
113	0xbe162a3a	-0.14664546
114	0xbe90734c	-0.28212965
115	0xbd80938a	-0.06278141
116	0xbe4e5a27	-0.20151578
117	0xbeb620c7	-0.35571882
118	0xbd5a8890	-0.053352892
119	0x3cae9ca2	0.021314923
120	0x3b9ac994	0.004723737
121	0xbefc7abb	-0.49312386
122	0xbebee604	-0.37284863
123	0x3dcd59cd	0.10026894
124	0xbe9ea6f3	-0.30986747
125	0xbdc88308	-0.09790617
126	0xbe00d292	-0.12580326
127	0x3c7a385f	0.015272229

logits.weight f4 [3, 128]
0	0xbd64c6a0	-0.055853486
1	0x3e0054ce	0.1253235
2	0xbf0fc5b1	-0.5616103
3	0x3e8df440	0.2772541
4	0x3f13b607	0.57699627
5	0xbfe86018	-1.8154325
6	0x3f1e456a	0.6182467
7	0x3e844569	0.25834206
8	0xbf877c0e	-1.0584733
9	0x3fc0b5b7	1.5055455
10	0xbe5816b7	-0.21102415
11	0x3f340082	0.70313275
12	0xbf04812a	-0.5175959
13	0x3f0d9f30	0.55321026
14	0xbe9eb1ab	-0.30994925
15	0x3f051a4b	0.51993245
16	0xbf225eed	-0.63426095
17	0xbdc5e9a3	-0.09663703
18	0xbfb8cb7b	-1.4437097
19	0xbd421324	-0.047381535
20	0x3dc0501f	0.09390282
21	0x3cbc0a96	0.022954267
22	0xbfde71e1	-1.7378503
23	0x3f41012f	0.7539243
24	0xbf7b2567	-0.98103946
25	0xbf44510d	-0.76686174
26	0xbf46e21a	-0.77688754
27	0xbd5835da	-0.05278573
28	0x3d902128	0.07037574
29	0x3ed51d50	0.41623926
30	0x3ec04254	0.37550604
31	0x3f70b830	0.9403105
32	0xbf603d87	-0.87593883
33	0x3ef7c588	0.48392892
34	0x3f05d2c4	0.5227473
35	0xbcd17016	-0.025566142
36	0xbf00ca21	-0.50308424
37	0xbf1a9544	-0.6038401
38	0x3f3b7e09	0.7323919
39	0xbd44fa88	-0.048090488
40	0x3c9b15dc	0.018931322
41	0xbda6b3f0	-0.08139789
42	0xbef26a65	-0.47346798
43	0xbd06af25	-0.032881875
44	0xbed7312d	-0.42029706
45	0xbea6bac3	-0.32564363
46	0x3c9afad1	0.018918427
47	0x3d826e03	0.06368639
48	0xbf9eef25	-1.2416731
49	0x3f98e54a	1.1944973
50	0x3f5989dc	0.8497598
51	0x3f12350b	0.5711219
52	0xbec2d1bf	-0.3805065
53	0xbf820c4c	-1.0160003
54	0x3ea01b69	0.31270912
55	0xbc7a7554	-0.015286762
56	0x3ed1db73	0.4098774
57	0x3f4548b7	0.7706408
58	0x3edefd0f	0.43552443
59	0xbede2e5a	-0.43394738
60	0x3f75caba	0.9601246
61	0xbee53455	-0.4476649
62	0x3ec0520f	0.37562606
63	0xbf2485c4	-0.6426661
64	0xbd98f605	-0.074687995
65	0x3edef65a	0.43547326
66	0x3ec60756	0.38677472
67	0x3e1cf7f6	0.15328965
68	0x3f36cfb1	0.7141066
69	0xbdfbcfd1	-0.12295497
70	0xbeb87aad	-0.36031094
71	0xbed8c3bc	-0.42336833
72	0xbfc107b4	-1.5080476
73	0x3ee8036a	0.45315105
74	0xbec573fe	-0.38565058
75	0x3e9a1fba	0.3010233
76	0xbf755580	-0.9583359
77	0x3f8d27b2	1.1027739
78	0x3ef1bcda	0.47214395
79	0x3f20bc2d	0.62787133
80	0xbf51091a	-0.8165451
81	0xbf819d63	-1.0126156
82	0xbe8a2ef6	-0.26988953
83	0x3e60750a	0.21919647
84	0xbc17355e	-0.009229032
85	0x3e5edbb2	0.21763495
86	0xbef14a03	-0.4712678
87	0xbf52c4d5	-0.8233159
88	0x3c1171cc	0.008877229
89	0x3f44e19a	0.7690674
90	0x3f2ef654	0.68344617
91	0xbf2d8d58	-0.677938
92	0xbf69cee7	-0.9133133
93	0x3f01f0fb	0.5075833
94	0xbed47840	-0.41497993
95	0x3e93a5d5	0.28837457
96	0xbed84d13	-0.42246303
97	0x3d904f33	0.07046356
98	0x3fac2f88	1.3452005
99	0xbedd452b	-0.43216833
100	0xbf09cfe0	-0.5383282
101	0xbf57afcc	-0.8425262
102	0x3f0763ac	0.5288646
103	0x3a86d34a	0.0010286358
104	0xbed8ef74	-0.42370188
105	0x3f0a8968	0.54115915
106	0x3f472f79	0.7780681
107	0xbea68e67	-0.3253052
108	0x3f1bebaa	0.6090647
109	0x3f62fa58	0.88663244
110	0x3f687361	0.90801054
111	0x3db74de5	0.08950404
112	0xbf0be30e	-0.5464333
113	0xbf1e6e59	-0.6188713
114	0x3f347b0c	0.70500255
115	0x3ec3fcd1	0.3827882
116	0x3e9edd26	0.31028098
117	0x3e9a6bb5	0.301603
118	0xbe18e22c	-0.14930028
119	0xbd85edd4	-0.06539503
120	0xc0024465	-2.0354245
121	0x3f2de7f3	0.6793205
122	0x3e688df1	0.22710396
123	0x3e851e7d	0.25999823
124	0xbdbca4d1	-0.09211124
125	0x3f5a7308	0.85331774
126	0x3edf8464	0.43655694
127	0x3f310b33	0.69157714
128	0xbd1e567a	-0.03865669
129	0x3e2116ef	0.15731405
130	0x3e4611ff	0.19342802
131	0x3c88a25d	0.016678983
132	0xbf092e30	-0.535861
133	0x3ff9292f	1.9465693
134	0xbe4f15f1	-0.20223214
135	0x3e3dd1f7	0.18537126
136	0x3ddf6e4a	0.10909708
137	0xbecbfadf	-0.39839837
138	0xbdcf1f40	-0.10113382
139	0x3d8b2d54	0.06795755
140	0x3d827731	0.0637039
141	0x3e9a0669	0.30083016
142	0x3dd5488e	0.10414229
143	0x3e9ae562	0.3025313
144	0x3d133b7a	0.035945393
145	0x3e12b205	0.14325722
146	0xbc451fea	-0.012031535
147	0xbd403804	-0.04692842
148	0xbef6358c	-0.48087728
149	0x3ea73098	0.32654262
150	0x40214e92	2.5204206
151	0x3d474f12	0.04865939
152	0x3df8320d	0.121189214
153	0x3e0f297b	0.13980667
154	0x3e461ad2	0.19346169
155	0x3d2dec27	0.04246154
156	0xbf201ccd	-0.62543947
157	0x3ceff40a	0.029291172
158	0x3dba2ad4	0.090902
159	0xbf43c881	-0.7647782
160	0xbd20ad5d	-0.039227832
161	0x3dd15ed6	0.10223167
162	0xbe33a90d	-0.17544957
163	0xbd05463b	-0.03253768
164	0x3ed50017	0.4160163
165	0x3fdee57e	1.7413785
166	0xbd9c6293	-0.07635989
167	0xbd17a2cf	-0.0370205
168	0xbc8dc034	-0.017303564
169	0xbd82c371	-0.06384934
170	0xbe7fbfdf	-0.24975537
171	0xbea2270b	-0.31670412
172	0xbcc34ff1	-0.02384183
173	0x3e1ff45a	0.15620556
174	0xbd92ef3f	-0.07174539
175	0xbbdf0f98	-0.006807279
176	0xbeddf363	-0.43349752
177	0x3f09194f	0.5355424
178	0xbe197d52	-0.14989212
179	0xbf4e5aba	-0.8060719
180	0x3f07848a	0.52936614
181	0xbf1f78a3	-0.6229345
182	0xbef4a4d9	-0.4778202
183	0x3d4377f6	0.047721826
184	0xbe0e3aa5	-0.13889559
185	0xbe14345b	-0.14473097
186	0x3ede9753	0.43474826
187	0xbead5264	-0.33851922
188	0xbf1c01e4	-0.60940385
189	0x3de2c41e	0.11072563
190	0xbf2675b2	-0.6502334
191	0x3e3879a3	0.1801515
192	0x3d8d965e	0.06913446
193	0xbd80dd85	-0.062922515
194	0xbe130aef	-0.1435964
195	0x3de4abc4	0.11165574
196	0xbd56da70	-0.052454412
197	0xbeed556d	-0.46354237
198	0x3e969c63	0.2941619
199	0x3dd331d7	0.103122406
200	0x3f573545	0.8406566
201	0xbc1d63a8	-0.009606279
202	0x3d8b74f2	0.06809415
203	0x3b98d8a4	0.0046644974
204	0x3f4508c2	0.7696649
205	0xbe02c252	-0.1276944
206	0xbefa40ce	-0.48877567
207	0x3e38c469	0.18043675
208	0xbe1258ee	-0.14291736
209	0x3f7e8e60	0.99435997
210	0xbf559ae8	-0.83439493
211	0x3f0c931d	0.5491198
212	0x3d8b982a	0.06816132
213	0x3ed6f4a6	0.41983527
214	0x3f19d2a6	0.6008705
215	0x3dafa733	0.085768126
216	0xbb5ebf64	-0.003398859
217	0x3e4513dd	0.19245858
218	0xbd562a21	-0.05228627
219	0x3ecaa679	0.39580134
220	0x3e9dc161	0.308116
221	0xbf2104ff	-0.6289825
222	0x3dd8d968	0.10588342
223	0xbf627cc4	-0.8847163
224	0xbd283207	-0.041063335
225	0x3c35bcba	0.011092359
226	0xbdbf5612	-0.093425885
227	0x3d7747f6	0.06037136
228	0x3d4d067d	0.050055016
229	0x3e69aa9c	0.22818989
230	0x3edf2283	0.43581018
231	0x3f40763d	0.7518042
232	0xbd63f812	-0.0556565
233	0x3bb713ca	0.005587076
234	0xbead0a60	-0.33796978
235	0xbe7b2027	-0.24523984
236	0xbdea3eab	-0.11437734
237	0xbecaf464	-0.3963958
238	0xbe26dee6	-0.16295967
239	0x3e8272f1	0.25478318
240	0x3de5aa45	0.11214117
241	0xbe482c4e	-0.19548151
242	0xbdfeb560	-0.12436938
243	0xbe4c3c7a	-0.19944945
244	0xbe67d3bc	-0.22639364
245	0x3ed16c15	0.40902773
246	0x3d0030dd	0.0312966
247	0xbd963822	-0.07334925
248	0x3ffe4d39	1.9867316
249	0x3e695804	0.22787482
250	0xbf53d702	-0.8274995
251	0x3f1a74b9	0.60334355
252	0x3e2719bd	0.16318412
253	0xbd79c121	-0.060975198
254	0xbedc0048	-0.42968965
255	0x3ce90221	0.028443398

logits.bias f4 [3]
0	0x3df5250e	0.11969958
1	0xbebd3dfe	-0.3696136
2	0x3e043b1f	0.12913178

fc1.weight f4 [128, 6]
0	0xbf98c738	-1.1935797
1	0x3ea2811b	0.31739125
2	0xbe86ee23	-0.2635356
3	0xbddf3271	-0.10898293
4	0xbf4639db	-0.7743203
5	0xbddc0c0f	-0.107444875
6	0x3e15ca3f	0.14627932
7	0x3eb0a569	0.34501198
8	0x3ea6069c	0.32426918
9	0x3f72bdad	0.9482067
10	0xbbe332a0	-0.006933525
11	0x3e04f0f8	0.12982547
12	0xbfc9d41a	-1.5767853
13	0xbeb2acf4	-0.34897578
14	0xbf97d880	-1.1862946
15	0xbf1cc502	-0.6123811
16	0xbee8473d	-0.4536685
17	0xbedbab5d	-0.42904177
18	0x3f36e7f0	0.7144766
19	0xbf4a88d2	-0.7911502
20	0x3daaa193	0.08331599
21	0xbb865937	-0.0040999907
22	0x3e6bf393	0.23042135
23	0x3eb09ee8	0.34496236
24	0xbf9ef839	-1.2419502
25	0xbf762520	-0.961504
26	0xbf7e21ea	-0.992705
27	0x3f67eb0a	0.90593016
28	0xbcbb31bc	-0.022850864
29	0xbe9e225c	-0.3088559
30	0xbf1a8d57	-0.6037192
31	0xbf9f3e76	-1.2440937
32	0x3f66b1a3	0.901148
33	0xbe91e29f	-0.2849321
34	0x3ca8d927	0.020611359
35	0xbd5ffe85	-0.054686088
36	0x3efea0fb	0.49732193
37	0x3fb309a8	1.3987322
38	0x3ec65ef2	0.38744313
39	0xbf7d59a5	-0.9896491
40	0x3eb64d76	0.35605973
41	0x3ecb5b9a	0.39718324
42	0xbf94c59a	-1.1622803
43	0xbfd7f750	-1.6872349
44	0xbea2ff03	-0.31835184
45	0x3f779ed5	0.96726733
46	0xbe441cb6	-0.19151577
47	0x3d2ab718	0.041678518
48	0x3dc28db4	0.09499684
49	0xbf3daa1c	-0.7408769
50	0xbf86d2dc	-1.0533099
51	0x3e93b0de	0.28845876
52	0xbd4617d3	-0.048362564
53	0xbcce764a	-0.025202889
54	0x3e5d1a4d	0.21592064
55	0xbfc565f5	-1.542174
56	0xbe34e98f	-0.1766722
57	0x3fbd8d20	1.4808693
58	0xbee77bd2	-0.45211655
59	0xbf0a0def	-0.5392751
60	0x3f7a2828	0.97717524
61	0xbe8664d6	-0.26248807
62	0x3dae270a	0.0850354
63	0x3f2271af	0.6345472
64	0x3eb398da	0.35077554
65	0x3e167bdb	0.14695685
66	0x3e8974eb	0.26847014
67	0x3e9d0f0f	0.3067555
68	0xbfa5fdc6	-1.296807
69	0x3d447e8f	0.04797226
70	0x3e026cd1	0.12736823
71	0x3e3f268e	0.18667051
72	0x3f5cd18c	0.86257243
73	0xbf121598	-0.570642
74	0x3f2c443b	0.6729161
75	0x3ef6f090	0.4823041
76	0xbecf57cc	-0.4049667
77	0xbe52c6e3	-0.20583682
78	0xbfc5d822	-1.5456583
79	0xbf32d03e	-0.69849
80	0x3f58a817	0.84631485
81	0x3ef7034f	0.48244712
82	0x3f3fa361	0.7485867
83	0xbe3821d0	-0.17981648
84	0xbf8ad417	-1.0845975
85	0x3c7ede58	0.015555941
86	0x3fb6440e	1.4239519
87	0x3fa51d31	1.2899534
88	0xbce28d55	-0.027655283
89	0xbe8855ae	-0.26627868
90	0x3ec35a19	0.38154677
91	0x3fca136b	1.5787176
92	0xbd88404c	-0.06652889
93	0x3f55bfb8	0.83495665
94	0xbe4f4e35	-0.20244677
95	0xbeadcba9	-0.33944443
96	0xbe8aba96	-0.2709548
97	0x3e1b9185	0.1519223
98	0xbf5e9030	-0.8693876
99	0xbf781fee	-0.9692372
100	0x3eebf632	0.4608627
101	0x3f0461c0	0.51711655
102	0xbf1bdf87	-0.6088795
103	0x3fa1414e	1.2598054
104	0xbf2e9b3e	-0.6820563
105	0x3e5cb11d	0.21551938
106	0xbe3c0461	-0.18361045
107	0x3ed66bf0	0.41879225
108	0xbe67f534	-0.22652131
109	0xbf28c339	-0.65922886
110	0xbfab1372	-1.3365309
111	0x3f481b11	0.781663
112	0xbf4745b2	-0.7784072
113	0x3d837c3b	0.064201795
114	0xbf50f751	-0.81627375
115	0xbd963df3	-0.073360346
116	0x3f531d3e	0.82466495
117	0xbe4d0ea8	-0.20025122
118	0x3f68d3a7	0.90947956
119	0x3e9cfbb8	0.30660796
120	0xbe1b3528	-0.15156996
121	0x3f67c9bb	0.9054219
122	0xbf30b692	-0.6902858
123	0xbf49aa31	-0.78775316
124	0x3f2f3cf6	0.68452394
125	0x3eb479d5	0.352492
126	0x3f1bdde5	0.6088546
127	0x3f48feaf	0.78513616
128	0x3f4a78db	0.7909066
129	0xbf90e5d6	-1.132014
130	0x3e328dcf	0.17436908
131	0x3eef1de1	0.46702483
132	0xbdd4162e	-0.10355793
133	0x3ec3c277	0.38234302
134	0x3d425401	0.047443394
135	0x3ec94056	0.39306897
136	0x3f5c3c43	0.8602945
137	0x3e389ec8	0.1802932
138	0xbf48e5e6	-0.784758
139	0x3ea8a2d2	0.32936722
140	0x3f846142	1.0342181
141	0xbd0f205a	-0.034942962
142	0x3f2c9eb4	0.6742966
143	0xbe7c86a4	-0.24660736
144	0x3f226e30	0.6344938
145	0x3e613f89	0.21996893
146	0x3c7c27bd	0.015390334
147	0xbd79fb39	-0.0610306
148	0x3df0286b	0.11726459
149	0xbdba112e	-0.09085308
150	0xbc6a2f49	-0.0142935
151	0x3f2073f0	0.62676907
152	0x3ea4678e	0.32110256
153	0x3e643531	0.22285916
154	0xbf81379a	-1.0095093
155	0xbe6b3323	-0.22968726
156	0xbebd7e02	-0.370102
157	0x3d9481cd	0.0725132
158	0xbf0953db	-0.5364358
159	0xbdf48f7f	-0.11941432
160	0xbe2c53bb	-0.16828816
161	0x3ea95c27	0.3307812
162	0x3e757535	0.23970492
163	0xbe445313	-0.19172315
164	0x3db0d056	0.08633487
165	0xbf23bca3	-0.6395971
166	0xbf692ff4	-0.91088796
167	0xbf195e60	-0.5990963
168	0x3ec5121b	0.38490376
169	0xbf9bb1d4	-1.2163644
170	0xbe59bb9d	-0.21262975
171	0xbf280c61	-0.6564389
172	0xbd1618cc	-0.036644742
173	0x3da4f9a3	0.08055427
174	0xbe3ebaac	-0.18625897
175	0xbfc2cec5	-1.5219351
176	0xbe84fd1e	-0.25974363
177	0xbec3e21b	-0.38258442
178	0x3ede1ff4	0.43383753
179	0xbdbbc5f1	-0.09168614
180	0xbf5729bd	-0.8404806
181	0x3f951511	1.1647054
182	0xbf84ec40	-1.0384598
183	0x3f11131b	0.5666978
184	0xbd465d45	-0.048428793
185	0xbcb97b9e	-0.022641953
186	0x3e0eaf83	0.1393414
187	0xbec55177	-0.38538715
188	0xbe4113cf	-0.18855213
189	0x3f115f5f	0.5678615
190	0xbf548c7f	-0.8302688
191	0xbf18e95c	-0.5973108
192	0x3f8214c3	1.0162586
193	0x3f2459e4	0.6419966
194	0x3ebd31fc	0.36952198
195	0x3ee2356a	0.44181377
196	0x3e36fdfc	0.17870325
197	0x3d0a6b69	0.03379384
198	0x3f1a30d0	0.6023073
199	0xbfcd7428	-1.6051073
200	0xbe1139cd	-0.14182205
201	0xbe1da5aa	-0.15395227
202	0xbf453408	-0.7703252
203	0xbe9a0244	-0.30079854
204	0xbfa1a584	-1.2628636
205	0x3fbb910d	1.4653641
206	0x3f108a20	0.5646076
207	0x3ec7d047	0.3902609
208	0xbf15b84a	-0.5848433
209	0xbe0d470c	-0.13796633
210	0x3e8549e5	0.2603294
211	0x3f1ef9c6	0.62099874
212	0xbfbd7949	-1.4802638
213	0xbeca2324	-0.39479935
214	0xbe5b035c	-0.21388
215	0xbde18b5e	-0.1101291
216	0x3d69b313	0.057055544
217	0xbf536a32	-0.82583916
218	0x3ef68bff	0.48153684
219	0xbe83a688	-0.2571299
220	0xbeb9a5b1	-0.36259225
221	0xbe5c45ec	-0.21511048
222	0xbedb6631	-0.42851403
223	0xbf1e4d9a	-0.6183716
224	0x3f5b20f7	0.85597175
225	0xbf178d3a	-0.5919987
226	0x3e2d625d	0.16932054
227	0x3ea3b4b6	0.3197381
228	0xbed5cb13	-0.41756496
229	0xbf344c9b	-0.7042939
230	0x3f9df494	1.2340264
231	0x3e8f465f	0.27983376
232	0xbf35a4b5	-0.7095445
233	0xbda5e8be	-0.08101033
234	0xbf36b9d0	-0.7137728
235	0xbf8fa10b	-1.1221021
236	0xbefaab57	-0.48958847
237	0x3f02687a	0.5094067
238	0x3db56a53	0.0885817
239	0xbce61c96	-0.028089803
240	0xbf83fd5a	-1.0311692
241	0x401cc7a6	2.4496856
242	0x3fa40660	1.2814445
243	0x3f15eb94	0.5856259
244	0x3e93c741	0.28862956
245	0x3e8362d1	0.25661328
246	0x3e344fdb	0.17608587
247	0xbfa47c53	-1.2850441
248	0x3f1bf35f	0.6091823
249	0xbee1bd93	-0.44089946
250	0xbcb31c17	-0.02186398
251	0xbede89d6	-0.43464535
252	0x3f07eb42	0.5309335
253	0xbf1e2f85	-0.6179126
254	0xbe931ea5	-0.28734317
255	0x3fc5767e	1.5426786

fc1.bias f4 [128]
0	0xbf186f95	-0.5954526
1	0x3e109728	0.14120162
2	0xbbcd63db	-0.006268007
3	0x3ce0b500	0.027430058
4	0xbf023ab5	-0.5087083
5	0xbe0fa275	-0.14026816
6	0xbe2967c5	-0.16543491
7	0xbeb52206	-0.3537752
8	0x3e695bae	0.2278888
9	0xbea498ae	-0.32147735
10	0x3f179bce	0.59222114
11	0x3eed909b	0.46399388
12	0x3e99100f	0.29895064
13	0xbf90795c	-1.1287036
14	0xbf1acaf2	-0.6046592
15	0xbdc88f24	-0.09792927
16	0x3c6ea00c	0.014564525
17	0xbef893f1	-0.4855037
18	0xbfb347d3	-1.4006294
19	0xbf579a07	-0.842194
20	0x3da5357f	0.08066844
21	0x3f419060	0.75610924
22	0x3ef7c4e3	0.483924
23	0xbd7fad26	-0.062420987
24	0x3f103047	0.56323665
25	0xbe457f49	-0.19286837
26	0xbeaa77ee	-0.33294624
27	0xbe121c9b	-0.14268725
28	0x3e8b71ec	0.27235353
29	0xbec7c5a5	-0.39017978
30	0x3ee086cb	0.4385284
31	0xbfa43ab3	-1.2830414
32	0x3dd58145	0.10425047
33	0x3e7dae87	0.24773608
34	0xbf3a9682	-0.72885907
35	0x3d370be5	0.044689078
36	0x3ec654c4	0.38736546
37	0x3f2f258f	0.68416685
38	0xbf250b92	-0.6447078
39	0x3ec48c07	0.38388082
40	0xbeaf89e2	-0.34284884
41	0xbe934fc7	-0.28771803
42	0xbf6532dc	-0.8953073
43	0xbf6cd0f0	-0.92506313
44	0xbe2cb1b7	-0.16864668
45	0xbe1dab99	-0.1539749
46	0x3ddc7135	0.1076378
47	0xbe793e88	-0.2434026
48	0x3f490657	0.785253
49	0xbbac09e8	-0.0052502044
50	0xbe1311e1	-0.14362289
51	0xbf993361	-1.1968805
52	0xbf2d37d4	-0.6766331
53	0x3ea1da6e	0.3161196
54	0xbdec4073	-0.1153573
55	0x3f31cbc8	0.6945157
56	0x3e84214e	0.2580666
57	0x3df45559	0.11930341
58	0x3f1a31f9	0.602325
59	0xbed42cb7	-0.41440365
60	0xbf1fb299	-0.62381893
61	0xbe878a8f	-0.264729
62	0xbe8a1614	-0.2696997
63	0xbefd9d38	-0.4953401
64	0xbf098ddc	-0.53732085
65	0xbecf7c4b	-0.40524516
66	0xbe7478d2	-0.23874214
67	0xbdcf9af0	-0.10136974
68	0xbf83629e	-1.026447
69	0xbeb0e4e4	-0.3454963
70	0xbf1d54cf	-0.6145753
71	0xbe79f8fa	-0.24411383
72	0x3ec876f1	0.39153245
73	0xbf61bb8c	-0.881768
74	0xbf8d7cb6	-1.1053684
75	0xbeb39d65	-0.3508102
76	0x3ecb7a54	0.39741766
77	0x3f19e277	0.6011118
78	0xbce97ff2	-0.028503392
79	0x3ee6fc34	0.4511429
80	0xbf6346ab	-0.88779706
81	0xbf52bad6	-0.8231634
82	0xbf67b50a	-0.9051062
83	0x3eaed08e	0.3414349
84	0xbf347357	-0.70488495
85	0x3e7d989d	0.24765249
86	0xbf769c38	-0.9633212
87	0xbf93bc22	-1.1541789
88	0xbbea5f51	-0.007152476
89	0xbf0f3da1	-0.55953413
90	0x3f5e8eec	0.8693683
91	0xbee3e782	-0.44512564
92	0xbed846bb	-0.42241463
93	0xbed4409a	-0.41455537
94	0xbf096a3b	-0.5367772
95	0xbf8fa389	-1.1221782
96	0xbf5fdf9f	-0.87450594
97	0xbf873fac	-1.0566306
98	0x3f2ba430	0.67047405
99	0xbed16cc0	-0.40903282
100	0xbf93d44c	-1.1549163
101	0x3ec40bec	0.38290346
102	0x3de13a81	0.10997487
103	0x3e6ebcae	0.23314163
104	0x3ecfec6e	0.4061007
105	0x3f4667ea	0.7750231
106	0xbf94ef06	-1.1635444
107	0xbfe9aa7c	-1.8255153
108	0x3d1ef312	0.03880603
109	0x3e921fcf	0.28539893
110	0x3df7ef90	0.1210624
111	0x3e04952a	0.12947527
112	0xbf9ac95f	-1.2092704
113	0xbed500ea	-0.4160226
114	0xbea20671	-0.3164554
115	0xbf88b308	-1.0679636
116	0xbf803ca5	-1.0018507
117	0xbe72aa92	-0.2369788
118	0xbda6cb27	-0.08144217
119	0x3d5a3c7b	0.053280335
120	0xbf3cc10c	-0.73732066
121	0x3d467090	0.04844719
122	0x3eba1042	0.3634053
123	0xbfdb2a46	-1.7122276
124	0xbfa7ade5	-1.3099943
125	0x3ec15bc5	0.37765327
126	0xbf79b619	-0.97543484
127	0x3ea05bd7	0.31320068

fc2.weight f4 [128, 128]
0	0xbbd343e5	-0.0064473026
1	0xbca60c16	-0.020269435
2	0xbd6f35ad	-0.0584008
3	0xbd8c8967	-0.06862145
4	0xbda6ed52	-0.08150734
5	0xbb0bfb56	-0.0021359525
6	0xbd41c0ff	-0.047303196
7	0xbd70e8ac	-0.058815643
8	0xbddd1885	-0.10795692
9	0x3c031cda	0.008002484
10	0xbcd7b1be	-0.026329871
11	0xbdbcd5da	-0.092204764
12	0xbd3308ec	-0.04370968
13	0xbd0704d0	-0.032963574
14	0xbd2e0670	-0.042486608
15	0xbca0cad4	-0.019627966
16	0x3cbcb3a9	0.023034887
17	0xbdb9d9b8	-0.0907473
18	0xbb636043	-0.0034694828
19	0x3d199458	0.037494987
20	0xbcefc32e	-0.029267874
21	0x3ce8e22d	0.028428162
22	0x3d9e8e2c	0.07741961
23	0x3c807932	0.01568279
24	0x3d385ef2	0.045012422
25	0xbab6a983	-0.0013936016
26	0xbd853cba	-0.06505723
27	0x3c8e5ef1	0.017379256
28	0xbd39b4fc	-0.045338616
29	0xbd935077	-0.07193082
30	0xbdb8f2c4	-0.09030679
31	0xbd0ca038	-0.034332484
32	0x3d228d9f	0.03968584
33	0xbd8d0b83	-0.06886961
34	0xbcdc2c78	-0.026876673
35	0xbc343d48	-0.011000939
36	0x3c79bd5b	0.0152429
37	0x3d2497d2	0.04018385
38	0x3c017425	0.007901226
39	0xbd257b09	-0.04040054
40	0xbd2a1b7e	-0.041530125
41	0xbdfe34e0	-0.12412429
42	0xbd9d50dd	-0.07681439
43	0xbd62f807	-0.05541232
44	0x3d334f3e	0.043776743
45	0xbcd10b39	-0.025518047
46	0xbc154680	-0.009111047
47	0x3d4f971e	0.050681226
48	0xbd43c07b	-0.047790986
49	0x3cddebec	0.027090035
50	0x3d3524d4	0.044224575
51	0xbda3acea	-0.07991965
52	0x3d7fd7ed	0.062461782
53	0x3d3511b0	0.04420632
54	0xbc97b59e	-0.018519219
55	0xbc448dba	-0.011996681
56	0xbdcb29a8	-0.09920055
57	0xbd8f223c	-0.069889516
58	0xbd6fadd6	-0.058515392
59	0xbd8f8641	-0.07008029
60	0xbd6035c4	-0.054738775
61	0xbdc60378	-0.0966863
62	0xbd69c972	-0.05707688
63	0x3d455718	0.048178762
64	0xbdbc840a	-0.09204872
65	0xbd1966d3	-0.037451576
66	0xbba78b1c	-0.0051130187
67	0xbd449a1f	-0.047998544
68	0x3a7ed2d9	0.000972075
69	0xbdb6f662	-0.089337125
70	0x3c7ac5bc	0.015305933
71	0x3d2af67c	0.041738972
72	0xbd0e6467	-0.03476372
73	0x3da0d175	0.07852451
74	0xbdb1280d	-0.08650217
75	0xbdaebd3d	-0.08532188
76	0xbd846399	-0.06464309
77	0x3d12a4b3	0.0358016
78	0xbdede4ed	-0.1161593
79	0xbcc5cd1f	-0.02414566
80	0xbdb467a1	-0.08808828
81	0xbcb59751	-0.02216688
82	0xbdad8ead	-0.08474479
83	0xbda85b40	-0.082205296
84	0xbdbd6dd2	-0.09249462
85	0xbd98cbd3	-0.074607514
86	0x3c8d83e9	0.017274814
87	0x3bb62190	0.0055582
88	0xbdc59aec	-0.0964869
89	0x3d997ba8	0.07494289
90	0xbd31ab4e	-0.04337626
91	0xbc85a2ee	-0.016313042
92	0xbd5e4023	-0.054260384
93	0xbd569fc7	-0.05239847
94	0xbd9a8874	-0.075455576
95	0xbda46f02	-0.080289856
96	0xbd5e0e7b	-0.05421303
97	0x3c0c914b	0.008579562
98	0xbd965cf9	-0.07341952
99	0xbdaba0ba	-0.083802655
100	0x3c89d0b8	0.016823158
101	0xbd7f3765	-0.062308688
102	0xbdd22353	-0.10260644
103	0x3cde0b45	0.027104983
104	0xbdbb1e88	-0.09136683
105	0xbe00b38e	-0.12568495
106	0x3d323a5a	0.04351268
107	0x3d292ec6	0.041304372
108	0xbd8bfdc2	-0.0683551
109	0x3cc3b90c	0.023891948
110	0xbd863a3a	-0.065540746
111	0xbda8af68	-0.08236581
112	0xbc9e492d	-0.019322002
113	0xbd8e8c30	-0.069603324
114	0x3c9030c8	0.017601386
115	0xbdb9ec24	-0.090782434
116	0x3d80aeb0	0.06283319
117	0x3d2b38e4	0.041802302
118	0xbdb6e2be	-0.089299664
119	0xbdb27a6d	-0.08714757
120	0x3b4d87b9	0.0031361415
121	0xbd3ded91	-0.04636914
122	0xbdefd955	-0.11711375
123	0x3d802389	0.06256778
124	0x3d7e0fe9	0.06202689
125	0x3d08fc85	0.033443946
126	0x3a95767e	0.0011403111
127	0xbdd03a01	-0.10167313
128	0xbd3e8053	-0.0465091
129	0xbd99647b	-0.07489868
130	0x3c97ae12	0.01851562
131	0x3c1ccd92	0.009570496
132	0xbb88d190	-0.0041753724
133	0xbdfd6dee	-0.12374483
134	0xbd8029fb	-0.06258007
135	0xbd9063a2	-0.070502535
136	0xbdc1c4d6	-0.094613716
137	0x3c69e0c4	0.01427478
138	0xbd0c3873	-0.03423352
139	0xbdcb92db	-0.0994012
140	0xbdb9ef59	-0.09078855
141	0xbdbca006	-0.092102095
142	0xbdbd3a65	-0.092396535
143	0xbb5938d2	-0.003314544
144	0xbd3e2f84	-0.046432033
145	0xbda7efb2	-0.08200015
146	0x3bd12c40	0.006383449
147	0xbd344978	-0.044015378
148	0xbde3ef76	-0.11129658
149	0xbc442c69	-0.011973479
150	0xbcf9ef21	-0.030509533
151	0xbcd41e76	-0.025893431
152	0x3a84c329	0.0010128963
153	0xbd519628	-0.05116859
154	0xbd9e2e6b	-0.07723697
155	0x3d509c06	0.050930046
156	0x3d48cdb8	0.049024314
157	0x3d37741c	0.044788465
158	0x3d4137ce	0.04717236
159	0x3da663df	0.08124518
160	0xbc548b21	-0.012972624
161	0xbd9df00b	-0.077118
162	0x3ca24ede	0.019812997
163	0xbd96b81b	-0.07359334
164	0xbdf19473	-0.117958926
165	0xbaf9507b	-0.0019021177
166	0xbd5ac85f	-0.053413745
167	0xbd82c5ca	-0.063853815
168	0x3d9dd4a7	0.07706576
169	0xbc1b61f5	-0.009483804
170	0x3bcd26db	0.0062607354
171	0xbd0694f5	-0.0328569
172	0x3d076298	0.03305301
173	0xbbf2531d	-0.007395162
174	0xbd7098f2	-0.05873961
175	0xbcbcf80f	-0.023067502
176	0x3cde971e	0.027171668
177	0xbd88c860	-0.066788435
178	0xbd857363	-0.06516149
179	0x3d070c43	0.032970678
180	0xbc4d009e	-0.012512354
181	0x3d31bd4e	0.043393426
182	0xbd9a86ff	-0.0754528
183	0x3cae532b	0.021279892
184	0xbd8e0dcd	-0.06936226
185	0xbd5b58ed	-0.053551603
186	0xbded72b2	-0.11594142
187	0xbdd0eaba	-0.102010205
188	0x3c91eabd	0.017812127
189	0x3ca21d58	0.019789383
190	0x3d2976d2	0.04137308
191	0x3d33340a	0.0437508
192	0x3d5ae35d	0.053439487
193	0x3c820319	0.015870618
194	0x3d3a4ac4	0.04548146
195	0xbda49386	-0.0803595
196	0x3d87a3e1	0.06623054
197	0x3d5515ad	0.052022625
198	0xbb8821c2	-0.004154415
199	0xbcb39efd	-0.021926397
200	0x3d23f077	0.040024247
201	0xbd34ff4a	-0.044188775
202	0xbda8badc	-0.082387656
203	0xbd90a09c	-0.07061884
204	0xbd28b838	-0.04119131
205	0x3b938b7f	0.004502713
206	0xbc79b831	-0.015241669
207	0xbcb2c9a9	-0.021824675
208	0x3d8d1e99	0.06890602
209	0x3d520e4f	0.051283177
210	0xbd68a9a8	-0.05680242
211	0xbd034b2f	-0.032054123
212	0xbc6db300	-0.014508009
213	0xbc3b8dc5	-0.011447375
214	0xbdb67ccf	-0.08910524
215	0xbcc20130	-0.023682207
216	0x3d77bc50	0.060482323
217	0xbdaf7f1e	-0.085691676
218	0x3bcec2a4	0.006309824
219	0x3c3ae72f	0.0114076575
220	0xbd0c7e94	-0.0343004
221	0xbd13b983	-0.03606559
222	0xbd4e07ba	-0.050300337
223	0xbda4832b	-0.08032831
224	0xbdb00b4d	-0.085959055
225	0x3d27e59a	0.04099045
226	0xbd255311	-0.04036242
227	0xbc2b186b	-0.010442833
228	0xbc6d8088	-0.014495976
229	0xbdb8842d	-0.090095855
230	0xbd51e675	-0.05124517
231	0xbdb3391c	-0.08751127
232	0x3bbff9b9	0.0058586267
233	0xbd8cc453	-0.068733834
234	0xbd15a701	-0.03653622
235	0x3cff073c	0.03113138
236	0xbdc98bc0	-0.09841108
237	0xbd83244f	-0.0640341
238	0xbdb465d7	-0.08808487
239	0xbd6873f0	-0.05675119
240	0xbd64bf6f	-0.055846628
241	0xbdc1bf29	-0.09460289
242	0x3d071daa	0.032987274
243	0x3d44d74a	0.04805688
244	0xbd156811	-0.0364762
245	0xbdcb1f74	-0.099181086
246	0x3cedab5f	0.02901238
247	0xbd765223	-0.060136925
248	0xbd8c5c41	-0.068535335
249	0xbdef2793	-0.1167747
250	0xbc82e44e	-0.015978005
251	0x3ca43000	0.02004242
252	0x3dac4eff	0.08413505
253	0xbd94b9b9	-0.07261986
254	0xbd7ac06e	-0.06121867
255	0x3da3aa63	0.07991483

fc2.bias f4 [128]
0	0x3ae0166e	0.0017096528
1	0x3c4253a6	0.011860764
2	0xbe1e55c4	-0.15462404
3	0xbd456731	-0.048194114
4	0xbe2636e7	-0.16231881
5	0x3ca60fc5	0.020271191
6	0x3e6f9a9b	0.23398821
7	0xbebf3cc8	-0.3735106
8	0xbcfc863c	-0.030825727
9	0x3ea65189	0.3248408
10	0xbddf32b7	-0.10898345
11	0x3d560bcd	0.052257348
12	0x3ecb757f	0.3973808
13	0xbc707a5b	-0.014677609
14	0xbd0d4240	-0.03448701
15	0x3b2976fb	0.0025858271
16	0x3c2b7b59	0.01046642
17	0x3e5d2284	0.21595198
18	0x3efccdf3	0.49375877
19	0x3ea9204a	0.33032447
20	0x3e8e5284	0.2779733
21	0x3eb48c27	0.35263178
22	0x3e20754e	0.15669748
23	0x3cba958c	0.022776388
24	0xbdefc9c6	-0.11708407
25	0x3e8e640d	0.27810708
26	0x3b897091	0.004194327
27	0x3e002cf7	0.12517153
28	0xbe89ccb3	-0.26913986
29	0xbc215846	-0.009847706
30	0x3eaabc03	0.33346567
31	0x3c856c35	0.016286949
32	0x3e847c06	0.25875872
33	0xbd75cca5	-0.060009617
34	0xbd98b40c	-0.07456216
35	0xbccaa9f2	-0.02473924
36	0x3ecd1ade	0.4005956
37	0x3f02816a	0.5097872
38	0xbd9fc8c1	-0.07801963
39	0x3cb93e80	0.02261281
40	0xbd93cc68	-0.07216722
41	0x3e3118a3	0.17294554
42	0x3e8301c5	0.25587288
43	0x3e9d089b	0.30670628
44	0x3e8d65fe	0.27616876
45	0x3e0265af	0.12734102
46	0xbd13e9f0	-0.036111772
47	0x3e809707	0.25115225
48	0x3d8c769e	0.06858562
49	0x3eb324a7	0.349889
50	0xbe83d1a3	-0.25745878
51	0x3e92ee9a	0.28697664
52	0xbeb75224	-0.35804856
53	0x3e04f016	0.1298221
54	0xbc97c805	-0.018527994
55	0x3ec884fe	0.39163965
56	0x3eb3cfc7	0.3511946
57	0x3ea38a7c	0.31941593
58	0x3e32a3b7	0.17445265
59	0xbddf7d10	-0.10912526
60	0x3ed594e6	0.41715163
61	0x3e310658	0.17287576
62	0xbcfa1a13	-0.030530011
63	0x3d04b114	0.032395437
64	0xbe1ee106	-0.15515527
65	0x3ddd8579	0.108164735
66	0xbe5e9801	-0.21737672
67	0x3e7d4e64	0.24736935
68	0xbe7a3f86	-0.24438295
69	0x3e5b34e8	0.21406901
70	0xbdfebdc7	-0.12438541
71	0x3da15eb7	0.078793935
72	0x3e9c0d4b	0.30478892
73	0x3f114704	0.56748986
74	0x3e31875b	0.1733679
75	0x3ec1294f	0.37726828
76	0xbdf76376	-0.120795175
77	0xbdb72d01	-0.08944131
78	0x3f034351	0.5127459
79	0xbcc46366	-0.023973178
80	0x3ebe0701	0.3711472
81	0x3eee838d	0.4658474
82	0x3e7f4d62	0.24931863
83	0x3ddf14a4	0.10892609
84	0x3ed09f0b	0.4074634
85	0x3e46073f	0.19338702
86	0xbde8efd5	-0.11373869
87	0xbc9d3bf1	-0.019193621
88	0x3e03ec1b	0.12883036
89	0x3d0abf1a	0.033873655
90	0x3e7e6e48	0.24846756
91	0x3ed85e37	0.4225938
92	0x3e997afa	0.29976636
93	0x3d6a33fb	0.05717848
94	0xbe187187	-0.14887057
95	0x3eabdb75	0.3356587
96	0x3e391fa6	0.18078479
97	0x3e2cd775	0.16879065
98	0x3e95ea64	0.29280388
99	0x3e99c064	0.30029595
100	0x3ea70129	0.32618073
101	0x3e98778d	0.2977871
102	0x3eebb5c7	0.46037123
103	0xbdc6bfc9	-0.09704549
104	0xbd8bc276	-0.068242
105	0x3cd0ccca	0.025488276
106	0xbdd41ed7	-0.10357445
107	0xbcc89ff9	-0.024490343
108	0x3e754f31	0.2395599
109	0xbc981c33	-0.018568134
110	0x3d3d73d9	0.04625306
111	0xbe6f6baf	-0.23380922
112	0xbdac6a06	-0.0841866
113	0xbd99ac0c	-0.075035185
114	0x3e29ece0	0.16594267
115	0x3ea76ebe	0.32701677
116	0x3f0bcf23	0.5461294
117	0xbb92437a	-0.0044636102
118	0x3f080e7d	0.5314711
119	0x3edee9dd	0.435378
120	0x3c1c23c0	0.009530008
121	0xbdbd6db4	-0.0924944
122	0x3e9594f5	0.29215208
123	0x3c10b600	0.008832455
124	0x3e922187	0.28541204
125	0x3eea0449	0.45706394
126	0x3a3650e0	0.00069548003
127	0x3e01a216	0.12659487
